…
=> loading pretrained weights file: /data/adas_vision_data1/users/soyeb/bitbucket/pytorch-jacinto-ai-devkit/data/checkpoints/ade20k_seg_class32/cfg11_2021-03-07_23-36-26_ade20k_seg_class32_fpnlite_pixel2pixel_aspp_mobilenetv2_1p4_tv_resize512x512_traincrop512x512_epcoh120_53.10_53.01/training/model_best.pth
[33m=> creating model 'fpnlite_pixel2pixel_aspp_mobilenetv2_1p4_tv'[39m
=> using pretrained weights from: /data/adas_vision_data1/users/soyeb/bitbucket/pytorch-jacinto-ai-devkit/data/checkpoints/ade20k_seg_class32/cfg11_2021-03-07_23-36-26_ade20k_seg_class32_fpnlite_pixel2pixel_aspp_mobilenetv2_1p4_tv_resize512x512_traincrop512x512_epcoh120_53.10_53.01/training/model_best.pth
=> Size = [512, 512], GFLOPs = 13.071654912, GMACs = 6.535827456
FPNLitePixel2PixelASPP(
  (encoder): MobileNetV2TVMI4(
    (features): Sequential(
      (0): Sequential(
        (0): Conv2d(3, 48, kernel_size=(3, 3), stride=(2, 2), padding=(1, 1), bias=False)
        (1): BatchNorm2d(48, eps=1e-05, momentum=0.1, affine=True, track_running_stats=True)
        (2): ReLU6()
      )
      (1): InvertedResidual(
        (conv): Sequential(
          (0): Sequential(
            (0): Conv2d(48, 48, kernel_size=(3, 3), stride=(1, 1), padding=(1, 1), groups=48, bias=False)
            (1): BatchNorm2d(48, eps=1e-05, momentum=0.1, affine=True, track_running_stats=True)
            (2): ReLU6()
          )
          (1): Conv2d(48, 24, kernel_size=(1, 1), stride=(1, 1), bias=False)
          (2): BatchNorm2d(24, eps=1e-05, momentum=0.1, affine=True, track_running_stats=True)
        )
      )
      (2): InvertedResidual(
        (conv): Sequential(
          (0): Sequential(
            (0): Conv2d(24, 144, kernel_size=(1, 1), stride=(1, 1), bias=False)
            (1): BatchNorm2d(144, eps=1e-05, momentum=0.1, affine=True, track_running_stats=True)
            (2): ReLU6()
          )
          (1): Sequential(
            (0): Conv2d(144, 144, kernel_size=(3, 3), stride=(2, 2), padding=(1, 1), groups=144, bias=False)
            (1): BatchNorm2d(144, eps=1e-05, momentum=0.1, affine=True, track_running_stats=True)
            (2): ReLU6()
          )
          (2): Conv2d(144, 32, kernel_size=(1, 1), stride=(1, 1), bias=False)
          (3): BatchNorm2d(32, eps=1e-05, momentum=0.1, affine=True, track_running_stats=True)
        )
      )
      (3): InvertedResidual(
        (conv): Sequential(
          (0): Sequential(
            (0): Conv2d(32, 192, kernel_size=(1, 1), stride=(1, 1), bias=False)
            (1): BatchNorm2d(192, eps=1e-05, momentum=0.1, affine=True, track_running_stats=True)
            (2): ReLU6()
          )
          (1): Sequential(
            (0): Conv2d(192, 192, kernel_size=(3, 3), stride=(1, 1), padding=(1, 1), groups=192, bias=False)
            (1): BatchNorm2d(192, eps=1e-05, momentum=0.1, affine=True, track_running_stats=True)
            (2): ReLU6()
          )
          (2): Conv2d(192, 32, kernel_size=(1, 1), stride=(1, 1), bias=False)
          (3): BatchNorm2d(32, eps=1e-05, momentum=0.1, affine=True, track_running_stats=True)
        )
        (add): AddBlock(inplace=False, signed=True)
      )
      (4): InvertedResidual(
        (conv): Sequential(
          (0): Sequential(
            (0): Conv2d(32, 192, kernel_size=(1, 1), stride=(1, 1), bias=False)
            (1): BatchNorm2d(192, eps=1e-05, momentum=0.1, affine=True, track_running_stats=True)
            (2): ReLU6()
          )
          (1): Sequential(
            (0): Conv2d(192, 192, kernel_size=(3, 3), stride=(2, 2), padding=(1, 1), groups=192, bias=False)
            (1): BatchNorm2d(192, eps=1e-05, momentum=0.1, affine=True, track_running_stats=True)
            (2): ReLU6()
          )
          (2): Conv2d(192, 48, kernel_size=(1, 1), stride=(1, 1), bias=False)
          (3): BatchNorm2d(48, eps=1e-05, momentum=0.1, affine=True, track_running_stats=True)
        )
      )
      (5): InvertedResidual(
        (conv): Sequential(
          (0): Sequential(
            (0): Conv2d(48, 288, kernel_size=(1, 1), stride=(1, 1), bias=False)
            (1): BatchNorm2d(288, eps=1e-05, momentum=0.1, affine=True, track_running_stats=True)
            (2): ReLU6()
          )
          (1): Sequential(
            (0): Conv2d(288, 288, kernel_size=(3, 3), stride=(1, 1), padding=(1, 1), groups=288, bias=False)
            (1): BatchNorm2d(288, eps=1e-05, momentum=0.1, affine=True, track_running_stats=True)
            (2): ReLU6()
          )
          (2): Conv2d(288, 48, kernel_size=(1, 1), stride=(1, 1), bias=False)
          (3): BatchNorm2d(48, eps=1e-05, momentum=0.1, affine=True, track_running_stats=True)
        )
        (add): AddBlock(inplace=False, signed=True)
      )
      (6): InvertedResidual(
        (conv): Sequential(
          (0): Sequential(
            (0): Conv2d(48, 288, kernel_size=(1, 1), stride=(1, 1), bias=False)
            (1): BatchNorm2d(288, eps=1e-05, momentum=0.1, affine=True, track_running_stats=True)
            (2): ReLU6()
          )
          (1): Sequential(
            (0): Conv2d(288, 288, kernel_size=(3, 3), stride=(1, 1), padding=(1, 1), groups=288, bias=False)
            (1): BatchNorm2d(288, eps=1e-05, momentum=0.1, affine=True, track_running_stats=True)
            (2): ReLU6()
          )
          (2): Conv2d(288, 48, kernel_size=(1, 1), stride=(1, 1), bias=False)
          (3): BatchNorm2d(48, eps=1e-05, momentum=0.1, affine=True, track_running_stats=True)
        )
        (add): AddBlock(inplace=False, signed=True)
      )
      (7): InvertedResidual(
        (conv): Sequential(
          (0): Sequential(
            (0): Conv2d(48, 288, kernel_size=(1, 1), stride=(1, 1), bias=False)
            (1): BatchNorm2d(288, eps=1e-05, momentum=0.1, affine=True, track_running_stats=True)
            (2): ReLU6()
          )
          (1): Sequential(
            (0): Conv2d(288, 288, kernel_size=(3, 3), stride=(2, 2), padding=(1, 1), groups=288, bias=False)
            (1): BatchNorm2d(288, eps=1e-05, momentum=0.1, affine=True, track_running_stats=True)
            (2): ReLU6()
          )
          (2): Conv2d(288, 88, kernel_size=(1, 1), stride=(1, 1), bias=False)
          (3): BatchNorm2d(88, eps=1e-05, momentum=0.1, affine=True, track_running_stats=True)
        )
      )
      (8): InvertedResidual(
        (conv): Sequential(
          (0): Sequential(
            (0): Conv2d(88, 528, kernel_size=(1, 1), stride=(1, 1), bias=False)
            (1): BatchNorm2d(528, eps=1e-05, momentum=0.1, affine=True, track_running_stats=True)
            (2): ReLU6()
          )
          (1): Sequential(
            (0): Conv2d(528, 528, kernel_size=(3, 3), stride=(1, 1), padding=(1, 1), groups=528, bias=False)
            (1): BatchNorm2d(528, eps=1e-05, momentum=0.1, affine=True, track_running_stats=True)
            (2): ReLU6()
          )
          (2): Conv2d(528, 88, kernel_size=(1, 1), stride=(1, 1), bias=False)
          (3): BatchNorm2d(88, eps=1e-05, momentum=0.1, affine=True, track_running_stats=True)
        )
        (add): AddBlock(inplace=False, signed=True)
      )
      (9): InvertedResidual(
        (conv): Sequential(
          (0): Sequential(
            (0): Conv2d(88, 528, kernel_size=(1, 1), stride=(1, 1), bias=False)
            (1): BatchNorm2d(528, eps=1e-05, momentum=0.1, affine=True, track_running_stats=True)
            (2): ReLU6()
          )
          (1): Sequential(
            (0): Conv2d(528, 528, kernel_size=(3, 3), stride=(1, 1), padding=(1, 1), groups=528, bias=False)
            (1): BatchNorm2d(528, eps=1e-05, momentum=0.1, affine=True, track_running_stats=True)
            (2): ReLU6()
          )
          (2): Conv2d(528, 88, kernel_size=(1, 1), stride=(1, 1), bias=False)
          (3): BatchNorm2d(88, eps=1e-05, momentum=0.1, affine=True, track_running_stats=True)
        )
        (add): AddBlock(inplace=False, signed=True)
      )
      (10): InvertedResidual(
        (conv): Sequential(
          (0): Sequential(
            (0): Conv2d(88, 528, kernel_size=(1, 1), stride=(1, 1), bias=False)
            (1): BatchNorm2d(528, eps=1e-05, momentum=0.1, affine=True, track_running_stats=True)
            (2): ReLU6()
          )
          (1): Sequential(
            (0): Conv2d(528, 528, kernel_size=(3, 3), stride=(1, 1), padding=(1, 1), groups=528, bias=False)
            (1): BatchNorm2d(528, eps=1e-05, momentum=0.1, affine=True, track_running_stats=True)
            (2): ReLU6()
          )
          (2): Conv2d(528, 88, kernel_size=(1, 1), stride=(1, 1), bias=False)
          (3): BatchNorm2d(88, eps=1e-05, momentum=0.1, affine=True, track_running_stats=True)
        )
        (add): AddBlock(inplace=False, signed=True)
      )
      (11): InvertedResidual(
        (conv): Sequential(
          (0): Sequential(
            (0): Conv2d(88, 528, kernel_size=(1, 1), stride=(1, 1), bias=False)
            (1): BatchNorm2d(528, eps=1e-05, momentum=0.1, affine=True, track_running_stats=True)
            (2): ReLU6()
          )
          (1): Sequential(
            (0): Conv2d(528, 528, kernel_size=(3, 3), stride=(1, 1), padding=(1, 1), groups=528, bias=False)
            (1): BatchNorm2d(528, eps=1e-05, momentum=0.1, affine=True, track_running_stats=True)
            (2): ReLU6()
          )
          (2): Conv2d(528, 136, kernel_size=(1, 1), stride=(1, 1), bias=False)
          (3): BatchNorm2d(136, eps=1e-05, momentum=0.1, affine=True, track_running_stats=True)
        )
      )
      (12): InvertedResidual(
        (conv): Sequential(
          (0): Sequential(
            (0): Conv2d(136, 816, kernel_size=(1, 1), stride=(1, 1), bias=False)
            (1): BatchNorm2d(816, eps=1e-05, momentum=0.1, affine=True, track_running_stats=True)
            (2): ReLU6()
          )
          (1): Sequential(
            (0): Conv2d(816, 816, kernel_size=(3, 3), stride=(1, 1), padding=(1, 1), groups=816, bias=False)
            (1): BatchNorm2d(816, eps=1e-05, momentum=0.1, affine=True, track_running_stats=True)
            (2): ReLU6()
          )
          (2): Conv2d(816, 136, kernel_size=(1, 1), stride=(1, 1), bias=False)
          (3): BatchNorm2d(136, eps=1e-05, momentum=0.1, affine=True, track_running_stats=True)
        )
        (add): AddBlock(inplace=False, signed=True)
      )
      (13): InvertedResidual(
        (conv): Sequential(
          (0): Sequential(
            (0): Conv2d(136, 816, kernel_size=(1, 1), stride=(1, 1), bias=False)
            (1): BatchNorm2d(816, eps=1e-05, momentum=0.1, affine=True, track_running_stats=True)
            (2): ReLU6()
          )
          (1): Sequential(
            (0): Conv2d(816, 816, kernel_size=(3, 3), stride=(1, 1), padding=(1, 1), groups=816, bias=False)
            (1): BatchNorm2d(816, eps=1e-05, momentum=0.1, affine=True, track_running_stats=True)
            (2): ReLU6()
          )
          (2): Conv2d(816, 136, kernel_size=(1, 1), stride=(1, 1), bias=False)
          (3): BatchNorm2d(136, eps=1e-05, momentum=0.1, affine=True, track_running_stats=True)
        )
        (add): AddBlock(inplace=False, signed=True)
      )
      (14): InvertedResidual(
        (conv): Sequential(
          (0): Sequential(
            (0): Conv2d(136, 816, kernel_size=(1, 1), stride=(1, 1), bias=False)
            (1): BatchNorm2d(816, eps=1e-05, momentum=0.1, affine=True, track_running_stats=True)
            (2): ReLU6()
          )
          (1): Sequential(
            (0): Conv2d(816, 816, kernel_size=(3, 3), stride=(2, 2), padding=(1, 1), groups=816, bias=False)
            (1): BatchNorm2d(816, eps=1e-05, momentum=0.1, affine=True, track_running_stats=True)
            (2): ReLU6()
          )
          (2): Conv2d(816, 224, kernel_size=(1, 1), stride=(1, 1), bias=False)
          (3): BatchNorm2d(224, eps=1e-05, momentum=0.1, affine=True, track_running_stats=True)
        )
      )
      (15): InvertedResidual(
        (conv): Sequential(
          (0): Sequential(
            (0): Conv2d(224, 1344, kernel_size=(1, 1), stride=(1, 1), bias=False)
            (1): BatchNorm2d(1344, eps=1e-05, momentum=0.1, affine=True, track_running_stats=True)
            (2): ReLU6()
          )
          (1): Sequential(
            (0): Conv2d(1344, 1344, kernel_size=(3, 3), stride=(1, 1), padding=(1, 1), groups=1344, bias=False)
            (1): BatchNorm2d(1344, eps=1e-05, momentum=0.1, affine=True, track_running_stats=True)
            (2): ReLU6()
          )
          (2): Conv2d(1344, 224, kernel_size=(1, 1), stride=(1, 1), bias=False)
          (3): BatchNorm2d(224, eps=1e-05, momentum=0.1, affine=True, track_running_stats=True)
        )
        (add): AddBlock(inplace=False, signed=True)
      )
      (16): InvertedResidual(
        (conv): Sequential(
          (0): Sequential(
            (0): Conv2d(224, 1344, kernel_size=(1, 1), stride=(1, 1), bias=False)
            (1): BatchNorm2d(1344, eps=1e-05, momentum=0.1, affine=True, track_running_stats=True)
            (2): ReLU6()
          )
          (1): Sequential(
            (0): Conv2d(1344, 1344, kernel_size=(3, 3), stride=(1, 1), padding=(1, 1), groups=1344, bias=False)
            (1): BatchNorm2d(1344, eps=1e-05, momentum=0.1, affine=True, track_running_stats=True)
            (2): ReLU6()
          )
          (2): Conv2d(1344, 224, kernel_size=(1, 1), stride=(1, 1), bias=False)
          (3): BatchNorm2d(224, eps=1e-05, momentum=0.1, affine=True, track_running_stats=True)
        )
        (add): AddBlock(inplace=False, signed=True)
      )
      (17): InvertedResidual(
        (conv): Sequential(
          (0): Sequential(
            (0): Conv2d(224, 1344, kernel_size=(1, 1), stride=(1, 1), bias=False)
            (1): BatchNorm2d(1344, eps=1e-05, momentum=0.1, affine=True, track_running_stats=True)
            (2): ReLU6()
          )
          (1): Sequential(
            (0): Conv2d(1344, 1344, kernel_size=(3, 3), stride=(1, 1), padding=(1, 1), groups=1344, bias=False)
            (1): BatchNorm2d(1344, eps=1e-05, momentum=0.1, affine=True, track_running_stats=True)
            (2): ReLU6()
          )
          (2): Conv2d(1344, 448, kernel_size=(1, 1), stride=(1, 1), bias=False)
          (3): BatchNorm2d(448, eps=1e-05, momentum=0.1, affine=True, track_running_stats=True)
        )
      )
    )
  )
  (decoders): ModuleList(
    (0): FPNLitePixel2PixelDecoder(
      (rfblock): DWASPPLiteBlock(
        (conv1x1): Sequential(
          (0): Conv2d(448, 360, kernel_size=(1, 1), stride=(1, 1), bias=False)
          (1): BatchNorm2d(360, eps=1e-05, momentum=0.1, affine=True, track_running_stats=True)
          (2): ReLU6()
        )
        (aspp_bra1): Sequential(
          (0): Sequential(
            (0): Conv2d(448, 448, kernel_size=(3, 3), stride=(1, 1), padding=(6, 6), dilation=(6, 6), groups=448, bias=False)
            (1): BatchNorm2d(448, eps=1e-05, momentum=0.1, affine=True, track_running_stats=True)
            (2): ReLU6()
          )
          (1): Sequential(
            (0): Conv2d(448, 360, kernel_size=(1, 1), stride=(1, 1), bias=False)
            (1): BatchNorm2d(360, eps=1e-05, momentum=0.1, affine=True, track_running_stats=True)
            (2): ReLU6()
          )
        )
        (aspp_bra2): Sequential(
          (0): Sequential(
            (0): Conv2d(448, 448, kernel_size=(3, 3), stride=(1, 1), padding=(12, 12), dilation=(12, 12), groups=448, bias=False)
            (1): BatchNorm2d(448, eps=1e-05, momentum=0.1, affine=True, track_running_stats=True)
            (2): ReLU6()
          )
          (1): Sequential(
            (0): Conv2d(448, 360, kernel_size=(1, 1), stride=(1, 1), bias=False)
            (1): BatchNorm2d(360, eps=1e-05, momentum=0.1, affine=True, track_running_stats=True)
            (2): ReLU6()
          )
        )
        (aspp_bra3): Sequential(
          (0): Sequential(
            (0): Conv2d(448, 448, kernel_size=(3, 3), stride=(1, 1), padding=(18, 18), dilation=(18, 18), groups=448, bias=False)
            (1): BatchNorm2d(448, eps=1e-05, momentum=0.1, affine=True, track_running_stats=True)
            (2): ReLU6()
          )
          (1): Sequential(
            (0): Conv2d(448, 360, kernel_size=(1, 1), stride=(1, 1), bias=False)
            (1): BatchNorm2d(360, eps=1e-05, momentum=0.1, affine=True, track_running_stats=True)
            (2): ReLU6()
          )
        )
        (dropout): Dropout2d(p=0.2, inplace=True)
        (aspp_out): Sequential(
          (0): Conv2d(1440, 360, kernel_size=(1, 1), stride=(1, 1), bias=False)
          (1): BatchNorm2d(360, eps=1e-05, momentum=0.1, affine=True, track_running_stats=True)
          (2): ReLU6()
        )
        (cat): CatBlock(inplace=False, signed=True)
      )
      (fpn): InLoopFPNLitePyramid(
        (smooth_convs): ModuleList(
          (0): None
          (1): Sequential(
            (0): Sequential(
              (0): Conv2d(360, 360, kernel_size=(3, 3), stride=(1, 1), padding=(1, 1), groups=360, bias=False)
              (1): BatchNorm2d(360, eps=1e-05, momentum=0.1, affine=True, track_running_stats=True)
              (2): ReLU6()
            )
            (1): Sequential(
              (0): Conv2d(360, 360, kernel_size=(1, 1), stride=(1, 1), bias=False)
              (1): BatchNorm2d(360, eps=1e-05, momentum=0.1, affine=True, track_running_stats=True)
              (2): ReLU6()
            )
          )
          (2): Sequential(
            (0): Sequential(
              (0): Conv2d(360, 360, kernel_size=(3, 3), stride=(1, 1), padding=(1, 1), groups=360, bias=False)
              (1): BatchNorm2d(360, eps=1e-05, momentum=0.1, affine=True, track_running_stats=True)
              (2): ReLU6()
            )
            (1): Sequential(
              (0): Conv2d(360, 360, kernel_size=(1, 1), stride=(1, 1), bias=False)
              (1): BatchNorm2d(360, eps=1e-05, momentum=0.1, affine=True, track_running_stats=True)
              (2): ReLU6()
            )
          )
          (3): Sequential(
            (0): Sequential(
              (0): Conv2d(360, 360, kernel_size=(3, 3), stride=(1, 1), padding=(1, 1), groups=360, bias=False)
              (1): BatchNorm2d(360, eps=1e-05, momentum=0.1, affine=True, track_running_stats=True)
              (2): ReLU6()
            )
            (1): Sequential(
              (0): Conv2d(360, 360, kernel_size=(1, 1), stride=(1, 1), bias=False)
              (1): BatchNorm2d(360, eps=1e-05, momentum=0.1, affine=True, track_running_stats=True)
              (2): ReLU6()
            )
          )
        )
        (shortcuts): ModuleList(
          (0): None
          (1): Sequential(
            (0): Conv2d(136, 360, kernel_size=(1, 1), stride=(1, 1), bias=False)
            (1): BatchNorm2d(360, eps=1e-05, momentum=0.1, affine=True, track_running_stats=True)
            (2): ReLU6()
          )
          (2): Sequential(
            (0): Conv2d(48, 360, kernel_size=(1, 1), stride=(1, 1), bias=False)
            (1): BatchNorm2d(360, eps=1e-05, momentum=0.1, affine=True, track_running_stats=True)
            (2): ReLU6()
          )
          (3): Sequential(
            (0): Conv2d(32, 360, kernel_size=(1, 1), stride=(1, 1), bias=False)
            (1): BatchNorm2d(360, eps=1e-05, momentum=0.1, affine=True, track_running_stats=True)
            (2): ReLU6()
          )
        )
        (upsamples): ModuleList(
          (0): ResizeWith()
          (1): ResizeWith()
          (2): ResizeWith()
        )
        (adds): ModuleList(
          (0): AddBlock(inplace=False, signed=True)
          (1): AddBlock(inplace=False, signed=True)
          (2): AddBlock(inplace=False, signed=True)
        )
      )
      (pred): Sequential(
        (0): Sequential(
          (0): Conv2d(360, 360, kernel_size=(3, 3), stride=(1, 1), padding=(1, 1), groups=360, bias=False)
          (1): BatchNorm2d(360, eps=1e-05, momentum=0.1, affine=True, track_running_stats=True)
        )
        (1): Sequential(
          (0): Conv2d(360, 32, kernel_size=(1, 1), stride=(1, 1), bias=False)
        )
      )
    )
  )
)
=> setting sgd optimizer
[32m=> validation 0.00% of 1x63... rate=0 Hz, eta=?, total=0:00:00, wall=00:09 IST=> validation 0.00% of 1x63... rate=0 Hz, eta=?, total=0:00:00, wall=00:09 IST=> validation 0.00% of 1x63...DataTime=1.1, Epoch=1/120, Output=[MeanIoU=50.68] rate=0 Hz, eta=?, total=0:00:00, wall=00:09 I
…
