…
                to_rgb=True),
            dict(type='ImageToTensor', keys=['img']),
            dict(type='Collect', keys=['img'])
        ])
]
work_dir = './work_dirs/ssd_resnet_fpn'
gpu_ids = range(0, 1)

2020-07-30 22:52:23,511 - mmdet - INFO - load model from: torchvision://resnet50
2020-07-30 22:52:25,682 - mmdet - WARNING - The model and loaded state dict do not match exactly

unexpected key in source state_dict: fc.weight, fc.bias

2020-07-30 22:52:26,676 - mmdet - INFO - SingleStageDetector(
  30.765 GMac, 100.000% MACs, 
  (backbone): ResNet(
    21.524 GMac, 69.961% MACs, 
    (conv1): Conv2d(0.617 GMac, 2.004% MACs, 3, 64, kernel_size=(7, 7), stride=(2, 2), padding=(3, 3), bias=False)
    (bn1): BatchNorm2d(0.008 GMac, 0.027% MACs, 64, eps=1e-05, momentum=0.1, affine=True, track_running_stats=True)
    (relu): ReLU(0.004 GMac, 0.014% MACs, inplace=True)
    (maxpool): MaxPool2d(0.004 GMac, 0.014% MACs, kernel_size=3, stride=2, padding=1, dilation=1, ceil_mode=False)
    (layer1): ResLayer(
      3.555 GMac, 11.554% MACs, 
      (0): Bottleneck(
        1.235 GMac, 4.015% MACs, 
        (conv1): Conv2d(0.067 GMac, 0.218% MACs, 64, 64, kernel_size=(1, 1), stride=(1, 1), bias=False)
        (bn1): BatchNorm2d(0.002 GMac, 0.007% MACs, 64, eps=1e-05, momentum=0.1, affine=True, track_running_stats=True)
        (conv2): Conv2d(0.604 GMac, 1.963% MACs, 64, 64, kernel_size=(3, 3), stride=(1, 1), padding=(1, 1), bias=False)
        (bn2): BatchNorm2d(0.002 GMac, 0.007% MACs, 64, eps=1e-05, momentum=0.1, affine=True, track_running_stats=True)
        (conv3): Conv2d(0.268 GMac, 0.873% MACs, 64, 256, kernel_size=(1, 1), stride=(1, 1), bias=False)
        (bn3): BatchNorm2d(0.008 GMac, 0.027% MACs, 256, eps=1e-05, momentum=0.1, affine=True, track_running_stats=True)
        (relu1): ReLU(0.001 GMac, 0.003% MACs, inplace=True)
        (relu2): ReLU(0.001 GMac, 0.003% MACs, inplace=True)
        (relu3): ReLU(0.004 GMac, 0.014% MACs, inplace=True)
        (downsample): Sequential(
          0.277 GMac, 0.900% MACs, 
          (0): Conv2d(0.268 GMac, 0.873% MACs, 64, 256, kernel_size=(1, 1), stride=(1, 1), bias=False)
          (1): BatchNorm2d(0.008 GMac, 0.027% MACs, 256, eps=1e-05, momentum=0.1, affine=True, track_running_stats=True)
        )
        (add): AddBlock(inplace=False, signed=True)
      )
      (1): Bottleneck(
        1.16 GMac, 3.770% MACs, 
        (conv1): Conv2d(0.268 GMac, 0.873% MACs, 256, 64, kernel_size=(1, 1), stride=(1, 1), bias=False)
        (bn1): BatchNorm2d(0.002 GMac, 0.007% MACs, 64, eps=1e-05, momentum=0.1, affine=True, track_running_stats=True)
        (conv2): Conv2d(0.604 GMac, 1.963% MACs, 64, 64, kernel_size=(3, 3), stride=(1, 1), padding=(1, 1), bias=False)
        (bn2): BatchNorm2d(0.002 GMac, 0.007% MACs, 64, eps=1e-05, momentum=0.1, affine=True, track_running_stats=True)
        (conv3): Conv2d(0.268 GMac, 0.873% MACs, 64, 256, kernel_size=(1, 1), stride=(1, 1), bias=False)
        (bn3): BatchNorm2d(0.008 GMac, 0.027% MACs, 256, eps=1e-05, momentum=0.1, affine=True, track_running_stats=True)
        (relu1): ReLU(0.001 GMac, 0.003% MACs, inplace=True)
        (relu2): ReLU(0.001 GMac, 0.003% MACs, inplace=True)
        (relu3): ReLU(0.004 GMac, 0.014% MACs, inplace=True)
        (add): AddBlock(inplace=False, signed=True)
      )
      (2): Bottleneck(
        1.16 GMac, 3.770% MACs, 
        (conv1): Conv2d(0.268 GMac, 0.873% MACs, 256, 64, kernel_size=(1, 1), stride=(1, 1), bias=False)
        (bn1): BatchNorm2d(0.002 GMac, 0.007% MACs, 64, eps=1e-05, momentum=0.1, affine=True, track_running_stats=True)
        (conv2): Conv2d(0.604 GMac, 1.963% MACs, 64, 64, kernel_size=(3, 3), stride=(1, 1), padding=(1, 1), bias=False)
        (bn2): BatchNorm2d(0.002 GMac, 0.007% MACs, 64, eps=1e-05, momentum=0.1, affine=True, track_running_stats=True)
        (conv3): Conv2d(0.268 GMac, 0.873% MACs, 64, 256, kernel_size=(1, 1), stride=(1, 1), bias=False)
        (bn3): BatchNorm2d(0.008 GMac, 0.027% MACs, 256, eps=1e-05, momentum=0.1, affine=True, track_running_stats=True)
        (relu1): ReLU(0.001 GMac, 0.003% MACs, inplace=True)
        (relu2): ReLU(0.001 GMac, 0.003% MACs, inplace=True)
        (relu3): ReLU(0.004 GMac, 0.014% MACs, inplace=True)
        (add): AddBlock(inplace=False, signed=True)
      )
    )
    (layer2): ResLayer(
      5.415 GMac, 17.602% MACs, 
      (0): Bottleneck(
        1.965 GMac, 6.385% MACs, 
        (conv1): Conv2d(0.537 GMac, 1.745% MACs, 256, 128, kernel_size=(1, 1), stride=(1, 1), bias=False)
        (bn1): BatchNorm2d(0.004 GMac, 0.014% MACs, 128, eps=1e-05, momentum=0.1, affine=True, track_running_stats=True)
        (conv2): Conv2d(0.604 GMac, 1.963% MACs, 128, 128, kernel_size=(3, 3), stride=(2, 2), padding=(1, 1), bias=False)
        (bn2): BatchNorm2d(0.001 GMac, 0.003% MACs, 128, eps=1e-05, momentum=0.1, affine=True, track_running_stats=True)
        (conv3): Conv2d(0.268 GMac, 0.873% MACs, 128, 512, kernel_size=(1, 1), stride=(1, 1), bias=False)
        (bn3): BatchNorm2d(0.004 GMac, 0.014% MACs, 512, eps=1e-05, momentum=0.1, affine=True, track_running_stats=True)
        (relu1): ReLU(0.002 GMac, 0.007% MACs, inplace=True)
        (relu2): ReLU(0.001 GMac, 0.002% MACs, inplace=True)
        (relu3): ReLU(0.002 GMac, 0.007% MACs, inplace=True)
        (downsample): Sequential(
          0.541 GMac, 1.759% MACs, 
          (0): Conv2d(0.537 GMac, 1.745% MACs, 256, 512, kernel_size=(1, 1), stride=(2, 2), bias=False)
          (1): BatchNorm2d(0.004 GMac, 0.014% MACs, 512, eps=1e-05, momentum=0.1, affine=True, track_running_stats=True)
        )
        (add): AddBlock(inplace=False, signed=True)
      )
      (1): Bottleneck(
        1.15 GMac, 3.739% MACs, 
        (conv1): Conv2d(0.268 GMac, 0.873% MACs, 512, 128, kernel_size=(1, 1), stride=(1, 1), bias=False)
        (bn1): BatchNorm2d(0.001 GMac, 0.003% MACs, 128, eps=1e-05, momentum=0.1, affine=True, track_running_stats=True)
        (conv2): Conv2d(0.604 GMac, 1.963% MACs, 128, 128, kernel_size=(3, 3), stride=(1, 1), padding=(1, 1), bias=False)
        (bn2): BatchNorm2d(0.001 GMac, 0.003% MACs, 128, eps=1e-05, momentum=0.1, affine=True, track_running_stats=True)
        (conv3): Conv2d(0.268 GMac, 0.873% MACs, 128, 512, kernel_size=(1, 1), stride=(1, 1), bias=False)
        (bn3): BatchNorm2d(0.004 GMac, 0.014% MACs, 512, eps=1e-05, momentum=0.1, affine=True, track_running_stats=True)
        (relu1): ReLU(0.001 GMac, 0.002% MACs, inplace=True)
        (relu2): ReLU(0.001 GMac, 0.002% MACs, inplace=True)
        (relu3): ReLU(0.002 GMac, 0.007% MACs, inplace=True)
        (add): AddBlock(inplace=False, signed=True)
      )
      (2): Bottleneck(
        1.15 GMac, 3.739% MACs, 
        (conv1): Conv2d(0.268 GMac, 0.873% MACs, 512, 128, kernel_size=(1, 1), stride=(1, 1), bias=False)
        (bn1): BatchNorm2d(0.001 GMac, 0.003% MACs, 128, eps=1e-05, momentum=0.1, affine=True, track_running_stats=True)
        (conv2): Conv2d(0.604 GMac, 1.963% MACs, 128, 128, kernel_size=(3, 3), stride=(1, 1), padding=(1, 1), bias=False)
        (bn2): BatchNorm2d(0.001 GMac, 0.003% MACs, 128, eps=1e-05, momentum=0.1, affine=True, track_running_stats=True)
        (conv3): Conv2d(0.268 GMac, 0.873% MACs, 128, 512, kernel_size=(1, 1), stride=(1, 1), bias=False)
        (bn3): BatchNorm2d(0.004 GMac, 0.014% MACs, 512, eps=1e-05, momentum=0.1, affine=True, track_running_stats=True)
        (relu1): ReLU(0.001 GMac, 0.002% MACs, inplace=True)
        (relu2): ReLU(0.001 GMac, 0.002% MACs, inplace=True)
        (relu3): ReLU(0.002 GMac, 0.007% MACs, inplace=True)
        (add): AddBlock(inplace=False, signed=True)
      )
      (3): Bottleneck(
        1.15 GMac, 3.739% MACs, 
        (conv1): Conv2d(0.268 GMac, 0.873% MACs, 512, 128, kernel_size=(1, 1), stride=(1, 1), bias=False)
        (bn1): BatchNorm2d(0.001 GMac, 0.003% MACs, 128, eps=1e-05, momentum=0.1, affine=True, track_running_stats=True)
        (conv2): Conv2d(0.604 GMac, 1.963% MACs, 128, 128, kernel_size=(3, 3), stride=(1, 1), padding=(1, 1), bias=False)
        (bn2): BatchNorm2d(0.001 GMac, 0.003% MACs, 128, eps=1e-05, momentum=0.1, affine=True, track_running_stats=True)
        (conv3): Conv2d(0.268 GMac, 0.873% MACs, 128, 512, kernel_size=(1, 1), stride=(1, 1), bias=False)
        (bn3): BatchNorm2d(0.004 GMac, 0.014% MACs, 512, eps=1e-05, momentum=0.1, affine=True, track_running_stats=True)
        (relu1): ReLU(0.001 GMac, 0.002% MACs, inplace=True)
        (relu2): ReLU(0.001 GMac, 0.002% MACs, inplace=True)
        (relu3): ReLU(0.002 GMac, 0.007% MACs, inplace=True)
        (add): AddBlock(inplace=False, signed=True)
      )
    )
    (layer3): ResLayer(
      7.683 GMac, 24.973% MACs, 
      (0): Bottleneck(
        1.955 GMac, 6.356% MACs, 
        (conv1): Conv2d(0.537 GMac, 1.745% MACs, 512, 256, kernel_size=(1, 1), stride=(1, 1), bias=False)
        (bn1): BatchNorm2d(0.002 GMac, 0.007% MACs, 256, eps=1e-05, momentum=0.1, affine=True, track_running_stats=True)
        (conv2): Conv2d(0.604 GMac, 1.963% MACs, 256, 256, kernel_size=(3, 3), stride=(2, 2), padding=(1, 1), bias=False)
        (bn2): BatchNorm2d(0.001 GMac, 0.002% MACs, 256, eps=1e-05, momentum=0.1, affine=True, track_running_stats=True)
        (conv3): Conv2d(0.268 GMac, 0.873% MACs, 256, 1024, kernel_size=(1, 1), stride=(1, 1), bias=False)
        (bn3): BatchNorm2d(0.002 GMac, 0.007% MACs, 1024, eps=1e-05, momentum=0.1, affine=True, track_running_stats=True)
        (relu1): ReLU(0.001 GMac, 0.003% MACs, inplace=True)
        (relu2): ReLU(0.0 GMac, 0.001% MACs, inplace=True)
        (relu3): ReLU(0.001 GMac, 0.003% MACs, inplace=True)
        (downsample): Sequential(
          0.539 GMac, 1.752% MACs, 
          (0): Conv2d(0.537 GMac, 1.745% MACs, 512, 1024, kernel_size=(1, 1), stride=(2, 2), bias=False)
          (1): BatchNorm2d(0.002 GMac, 0.007% MACs, 1024, eps=1e-05, momentum=0.1, affine=True, track_running_stats=True)
        )
        (add): AddBlock(inplace=False, signed=True)
      )
      (1): Bottleneck(
        1.146 GMac, 3.724% MACs, 
        (conv1): Conv2d(0.268 GMac, 0.873% MACs, 1024, 256, kernel_size=(1, 1), stride=(1, 1), bias=False)
        (bn1): BatchNorm2d(0.001 GMac, 0.002% MACs, 256, eps=1e-05, momentum=0.1, affine=True, track_running_stats=True)
        (conv2): Conv2d(0.604 GMac, 1.963% MACs, 256, 256, kernel_size=(3, 3), stride=(1, 1), padding=(1, 1), bias=False)
        (bn2): BatchNorm2d(0.001 GMac, 0.002% MACs, 256, eps=1e-05, momentum=0.1, affine=True, track_running_stats=True)
        (conv3): Conv2d(0.268 GMac, 0.873% MACs, 256, 1024, kernel_size=(1, 1), stride=(1, 1), bias=False)
        (bn3): BatchNorm2d(0.002 GMac, 0.007% MACs, 1024, eps=1e-05, momentum=0.1, affine=True, track_running_stats=True)
        (relu1): ReLU(0.0 GMac, 0.001% MACs, inplace=True)
        (relu2): ReLU(0.0 GMac, 0.001% MACs, inplace=True)
        (relu3): ReLU(0.001 GMac, 0.003% MACs, inplace=True)
        (add): AddBlock(inplace=False, signed=True)
      )
      (2): Bottleneck(
        1.146 GMac, 3.724% MACs, 
        (conv1): Conv2d(0.268 GMac, 0.873% MACs, 1024, 256, kernel_size=(1, 1), stride=(1, 1), bias=False)
        (bn1): BatchNorm2d(0.001 GMac, 0.002% MACs, 256, eps=1e-05, momentum=0.1, affine=True, track_running_stats=True)
        (conv2): Conv2d(0.604 GMac, 1.963% MACs, 256, 256, kernel_size=(3, 3), stride=(1, 1), padding=(1, 1), bias=False)
        (bn2): BatchNorm2d(0.001 GMac, 0.002% MACs, 256, eps=1e-05, momentum=0.1, affine=True, track_running_stats=True)
        (conv3): Conv2d(0.268 GMac, 0.873% MACs, 256, 1024, kernel_size=(1, 1), stride=(1, 1), bias=False)
        (bn3): BatchNorm2d(0.002 GMac, 0.007% MACs, 1024, eps=1e-05, momentum=0.1, affine=True, track_running_stats=True)
        (relu1): ReLU(0.0 GMac, 0.001% MACs, inplace=True)
        (relu2): ReLU(0.0 GMac, 0.001% MACs, inplace=True)
        (relu3): ReLU(0.001 GMac, 0.003% MACs, inplace=True)
        (add): AddBlock(inplace=False, signed=True)
      )
      (3): Bottleneck(
        1.146 GMac, 3.724% MACs, 
        (conv1): Conv2d(0.268 GMac, 0.873% MACs, 1024, 256, kernel_size=(1, 1), stride=(1, 1), bias=False)
        (bn1): BatchNorm2d(0.001 GMac, 0.002% MACs, 256, eps=1e-05, momentum=0.1, affine=True, track_running_stats=True)
        (conv2): Conv2d(0.604 GMac, 1.963% MACs, 256, 256, kernel_size=(3, 3), stride=(1, 1), padding=(1, 1), bias=False)
        (bn2): BatchNorm2d(0.001 GMac, 0.002% MACs, 256, eps=1e-05, momentum=0.1, affine=True, track_running_stats=True)
        (conv3): Conv2d(0.268 GMac, 0.873% MACs, 256, 1024, kernel_size=(1, 1), stride=(1, 1), bias=False)
        (bn3): BatchNorm2d(0.002 GMac, 0.007% MACs, 1024, eps=1e-05, momentum=0.1, affine=True, track_running_stats=True)
        (relu1): ReLU(0.0 GMac, 0.001% MACs, inplace=True)
        (relu2): ReLU(0.0 GMac, 0.001% MACs, inplace=True)
        (relu3): ReLU(0.001 GMac, 0.003% MACs, inplace=True)
        (add): AddBlock(inplace=False, signed=True)
      )
      (4): Bottleneck(
        1.146 GMac, 3.724% MACs, 
        (conv1): Conv2d(0.268 GMac, 0.873% MACs, 1024, 256, kernel_size=(1, 1), stride=(1, 1), bias=False)
        (bn1): BatchNorm2d(0.001 GMac, 0.002% MACs, 256, eps=1e-05, momentum=0.1, affine=True, track_running_stats=True)
        (conv2): Conv2d(0.604 GMac, 1.963% MACs, 256, 256, kernel_size=(3, 3), stride=(1, 1), padding=(1, 1), bias=False)
        (bn2): BatchNorm2d(0.001 GMac, 0.002% MACs, 256, eps=1e-05, momentum=0.1, affine=True, track_running_stats=True)
        (conv3): Conv2d(0.268 GMac, 0.873% MACs, 256, 1024, kernel_size=(1, 1), stride=(1, 1), bias=False)
        (bn3): BatchNorm2d(0.002 GMac, 0.007% MACs, 1024, eps=1e-05, momentum=0.1, affine=True, track_running_stats=True)
        (relu1): ReLU(0.0 GMac, 0.001% MACs, inplace=True)
        (relu2): ReLU(0.0 GMac, 0.001% MACs, inplace=True)
        (relu3): ReLU(0.001 GMac, 0.003% MACs, inplace=True)
        (add): AddBlock(inplace=False, signed=True)
      )
      (5): Bottleneck(
        1.146 GMac, 3.724% MACs, 
        (conv1): Conv2d(0.268 GMac, 0.873% MACs, 1024, 256, kernel_size=(1, 1), stride=(1, 1), bias=False)
        (bn1): BatchNorm2d(0.001 GMac, 0.002% MACs, 256, eps=1e-05, momentum=0.1, affine=True, track_running_stats=True)
        (conv2): Conv2d(0.604 GMac, 1.963% MACs, 256, 256, kernel_size=(3, 3), stride=(1, 1), padding=(1, 1), bias=False)
        (bn2): BatchNorm2d(0.001 GMac, 0.002% MACs, 256, eps=1e-05, momentum=0.1, affine=True, track_running_stats=True)
        (conv3): Conv2d(0.268 GMac, 0.873% MACs, 256, 1024, kernel_size=(1, 1), stride=(1, 1), bias=False)
        (bn3): BatchNorm2d(0.002 GMac, 0.007% MACs, 1024, eps=1e-05, momentum=0.1, affine=True, track_running_stats=True)
        (relu1): ReLU(0.0 GMac, 0.001% MACs, inplace=True)
        (relu2): ReLU(0.0 GMac, 0.001% MACs, inplace=True)
        (relu3): ReLU(0.001 GMac, 0.003% MACs, inplace=True)
        (add): AddBlock(inplace=False, signed=True)
      )
    )
    (layer4): ResLayer(
      4.237 GMac, 13.773% MACs, 
      (0): Bottleneck(
        1.951 GMac, 6.341% MACs, 
        (conv1): Conv2d(0.537 GMac, 1.745% MACs, 1024, 512, kernel_size=(1, 1), stride=(1, 1), bias=False)
        (bn1): BatchNorm2d(0.001 GMac, 0.003% MACs, 512, eps=1e-05, momentum=0.1, affine=True, track_running_stats=True)
        (conv2): Conv2d(0.604 GMac, 1.963% MACs, 512, 512, kernel_size=(3, 3), stride=(2, 2), padding=(1, 1), bias=False)
        (bn2): BatchNorm2d(0.0 GMac, 0.001% MACs, 512, eps=1e-05, momentum=0.1, affine=True, track_running_stats=True)
        (conv3): Conv2d(0.268 GMac, 0.873% MACs, 512, 2048, kernel_size=(1, 1), stride=(1, 1), bias=False)
        (bn3): BatchNorm2d(0.001 GMac, 0.003% MACs, 2048, eps=1e-05, momentum=0.1, affine=True, track_running_stats=True)
        (relu1): ReLU(0.001 GMac, 0.002% MACs, inplace=True)
        (relu2): ReLU(0.0 GMac, 0.000% MACs, inplace=True)
        (relu3): ReLU(0.001 GMac, 0.002% MACs, inplace=True)
        (downsample): Sequential(
          0.538 GMac, 1.748% MACs, 
          (0): Conv2d(0.537 GMac, 1.745% MACs, 1024, 2048, kernel_size=(1, 1), stride=(2, 2), bias=False)
          (1): BatchNorm2d(0.001 GMac, 0.003% MACs, 2048, eps=1e-05, momentum=0.1, affine=True, track_running_stats=True)
        )
        (add): AddBlock(inplace=False, signed=True)
      )
      (1): Bottleneck(
        1.143 GMac, 3.716% MACs, 
        (conv1): Conv2d(0.268 GMac, 0.873% MACs, 2048, 512, kernel_size=(1, 1), stride=(1, 1), bias=False)
        (bn1): BatchNorm2d(0.0 GMac, 0.001% MACs, 512, eps=1e-05, momentum=0.1, affine=True, track_running_stats=True)
        (conv2): Conv2d(0.604 GMac, 1.963% MACs, 512, 512, kernel_size=(3, 3), stride=(1, 1), padding=(1, 1), bias=False)
        (bn2): BatchNorm2d(0.0 GMac, 0.001% MACs, 512, eps=1e-05, momentum=0.1, affine=True, track_running_stats=True)
        (conv3): Conv2d(0.268 GMac, 0.873% MACs, 512, 2048, kernel_size=(1, 1), stride=(1, 1), bias=False)
        (bn3): BatchNorm2d(0.001 GMac, 0.003% MACs, 2048, eps=1e-05, momentum=0.1, affine=True, track_running_stats=True)
        (relu1): ReLU(0.0 GMac, 0.000% MACs, inplace=True)
        (relu2): ReLU(0.0 GMac, 0.000% MACs, inplace=True)
        (relu3): ReLU(0.001 GMac, 0.002% MACs, inplace=True)
        (add): AddBlock(inplace=False, signed=True)
      )
      (2): Bottleneck(
        1.143 GMac, 3.716% MACs, 
        (conv1): Conv2d(0.268 GMac, 0.873% MACs, 2048, 512, kernel_size=(1, 1), stride=(1, 1), bias=False)
        (bn1): BatchNorm2d(0.0 GMac, 0.001% MACs, 512, eps=1e-05, momentum=0.1, affine=True, track_running_stats=True)
        (conv2): Conv2d(0.604 GMac, 1.963% MACs, 512, 512, kernel_size=(3, 3), stride=(1, 1), padding=(1, 1), bias=False)
        (bn2): BatchNorm2d(0.0 GMac, 0.001% MACs, 512, eps=1e-05, momentum=0.1, affine=True, track_running_stats=True)
        (conv3): Conv2d(0.268 GMac, 0.873% MACs, 512, 2048, kernel_size=(1, 1), stride=(1, 1), bias=False)
        (bn3): BatchNorm2d(0.001 GMac, 0.003% MACs, 2048, eps=1e-05, momentum=0.1, affine=True, track_running_stats=True)
        (relu1): ReLU(0.0 GMac, 0.000% MACs, inplace=True)
        (relu2): ReLU(0.0 GMac, 0.000% MACs, inplace=True)
        (relu3): ReLU(0.001 GMac, 0.002% MACs, inplace=True)
        (add): AddBlock(inplace=False, signed=True)
      )
    )
  )
  (neck): FPNLite(
    4.43 GMac, 14.398% MACs, 
    (lateral_convs): ModuleList(
      0.942 GMac, 3.063% MACs, 
      (0): ConvModule(
        0.539 GMac, 1.752% MACs, 
        (conv): Conv2d(0.537 GMac, 1.745% MACs, 512, 256, kernel_size=(1, 1), stride=(1, 1), bias=False)
        (bn): BatchNorm2d(0.002 GMac, 0.007% MACs, 256, eps=1e-05, momentum=0.1, affine=True, track_running_stats=True)
      )
      (1): ConvModule(
        0.269 GMac, 0.874% MACs, 
        (conv): Conv2d(0.268 GMac, 0.873% MACs, 1024, 256, kernel_size=(1, 1), stride=(1, 1), bias=False)
        (bn): BatchNorm2d(0.001 GMac, 0.002% MACs, 256, eps=1e-05, momentum=0.1, affine=True, track_running_stats=True)
      )
      (2): ConvModule(
        0.134 GMac, 0.437% MACs, 
        (conv): Conv2d(0.134 GMac, 0.436% MACs, 2048, 256, kernel_size=(1, 1), stride=(1, 1), bias=False)
        (bn): BatchNorm2d(0.0 GMac, 0.000% MACs, 256, eps=1e-05, momentum=0.1, affine=True, track_running_stats=True)
      )
    )
    (fpn_convs): ModuleList(
      3.487 GMac, 11.336% MACs, 
      (0): ConvModule(
        2.418 GMac, 7.860% MACs, 
        (conv): Conv2d(2.416 GMac, 7.853% MACs, 256, 256, kernel_size=(3, 3), stride=(1, 1), padding=(1, 1), bias=False)
        (bn): BatchNorm2d(0.002 GMac, 0.007% MACs, 256, eps=1e-05, momentum=0.1, affine=True, track_running_stats=True)
      )
      (1): ConvModule(
        0.605 GMac, 1.965% MACs, 
        (conv): Conv2d(0.604 GMac, 1.963% MACs, 256, 256, kernel_size=(3, 3), stride=(1, 1), padding=(1, 1), bias=False)
        (bn): BatchNorm2d(0.001 GMac, 0.002% MACs, 256, eps=1e-05, momentum=0.1, affine=True, track_running_stats=True)
      )
      (2): ConvModule(
        0.151 GMac, 0.491% MACs, 
        (conv): Conv2d(0.151 GMac, 0.491% MACs, 256, 256, kernel_size=(3, 3), stride=(1, 1), padding=(1, 1), bias=False)
        (bn): BatchNorm2d(0.0 GMac, 0.000% MACs, 256, eps=1e-05, momentum=0.1, affine=True, track_running_stats=True)
      )
      (3): ConvModule(
        0.302 GMac, 0.982% MACs, 
        (conv): Conv2d(0.302 GMac, 0.982% MACs, 2048, 256, kernel_size=(3, 3), stride=(2, 2), padding=(1, 1), bias=False)
        (bn): BatchNorm2d(0.0 GMac, 0.000% MACs, 256, eps=1e-05, momentum=0.1, affine=True, track_running_stats=True)
      )
      (4): ConvModule(
        0.009 GMac, 0.031% MACs, 
        (conv): Conv2d(0.009 GMac, 0.031% MACs, 256, 256, kernel_size=(3, 3), stride=(2, 2), padding=(1, 1), bias=False)
        (bn): BatchNorm2d(0.0 GMac, 0.000% MACs, 256, eps=1e-05, momentum=0.1, affine=True, track_running_stats=True)
      )
      (5): ConvModule(
        0.002 GMac, 0.008% MACs, 
        (conv): Conv2d(0.002 GMac, 0.008% MACs, 256, 256, kernel_size=(3, 3), stride=(2, 2), padding=(1, 1), bias=False)
        (bn): BatchNorm2d(0.0 GMac, 0.000% MACs, 256, eps=1e-05, momentum=0.1, affine=True, track_running_stats=True)
      )
    )
  )
  (bbox_head): SSDHead(
    4.812 GMac, 15.641% MACs, 
    (reg_convs): ModuleList(
      0.226 GMac, 0.736% MACs, 
      (0): Conv2d(0.151 GMac, 0.491% MACs, 256, 16, kernel_size=(3, 3), stride=(1, 1), padding=(1, 1))
      (1): Conv2d(0.057 GMac, 0.184% MACs, 256, 24, kernel_size=(3, 3), stride=(1, 1), padding=(1, 1))
      (2): Conv2d(0.014 GMac, 0.046% MACs, 256, 24, kernel_size=(3, 3), stride=(1, 1), padding=(1, 1))
      (3): Conv2d(0.004 GMac, 0.012% MACs, 256, 24, kernel_size=(3, 3), stride=(1, 1), padding=(1, 1))
      (4): Conv2d(0.001 GMac, 0.003% MACs, 256, 24, kernel_size=(3, 3), stride=(1, 1), padding=(1, 1))
      (5): Conv2d(0.0 GMac, 0.000% MACs, 256, 16, kernel_size=(3, 3), stride=(1, 1), padding=(1, 1))
    )
    (cls_convs): ModuleList(
      4.585 GMac, 14.905% MACs, 
      (0): Conv2d(3.059 GMac, 9.943% MACs, 256, 324, kernel_size=(3, 3), stride=(1, 1), padding=(1, 1))
      (1): Conv2d(1.147 GMac, 3.729% MACs, 256, 486, kernel_size=(3, 3), stride=(1, 1), padding=(1, 1))
      (2): Conv2d(0.287 GMac, 0.932% MACs, 256, 486, kernel_size=(3, 3), stride=(1, 1), padding=(1, 1))
      (3): Conv2d(0.072 GMac, 0.233% MACs, 256, 486, kernel_size=(3, 3), stride=(1, 1), padding=(1, 1))
      (4): Conv2d(0.018 GMac, 0.058% MACs, 256, 486, kernel_size=(3, 3), stride=(1, 1), padding=(1, 1))
      (5): Conv2d(0.003 GMac, 0.010% MACs, 256, 324, kernel_size=(3, 3), stride=(1, 1), padding=(1, 1))
    )
  )
)
2020-07-30 22:52:26,676 - mmdet - INFO - 

2020-07-30 22:52:26,680 - mmdet - INFO - Compute   : 30.77 GMac
2020-07-30 22:52:26,680 - mmdet - INFO - Parameters: 38.37 M
2020-07-30 22:52:43,719 - mmdet - INFO - Start running, host: a0393608@uda0393608, work_dir: /data/files/a0393608/files/work/ti/bitbucket/jacinto-ai/pytorch-jacinto-ai-detection/work_dirs/ssd_resnet_fpn
…
