…
2020-11-10 10:04:49,128 - mmdet - WARNING - The model and loaded state dict do not match exactly

unexpected key in source state_dict: classifier.1.weight, classifier.1.bias, features.18.0.weight, features.18.1.weight, features.18.1.bias, features.18.1.running_mean, features.18.1.running_var, features.18.1.num_batches_tracked

2020-11-10 10:04:49,821 - mmdet - INFO - SingleStageDetector(
  2.592 GMac, 100.000% MACs, 
  (backbone): MobileNetV2(
    1.561 GMac, 60.217% MACs, 
    (features): Sequential(
      1.561 GMac, 60.217% MACs, 
      (0): Sequential(
        0.063 GMac, 2.428% MACs, 
        (0): Conv2d(0.057 GMac, 2.185% MACs, 3, 32, kernel_size=(3, 3), stride=(2, 2), padding=(1, 1), bias=False)
        (1): BatchNorm2d(0.004 GMac, 0.162% MACs, 32, eps=1e-05, momentum=0.1, affine=True, track_running_stats=True)
        (2): ReLU(0.002 GMac, 0.081% MACs, )
      )
      (1): InvertedResidual(
        0.061 GMac, 2.347% MACs, 
        (conv): Sequential(
          0.061 GMac, 2.347% MACs, 
          (0): Sequential(
            0.025 GMac, 0.971% MACs, 
            (0): Conv2d(0.019 GMac, 0.728% MACs, 32, 32, kernel_size=(3, 3), stride=(1, 1), padding=(1, 1), groups=32, bias=False)
            (1): BatchNorm2d(0.004 GMac, 0.162% MACs, 32, eps=1e-05, momentum=0.1, affine=True, track_running_stats=True)
            (2): ReLU(0.002 GMac, 0.081% MACs, )
          )
          (1): Conv2d(0.034 GMac, 1.295% MACs, 32, 16, kernel_size=(1, 1), stride=(1, 1), bias=False)
          (2): BatchNorm2d(0.002 GMac, 0.081% MACs, 16, eps=1e-05, momentum=0.1, affine=True, track_running_stats=True)
        )
      )
      (2): InvertedResidual(
        0.177 GMac, 6.828% MACs, 
        (conv): Sequential(
          0.177 GMac, 6.828% MACs, 
          (0): Sequential(
            0.12 GMac, 4.613% MACs, 
            (0): Conv2d(0.101 GMac, 3.884% MACs, 16, 96, kernel_size=(1, 1), stride=(1, 1), bias=False)
            (1): BatchNorm2d(0.013 GMac, 0.486% MACs, 96, eps=1e-05, momentum=0.1, affine=True, track_running_stats=True)
            (2): ReLU(0.006 GMac, 0.243% MACs, )
          )
          (1): Sequential(
            0.019 GMac, 0.728% MACs, 
            (0): Conv2d(0.014 GMac, 0.546% MACs, 96, 96, kernel_size=(3, 3), stride=(2, 2), padding=(1, 1), groups=96, bias=False)
            (1): BatchNorm2d(0.003 GMac, 0.121% MACs, 96, eps=1e-05, momentum=0.1, affine=True, track_running_stats=True)
            (2): ReLU(0.002 GMac, 0.061% MACs, )
          )
          (2): Conv2d(0.038 GMac, 1.457% MACs, 96, 24, kernel_size=(1, 1), stride=(1, 1), bias=False)
          (3): BatchNorm2d(0.001 GMac, 0.030% MACs, 24, eps=1e-05, momentum=0.1, affine=True, track_running_stats=True)
        )
      )
      (3): InvertedResidual(
        0.149 GMac, 5.766% MACs, 
        (conv): Sequential(
          0.149 GMac, 5.766% MACs, 
          (0): Sequential(
            0.064 GMac, 2.458% MACs, 
            (0): Conv2d(0.057 GMac, 2.185% MACs, 24, 144, kernel_size=(1, 1), stride=(1, 1), bias=False)
            (1): BatchNorm2d(0.005 GMac, 0.182% MACs, 144, eps=1e-05, momentum=0.1, affine=True, track_running_stats=True)
            (2): ReLU(0.002 GMac, 0.091% MACs, )
          )
          (1): Sequential(
            0.028 GMac, 1.092% MACs, 
            (0): Conv2d(0.021 GMac, 0.819% MACs, 144, 144, kernel_size=(3, 3), stride=(1, 1), padding=(1, 1), groups=144, bias=False)
            (1): BatchNorm2d(0.005 GMac, 0.182% MACs, 144, eps=1e-05, momentum=0.1, affine=True, track_running_stats=True)
            (2): ReLU(0.002 GMac, 0.091% MACs, )
          )
          (2): Conv2d(0.057 GMac, 2.185% MACs, 144, 24, kernel_size=(1, 1), stride=(1, 1), bias=False)
          (3): BatchNorm2d(0.001 GMac, 0.030% MACs, 24, eps=1e-05, momentum=0.1, affine=True, track_running_stats=True)
        )
        (add): AddBlock(inplace=False, signed=True)
      )
      (4): InvertedResidual(
        0.09 GMac, 3.470% MACs, 
        (conv): Sequential(
          0.09 GMac, 3.470% MACs, 
          (0): Sequential(
            0.064 GMac, 2.458% MACs, 
            (0): Conv2d(0.057 GMac, 2.185% MACs, 24, 144, kernel_size=(1, 1), stride=(1, 1), bias=False)
            (1): BatchNorm2d(0.005 GMac, 0.182% MACs, 144, eps=1e-05, momentum=0.1, affine=True, track_running_stats=True)
            (2): ReLU(0.002 GMac, 0.091% MACs, )
          )
          (1): Sequential(
            0.007 GMac, 0.273% MACs, 
            (0): Conv2d(0.005 GMac, 0.205% MACs, 144, 144, kernel_size=(3, 3), stride=(2, 2), padding=(1, 1), groups=144, bias=False)
            (1): BatchNorm2d(0.001 GMac, 0.046% MACs, 144, eps=1e-05, momentum=0.1, affine=True, track_running_stats=True)
            (2): ReLU(0.001 GMac, 0.023% MACs, )
          )
          (2): Conv2d(0.019 GMac, 0.728% MACs, 144, 32, kernel_size=(1, 1), stride=(1, 1), bias=False)
          (3): BatchNorm2d(0.0 GMac, 0.010% MACs, 32, eps=1e-05, momentum=0.1, affine=True, track_running_stats=True)
        )
      )
      (5): InvertedResidual(
        0.062 GMac, 2.407% MACs, 
        (conv): Sequential(
          0.062 GMac, 2.407% MACs, 
          (0): Sequential(
            0.028 GMac, 1.062% MACs, 
            (0): Conv2d(0.025 GMac, 0.971% MACs, 32, 192, kernel_size=(1, 1), stride=(1, 1), bias=False)
            (1): BatchNorm2d(0.002 GMac, 0.061% MACs, 192, eps=1e-05, momentum=0.1, affine=True, track_running_stats=True)
            (2): ReLU(0.001 GMac, 0.030% MACs, )
          )
          (1): Sequential(
            0.009 GMac, 0.364% MACs, 
            (0): Conv2d(0.007 GMac, 0.273% MACs, 192, 192, kernel_size=(3, 3), stride=(1, 1), padding=(1, 1), groups=192, bias=False)
            (1): BatchNorm2d(0.002 GMac, 0.061% MACs, 192, eps=1e-05, momentum=0.1, affine=True, track_running_stats=True)
            (2): ReLU(0.001 GMac, 0.030% MACs, )
          )
          (2): Conv2d(0.025 GMac, 0.971% MACs, 192, 32, kernel_size=(1, 1), stride=(1, 1), bias=False)
          (3): BatchNorm2d(0.0 GMac, 0.010% MACs, 32, eps=1e-05, momentum=0.1, affine=True, track_running_stats=True)
        )
        (add): AddBlock(inplace=False, signed=True)
      )
      (6): InvertedResidual(
        0.062 GMac, 2.407% MACs, 
        (conv): Sequential(
          0.062 GMac, 2.407% MACs, 
          (0): Sequential(
            0.028 GMac, 1.062% MACs, 
            (0): Conv2d(0.025 GMac, 0.971% MACs, 32, 192, kernel_size=(1, 1), stride=(1, 1), bias=False)
            (1): BatchNorm2d(0.002 GMac, 0.061% MACs, 192, eps=1e-05, momentum=0.1, affine=True, track_running_stats=True)
            (2): ReLU(0.001 GMac, 0.030% MACs, )
          )
          (1): Sequential(
            0.009 GMac, 0.364% MACs, 
            (0): Conv2d(0.007 GMac, 0.273% MACs, 192, 192, kernel_size=(3, 3), stride=(1, 1), padding=(1, 1), groups=192, bias=False)
            (1): BatchNorm2d(0.002 GMac, 0.061% MACs, 192, eps=1e-05, momentum=0.1, affine=True, track_running_stats=True)
            (2): ReLU(0.001 GMac, 0.030% MACs, )
          )
          (2): Conv2d(0.025 GMac, 0.971% MACs, 192, 32, kernel_size=(1, 1), stride=(1, 1), bias=False)
          (3): BatchNorm2d(0.0 GMac, 0.010% MACs, 32, eps=1e-05, momentum=0.1, affine=True, track_running_stats=True)
        )
        (add): AddBlock(inplace=False, signed=True)
      )
      (7): InvertedResidual(
        0.043 GMac, 1.644% MACs, 
        (conv): Sequential(
          0.043 GMac, 1.644% MACs, 
          (0): Sequential(
            0.028 GMac, 1.062% MACs, 
            (0): Conv2d(0.025 GMac, 0.971% MACs, 32, 192, kernel_size=(1, 1), stride=(1, 1), bias=False)
            (1): BatchNorm2d(0.002 GMac, 0.061% MACs, 192, eps=1e-05, momentum=0.1, affine=True, track_running_stats=True)
            (2): ReLU(0.001 GMac, 0.030% MACs, )
          )
          (1): Sequential(
            0.002 GMac, 0.091% MACs, 
            (0): Conv2d(0.002 GMac, 0.068% MACs, 192, 192, kernel_size=(3, 3), stride=(2, 2), padding=(1, 1), groups=192, bias=False)
            (1): BatchNorm2d(0.0 GMac, 0.015% MACs, 192, eps=1e-05, momentum=0.1, affine=True, track_running_stats=True)
            (2): ReLU(0.0 GMac, 0.008% MACs, )
          )
          (2): Conv2d(0.013 GMac, 0.486% MACs, 192, 64, kernel_size=(1, 1), stride=(1, 1), bias=False)
          (3): BatchNorm2d(0.0 GMac, 0.005% MACs, 64, eps=1e-05, momentum=0.1, affine=True, track_running_stats=True)
        )
      )
      (8): InvertedResidual(
        0.056 GMac, 2.175% MACs, 
        (conv): Sequential(
          0.056 GMac, 2.175% MACs, 
          (0): Sequential(
            0.026 GMac, 1.017% MACs, 
            (0): Conv2d(0.025 GMac, 0.971% MACs, 64, 384, kernel_size=(1, 1), stride=(1, 1), bias=False)
            (1): BatchNorm2d(0.001 GMac, 0.030% MACs, 384, eps=1e-05, momentum=0.1, affine=True, track_running_stats=True)
            (2): ReLU(0.0 GMac, 0.015% MACs, )
          )
          (1): Sequential(
            0.005 GMac, 0.182% MACs, 
            (0): Conv2d(0.004 GMac, 0.137% MACs, 384, 384, kernel_size=(3, 3), stride=(1, 1), padding=(1, 1), groups=384, bias=False)
            (1): BatchNorm2d(0.001 GMac, 0.030% MACs, 384, eps=1e-05, momentum=0.1, affine=True, track_running_stats=True)
            (2): ReLU(0.0 GMac, 0.015% MACs, )
          )
          (2): Conv2d(0.025 GMac, 0.971% MACs, 384, 64, kernel_size=(1, 1), stride=(1, 1), bias=False)
          (3): BatchNorm2d(0.0 GMac, 0.005% MACs, 64, eps=1e-05, momentum=0.1, affine=True, track_running_stats=True)
        )
        (add): AddBlock(inplace=False, signed=True)
      )
      (9): InvertedResidual(
        0.056 GMac, 2.175% MACs, 
        (conv): Sequential(
          0.056 GMac, 2.175% MACs, 
          (0): Sequential(
            0.026 GMac, 1.017% MACs, 
            (0): Conv2d(0.025 GMac, 0.971% MACs, 64, 384, kernel_size=(1, 1), stride=(1, 1), bias=False)
            (1): BatchNorm2d(0.001 GMac, 0.030% MACs, 384, eps=1e-05, momentum=0.1, affine=True, track_running_stats=True)
            (2): ReLU(0.0 GMac, 0.015% MACs, )
          )
          (1): Sequential(
            0.005 GMac, 0.182% MACs, 
            (0): Conv2d(0.004 GMac, 0.137% MACs, 384, 384, kernel_size=(3, 3), stride=(1, 1), padding=(1, 1), groups=384, bias=False)
            (1): BatchNorm2d(0.001 GMac, 0.030% MACs, 384, eps=1e-05, momentum=0.1, affine=True, track_running_stats=True)
            (2): ReLU(0.0 GMac, 0.015% MACs, )
          )
          (2): Conv2d(0.025 GMac, 0.971% MACs, 384, 64, kernel_size=(1, 1), stride=(1, 1), bias=False)
          (3): BatchNorm2d(0.0 GMac, 0.005% MACs, 64, eps=1e-05, momentum=0.1, affine=True, track_running_stats=True)
        )
        (add): AddBlock(inplace=False, signed=True)
      )
      (10): InvertedResidual(
        0.056 GMac, 2.175% MACs, 
        (conv): Sequential(
          0.056 GMac, 2.175% MACs, 
          (0): Sequential(
            0.026 GMac, 1.017% MACs, 
            (0): Conv2d(0.025 GMac, 0.971% MACs, 64, 384, kernel_size=(1, 1), stride=(1, 1), bias=False)
            (1): BatchNorm2d(0.001 GMac, 0.030% MACs, 384, eps=1e-05, momentum=0.1, affine=True, track_running_stats=True)
            (2): ReLU(0.0 GMac, 0.015% MACs, )
          )
          (1): Sequential(
            0.005 GMac, 0.182% MACs, 
            (0): Conv2d(0.004 GMac, 0.137% MACs, 384, 384, kernel_size=(3, 3), stride=(1, 1), padding=(1, 1), groups=384, bias=False)
            (1): BatchNorm2d(0.001 GMac, 0.030% MACs, 384, eps=1e-05, momentum=0.1, affine=True, track_running_stats=True)
            (2): ReLU(0.0 GMac, 0.015% MACs, )
          )
          (2): Conv2d(0.025 GMac, 0.971% MACs, 384, 64, kernel_size=(1, 1), stride=(1, 1), bias=False)
          (3): BatchNorm2d(0.0 GMac, 0.005% MACs, 64, eps=1e-05, momentum=0.1, affine=True, track_running_stats=True)
        )
        (add): AddBlock(inplace=False, signed=True)
      )
      (11): InvertedResidual(
        0.069 GMac, 2.663% MACs, 
        (conv): Sequential(
          0.069 GMac, 2.663% MACs, 
          (0): Sequential(
            0.026 GMac, 1.017% MACs, 
            (0): Conv2d(0.025 GMac, 0.971% MACs, 64, 384, kernel_size=(1, 1), stride=(1, 1), bias=False)
            (1): BatchNorm2d(0.001 GMac, 0.030% MACs, 384, eps=1e-05, momentum=0.1, affine=True, track_running_stats=True)
            (2): ReLU(0.0 GMac, 0.015% MACs, )
          )
          (1): Sequential(
            0.005 GMac, 0.182% MACs, 
            (0): Conv2d(0.004 GMac, 0.137% MACs, 384, 384, kernel_size=(3, 3), stride=(1, 1), padding=(1, 1), groups=384, bias=False)
            (1): BatchNorm2d(0.001 GMac, 0.030% MACs, 384, eps=1e-05, momentum=0.1, affine=True, track_running_stats=True)
            (2): ReLU(0.0 GMac, 0.015% MACs, )
          )
          (2): Conv2d(0.038 GMac, 1.457% MACs, 384, 96, kernel_size=(1, 1), stride=(1, 1), bias=False)
          (3): BatchNorm2d(0.0 GMac, 0.008% MACs, 96, eps=1e-05, momentum=0.1, affine=True, track_running_stats=True)
        )
      )
      (12): InvertedResidual(
        0.122 GMac, 4.719% MACs, 
        (conv): Sequential(
          0.122 GMac, 4.719% MACs, 
          (0): Sequential(
            0.058 GMac, 2.253% MACs, 
            (0): Conv2d(0.057 GMac, 2.185% MACs, 96, 576, kernel_size=(1, 1), stride=(1, 1), bias=False)
            (1): BatchNorm2d(0.001 GMac, 0.046% MACs, 576, eps=1e-05, momentum=0.1, affine=True, track_running_stats=True)
            (2): ReLU(0.001 GMac, 0.023% MACs, )
          )
          (1): Sequential(
            0.007 GMac, 0.273% MACs, 
            (0): Conv2d(0.005 GMac, 0.205% MACs, 576, 576, kernel_size=(3, 3), stride=(1, 1), padding=(1, 1), groups=576, bias=False)
            (1): BatchNorm2d(0.001 GMac, 0.046% MACs, 576, eps=1e-05, momentum=0.1, affine=True, track_running_stats=True)
            (2): ReLU(0.001 GMac, 0.023% MACs, )
          )
          (2): Conv2d(0.057 GMac, 2.185% MACs, 576, 96, kernel_size=(1, 1), stride=(1, 1), bias=False)
          (3): BatchNorm2d(0.0 GMac, 0.008% MACs, 96, eps=1e-05, momentum=0.1, affine=True, track_running_stats=True)
        )
        (add): AddBlock(inplace=False, signed=True)
      )
      (13): InvertedResidual(
        0.122 GMac, 4.719% MACs, 
        (conv): Sequential(
          0.122 GMac, 4.719% MACs, 
          (0): Sequential(
            0.058 GMac, 2.253% MACs, 
            (0): Conv2d(0.057 GMac, 2.185% MACs, 96, 576, kernel_size=(1, 1), stride=(1, 1), bias=False)
            (1): BatchNorm2d(0.001 GMac, 0.046% MACs, 576, eps=1e-05, momentum=0.1, affine=True, track_running_stats=True)
            (2): ReLU(0.001 GMac, 0.023% MACs, )
          )
          (1): Sequential(
            0.007 GMac, 0.273% MACs, 
            (0): Conv2d(0.005 GMac, 0.205% MACs, 576, 576, kernel_size=(3, 3), stride=(1, 1), padding=(1, 1), groups=576, bias=False)
            (1): BatchNorm2d(0.001 GMac, 0.046% MACs, 576, eps=1e-05, momentum=0.1, affine=True, track_running_stats=True)
            (2): ReLU(0.001 GMac, 0.023% MACs, )
          )
          (2): Conv2d(0.057 GMac, 2.185% MACs, 576, 96, kernel_size=(1, 1), stride=(1, 1), bias=False)
          (3): BatchNorm2d(0.0 GMac, 0.008% MACs, 96, eps=1e-05, momentum=0.1, affine=True, track_running_stats=True)
        )
        (add): AddBlock(inplace=False, signed=True)
      )
      (14): InvertedResidual(
        0.084 GMac, 3.235% MACs, 
        (conv): Sequential(
          0.084 GMac, 3.235% MACs, 
          (0): Sequential(
            0.058 GMac, 2.253% MACs, 
            (0): Conv2d(0.057 GMac, 2.185% MACs, 96, 576, kernel_size=(1, 1), stride=(1, 1), bias=False)
            (1): BatchNorm2d(0.001 GMac, 0.046% MACs, 576, eps=1e-05, momentum=0.1, affine=True, track_running_stats=True)
            (2): ReLU(0.001 GMac, 0.023% MACs, )
          )
          (1): Sequential(
            0.002 GMac, 0.068% MACs, 
            (0): Conv2d(0.001 GMac, 0.051% MACs, 576, 576, kernel_size=(3, 3), stride=(2, 2), padding=(1, 1), groups=576, bias=False)
            (1): BatchNorm2d(0.0 GMac, 0.011% MACs, 576, eps=1e-05, momentum=0.1, affine=True, track_running_stats=True)
            (2): ReLU(0.0 GMac, 0.006% MACs, )
          )
          (2): Conv2d(0.024 GMac, 0.910% MACs, 576, 160, kernel_size=(1, 1), stride=(1, 1), bias=False)
          (3): BatchNorm2d(0.0 GMac, 0.003% MACs, 160, eps=1e-05, momentum=0.1, affine=True, track_running_stats=True)
        )
      )
      (15): InvertedResidual(
        0.082 GMac, 3.180% MACs, 
        (conv): Sequential(
          0.082 GMac, 3.180% MACs, 
          (0): Sequential(
            0.04 GMac, 1.546% MACs, 
            (0): Conv2d(0.039 GMac, 1.517% MACs, 160, 960, kernel_size=(1, 1), stride=(1, 1), bias=False)
            (1): BatchNorm2d(0.0 GMac, 0.019% MACs, 960, eps=1e-05, momentum=0.1, affine=True, track_running_stats=True)
            (2): ReLU(0.0 GMac, 0.009% MACs, )
          )
          (1): Sequential(
            0.003 GMac, 0.114% MACs, 
            (0): Conv2d(0.002 GMac, 0.085% MACs, 960, 960, kernel_size=(3, 3), stride=(1, 1), padding=(1, 1), groups=960, bias=False)
            (1): BatchNorm2d(0.0 GMac, 0.019% MACs, 960, eps=1e-05, momentum=0.1, affine=True, track_running_stats=True)
            (2): ReLU(0.0 GMac, 0.009% MACs, )
          )
          (2): Conv2d(0.039 GMac, 1.517% MACs, 960, 160, kernel_size=(1, 1), stride=(1, 1), bias=False)
          (3): BatchNorm2d(0.0 GMac, 0.003% MACs, 160, eps=1e-05, momentum=0.1, affine=True, track_running_stats=True)
        )
        (add): AddBlock(inplace=False, signed=True)
      )
      (16): InvertedResidual(
        0.082 GMac, 3.180% MACs, 
        (conv): Sequential(
          0.082 GMac, 3.180% MACs, 
          (0): Sequential(
            0.04 GMac, 1.546% MACs, 
            (0): Conv2d(0.039 GMac, 1.517% MACs, 160, 960, kernel_size=(1, 1), stride=(1, 1), bias=False)
            (1): BatchNorm2d(0.0 GMac, 0.019% MACs, 960, eps=1e-05, momentum=0.1, affine=True, track_running_stats=True)
            (2): ReLU(0.0 GMac, 0.009% MACs, )
          )
          (1): Sequential(
            0.003 GMac, 0.114% MACs, 
            (0): Conv2d(0.002 GMac, 0.085% MACs, 960, 960, kernel_size=(3, 3), stride=(1, 1), padding=(1, 1), groups=960, bias=False)
            (1): BatchNorm2d(0.0 GMac, 0.019% MACs, 960, eps=1e-05, momentum=0.1, affine=True, track_running_stats=True)
            (2): ReLU(0.0 GMac, 0.009% MACs, )
          )
          (2): Conv2d(0.039 GMac, 1.517% MACs, 960, 160, kernel_size=(1, 1), stride=(1, 1), bias=False)
          (3): BatchNorm2d(0.0 GMac, 0.003% MACs, 160, eps=1e-05, momentum=0.1, affine=True, track_running_stats=True)
        )
        (add): AddBlock(inplace=False, signed=True)
      )
      (17): InvertedResidual(
        0.122 GMac, 4.700% MACs, 
        (conv): Sequential(
          0.122 GMac, 4.700% MACs, 
          (0): Sequential(
            0.04 GMac, 1.546% MACs, 
            (0): Conv2d(0.039 GMac, 1.517% MACs, 160, 960, kernel_size=(1, 1), stride=(1, 1), bias=False)
            (1): BatchNorm2d(0.0 GMac, 0.019% MACs, 960, eps=1e-05, momentum=0.1, affine=True, track_running_stats=True)
            (2): ReLU(0.0 GMac, 0.009% MACs, )
          )
          (1): Sequential(
            0.003 GMac, 0.114% MACs, 
            (0): Conv2d(0.002 GMac, 0.085% MACs, 960, 960, kernel_size=(3, 3), stride=(1, 1), padding=(1, 1), groups=960, bias=False)
            (1): BatchNorm2d(0.0 GMac, 0.019% MACs, 960, eps=1e-05, momentum=0.1, affine=True, track_running_stats=True)
            (2): ReLU(0.0 GMac, 0.009% MACs, )
          )
          (2): Conv2d(0.079 GMac, 3.035% MACs, 960, 320, kernel_size=(1, 1), stride=(1, 1), bias=False)
          (3): BatchNorm2d(0.0 GMac, 0.006% MACs, 320, eps=1e-05, momentum=0.1, affine=True, track_running_stats=True)
        )
      )
    )
  )
  (neck): FPNLite(
    0.461 GMac, 17.786% MACs, 
    (lateral_convs): ModuleList(
      0.082 GMac, 3.181% MACs, 
      (0): ConvNormAct2d(
        0.036 GMac, 1.376% MACs, 
        (0): Conv2d(0.034 GMac, 1.295% MACs, 32, 256, kernel_size=(1, 1), stride=(1, 1), bias=False)
        (1): BatchNorm2d(0.002 GMac, 0.081% MACs, 256, eps=1e-05, momentum=0.1, affine=True, track_running_stats=True)
      )
      (1): ConvNormAct2d(
        0.026 GMac, 0.991% MACs, 
        (0): Conv2d(0.025 GMac, 0.971% MACs, 96, 256, kernel_size=(1, 1), stride=(1, 1), bias=False)
        (1): BatchNorm2d(0.001 GMac, 0.020% MACs, 256, eps=1e-05, momentum=0.1, affine=True, track_running_stats=True)
      )
      (2): ConvNormAct2d(
        0.021 GMac, 0.814% MACs, 
        (0): Conv2d(0.021 GMac, 0.809% MACs, 320, 256, kernel_size=(1, 1), stride=(1, 1), bias=False)
        (1): BatchNorm2d(0.0 GMac, 0.005% MACs, 256, eps=1e-05, momentum=0.1, affine=True, track_running_stats=True)
      )
    )
    (fpn_convs): ModuleList(
      0.378 GMac, 14.605% MACs, 
      (0): ConvDWSep2d(
        0.283 GMac, 10.925% MACs, 
        (0): Sequential(
          0.013 GMac, 0.486% MACs, 
          (0): Conv2d(0.009 GMac, 0.364% MACs, 256, 256, kernel_size=(3, 3), stride=(1, 1), padding=(1, 1), groups=256, bias=False)
          (1): BatchNorm2d(0.002 GMac, 0.081% MACs, 256, eps=1e-05, momentum=0.1, affine=True, track_running_stats=True)
          (2): ReLU(0.001 GMac, 0.040% MACs, )
        )
        (1): Sequential(
          0.271 GMac, 10.439% MACs, 
          (0): Conv2d(0.268 GMac, 10.358% MACs, 256, 256, kernel_size=(1, 1), stride=(1, 1), bias=False)
          (1): BatchNorm2d(0.002 GMac, 0.081% MACs, 256, eps=1e-05, momentum=0.1, affine=True, track_running_stats=True)
        )
      )
      (1): ConvDWSep2d(
        0.071 GMac, 2.731% MACs, 
        (0): Sequential(
          0.003 GMac, 0.121% MACs, 
          (0): Conv2d(0.002 GMac, 0.091% MACs, 256, 256, kernel_size=(3, 3), stride=(1, 1), padding=(1, 1), groups=256, bias=False)
          (1): BatchNorm2d(0.001 GMac, 0.020% MACs, 256, eps=1e-05, momentum=0.1, affine=True, track_running_stats=True)
          (2): ReLU(0.0 GMac, 0.010% MACs, )
        )
        (1): Sequential(
          0.068 GMac, 2.610% MACs, 
          (0): Conv2d(0.067 GMac, 2.590% MACs, 256, 256, kernel_size=(1, 1), stride=(1, 1), bias=False)
          (1): BatchNorm2d(0.001 GMac, 0.020% MACs, 256, eps=1e-05, momentum=0.1, affine=True, track_running_stats=True)
        )
      )
      (2): ConvDWSep2d(
        0.018 GMac, 0.683% MACs, 
        (0): Sequential(
          0.001 GMac, 0.030% MACs, 
          (0): Conv2d(0.001 GMac, 0.023% MACs, 256, 256, kernel_size=(3, 3), stride=(1, 1), padding=(1, 1), groups=256, bias=False)
          (1): BatchNorm2d(0.0 GMac, 0.005% MACs, 256, eps=1e-05, momentum=0.1, affine=True, track_running_stats=True)
          (2): ReLU(0.0 GMac, 0.003% MACs, )
        )
        (1): Sequential(
          0.017 GMac, 0.652% MACs, 
          (0): Conv2d(0.017 GMac, 0.647% MACs, 256, 256, kernel_size=(1, 1), stride=(1, 1), bias=False)
          (1): BatchNorm2d(0.0 GMac, 0.005% MACs, 256, eps=1e-05, momentum=0.1, affine=True, track_running_stats=True)
        )
      )
      (3): ConvDWSep2d(
        0.006 GMac, 0.213% MACs, 
        (0): Sequential(
          0.0 GMac, 0.009% MACs, 
          (0): Conv2d(0.0 GMac, 0.007% MACs, 320, 320, kernel_size=(3, 3), stride=(2, 2), padding=(1, 1), groups=320, bias=False)
          (1): BatchNorm2d(0.0 GMac, 0.002% MACs, 320, eps=1e-05, momentum=0.1, affine=True, track_running_stats=True)
          (2): ReLU(0.0 GMac, 0.001% MACs, )
        )
        (1): Sequential(
          0.005 GMac, 0.204% MACs, 
          (0): Conv2d(0.005 GMac, 0.202% MACs, 320, 256, kernel_size=(1, 1), stride=(1, 1), bias=False)
          (1): BatchNorm2d(0.0 GMac, 0.001% MACs, 256, eps=1e-05, momentum=0.1, affine=True, track_running_stats=True)
        )
      )
      (4): ConvDWSep2d(
        0.001 GMac, 0.043% MACs, 
        (0): Sequential(
          0.0 GMac, 0.002% MACs, 
          (0): Conv2d(0.0 GMac, 0.001% MACs, 256, 256, kernel_size=(3, 3), stride=(2, 2), padding=(1, 1), groups=256, bias=False)
          (1): BatchNorm2d(0.0 GMac, 0.000% MACs, 256, eps=1e-05, momentum=0.1, affine=True, track_running_stats=True)
          (2): ReLU(0.0 GMac, 0.000% MACs, )
        )
        (1): Sequential(
          0.001 GMac, 0.041% MACs, 
          (0): Conv2d(0.001 GMac, 0.040% MACs, 256, 256, kernel_size=(1, 1), stride=(1, 1), bias=False)
          (1): BatchNorm2d(0.0 GMac, 0.000% MACs, 256, eps=1e-05, momentum=0.1, affine=True, track_running_stats=True)
        )
      )
      (5): ConvDWSep2d(
        0.0 GMac, 0.011% MACs, 
        (0): Sequential(
          0.0 GMac, 0.000% MACs, 
          (0): Conv2d(0.0 GMac, 0.000% MACs, 256, 256, kernel_size=(3, 3), stride=(2, 2), padding=(1, 1), groups=256, bias=False)
          (1): BatchNorm2d(0.0 GMac, 0.000% MACs, 256, eps=1e-05, momentum=0.1, affine=True, track_running_stats=True)
          (2): ReLU(0.0 GMac, 0.000% MACs, )
        )
        (1): Sequential(
          0.0 GMac, 0.010% MACs, 
          (0): Conv2d(0.0 GMac, 0.010% MACs, 256, 256, kernel_size=(1, 1), stride=(1, 1), bias=False)
          (1): BatchNorm2d(0.0 GMac, 0.000% MACs, 256, eps=1e-05, momentum=0.1, affine=True, track_running_stats=True)
        )
      )
    )
    (adds): ModuleList(
      0.0 GMac, 0.000% MACs, 
      (0): AddBlock(inplace=False, signed=True)
      (1): AddBlock(inplace=False, signed=True)
      (2): AddBlock(inplace=False, signed=True)
    )
  )
  (bbox_head): SSDLiteHead(
    0.57 GMac, 21.997% MACs, 
    (reg_convs): ModuleList(
      0.042 GMac, 1.621% MACs, 
      (0): ConvDWSep2d(
        0.029 GMac, 1.135% MACs, 
        (0): Sequential(
          0.013 GMac, 0.486% MACs, 
          (0): Conv2d(0.009 GMac, 0.364% MACs, 256, 256, kernel_size=(3, 3), stride=(1, 1), padding=(1, 1), groups=256, bias=False)
          (1): BatchNorm2d(0.002 GMac, 0.081% MACs, 256, eps=1e-05, momentum=0.1, affine=True, track_running_stats=True)
          (2): ReLU(0.001 GMac, 0.040% MACs, )
        )
        (1): Sequential(
          0.017 GMac, 0.650% MACs, 
          (0): Conv2d(0.017 GMac, 0.650% MACs, 256, 16, kernel_size=(1, 1), stride=(1, 1))
        )
      )
      (1): ConvDWSep2d(
        0.009 GMac, 0.365% MACs, 
        (0): Sequential(
          0.003 GMac, 0.121% MACs, 
          (0): Conv2d(0.002 GMac, 0.091% MACs, 256, 256, kernel_size=(3, 3), stride=(1, 1), padding=(1, 1), groups=256, bias=False)
          (1): BatchNorm2d(0.001 GMac, 0.020% MACs, 256, eps=1e-05, momentum=0.1, affine=True, track_running_stats=True)
          (2): ReLU(0.0 GMac, 0.010% MACs, )
        )
        (1): Sequential(
          0.006 GMac, 0.244% MACs, 
          (0): Conv2d(0.006 GMac, 0.244% MACs, 256, 24, kernel_size=(1, 1), stride=(1, 1))
        )
      )
      (2): ConvDWSep2d(
        0.002 GMac, 0.091% MACs, 
        (0): Sequential(
          0.001 GMac, 0.030% MACs, 
          (0): Conv2d(0.001 GMac, 0.023% MACs, 256, 256, kernel_size=(3, 3), stride=(1, 1), padding=(1, 1), groups=256, bias=False)
          (1): BatchNorm2d(0.0 GMac, 0.005% MACs, 256, eps=1e-05, momentum=0.1, affine=True, track_running_stats=True)
          (2): ReLU(0.0 GMac, 0.003% MACs, )
        )
        (1): Sequential(
          0.002 GMac, 0.061% MACs, 
          (0): Conv2d(0.002 GMac, 0.061% MACs, 256, 24, kernel_size=(1, 1), stride=(1, 1))
        )
      )
      (3): ConvDWSep2d(
        0.001 GMac, 0.023% MACs, 
        (0): Sequential(
          0.0 GMac, 0.008% MACs, 
          (0): Conv2d(0.0 GMac, 0.006% MACs, 256, 256, kernel_size=(3, 3), stride=(1, 1), padding=(1, 1), groups=256, bias=False)
          (1): BatchNorm2d(0.0 GMac, 0.001% MACs, 256, eps=1e-05, momentum=0.1, affine=True, track_running_stats=True)
          (2): ReLU(0.0 GMac, 0.001% MACs, )
        )
        (1): Sequential(
          0.0 GMac, 0.015% MACs, 
          (0): Conv2d(0.0 GMac, 0.015% MACs, 256, 24, kernel_size=(1, 1), stride=(1, 1))
        )
      )
      (4): ConvDWSep2d(
        0.0 GMac, 0.006% MACs, 
        (0): Sequential(
          0.0 GMac, 0.002% MACs, 
          (0): Conv2d(0.0 GMac, 0.001% MACs, 256, 256, kernel_size=(3, 3), stride=(1, 1), padding=(1, 1), groups=256, bias=False)
          (1): BatchNorm2d(0.0 GMac, 0.000% MACs, 256, eps=1e-05, momentum=0.1, affine=True, track_running_stats=True)
          (2): ReLU(0.0 GMac, 0.000% MACs, )
        )
        (1): Sequential(
          0.0 GMac, 0.004% MACs, 
          (0): Conv2d(0.0 GMac, 0.004% MACs, 256, 24, kernel_size=(1, 1), stride=(1, 1))
        )
      )
      (5): ConvDWSep2d(
        0.0 GMac, 0.001% MACs, 
        (0): Sequential(
          0.0 GMac, 0.000% MACs, 
          (0): Conv2d(0.0 GMac, 0.000% MACs, 256, 256, kernel_size=(3, 3), stride=(1, 1), padding=(1, 1), groups=256, bias=False)
          (1): BatchNorm2d(0.0 GMac, 0.000% MACs, 256, eps=1e-05, momentum=0.1, affine=True, track_running_stats=True)
          (2): ReLU(0.0 GMac, 0.000% MACs, )
        )
        (1): Sequential(
          0.0 GMac, 0.001% MACs, 
          (0): Conv2d(0.0 GMac, 0.001% MACs, 256, 16, kernel_size=(1, 1), stride=(1, 1))
        )
      )
    )
    (cls_convs): ModuleList(
      0.528 GMac, 20.375% MACs, 
      (0): ConvDWSep2d(
        0.354 GMac, 13.646% MACs, 
        (0): Sequential(
          0.013 GMac, 0.486% MACs, 
          (0): Conv2d(0.009 GMac, 0.364% MACs, 256, 256, kernel_size=(3, 3), stride=(1, 1), padding=(1, 1), groups=256, bias=False)
          (1): BatchNorm2d(0.002 GMac, 0.081% MACs, 256, eps=1e-05, momentum=0.1, affine=True, track_running_stats=True)
          (2): ReLU(0.001 GMac, 0.040% MACs, )
        )
        (1): Sequential(
          0.341 GMac, 13.161% MACs, 
          (0): Conv2d(0.341 GMac, 13.161% MACs, 256, 324, kernel_size=(1, 1), stride=(1, 1))
        )
      )
      (1): ConvDWSep2d(
        0.131 GMac, 5.057% MACs, 
        (0): Sequential(
          0.003 GMac, 0.121% MACs, 
          (0): Conv2d(0.002 GMac, 0.091% MACs, 256, 256, kernel_size=(3, 3), stride=(1, 1), padding=(1, 1), groups=256, bias=False)
          (1): BatchNorm2d(0.001 GMac, 0.020% MACs, 256, eps=1e-05, momentum=0.1, affine=True, track_running_stats=True)
          (2): ReLU(0.0 GMac, 0.010% MACs, )
        )
        (1): Sequential(
          0.128 GMac, 4.935% MACs, 
          (0): Conv2d(0.128 GMac, 4.935% MACs, 256, 486, kernel_size=(1, 1), stride=(1, 1))
        )
      )
      (2): ConvDWSep2d(
        0.033 GMac, 1.264% MACs, 
        (0): Sequential(
          0.001 GMac, 0.030% MACs, 
          (0): Conv2d(0.001 GMac, 0.023% MACs, 256, 256, kernel_size=(3, 3), stride=(1, 1), padding=(1, 1), groups=256, bias=False)
          (1): BatchNorm2d(0.0 GMac, 0.005% MACs, 256, eps=1e-05, momentum=0.1, affine=True, track_running_stats=True)
          (2): ReLU(0.0 GMac, 0.003% MACs, )
        )
        (1): Sequential(
          0.032 GMac, 1.234% MACs, 
          (0): Conv2d(0.032 GMac, 1.234% MACs, 256, 486, kernel_size=(1, 1), stride=(1, 1))
        )
      )
      (3): ConvDWSep2d(
        0.008 GMac, 0.316% MACs, 
        (0): Sequential(
          0.0 GMac, 0.008% MACs, 
          (0): Conv2d(0.0 GMac, 0.006% MACs, 256, 256, kernel_size=(3, 3), stride=(1, 1), padding=(1, 1), groups=256, bias=False)
          (1): BatchNorm2d(0.0 GMac, 0.001% MACs, 256, eps=1e-05, momentum=0.1, affine=True, track_running_stats=True)
          (2): ReLU(0.0 GMac, 0.001% MACs, )
        )
        (1): Sequential(
          0.008 GMac, 0.308% MACs, 
          (0): Conv2d(0.008 GMac, 0.308% MACs, 256, 486, kernel_size=(1, 1), stride=(1, 1))
        )
      )
      (4): ConvDWSep2d(
        0.002 GMac, 0.079% MACs, 
        (0): Sequential(
          0.0 GMac, 0.002% MACs, 
          (0): Conv2d(0.0 GMac, 0.001% MACs, 256, 256, kernel_size=(3, 3), stride=(1, 1), padding=(1, 1), groups=256, bias=False)
          (1): BatchNorm2d(0.0 GMac, 0.000% MACs, 256, eps=1e-05, momentum=0.1, affine=True, track_running_stats=True)
          (2): ReLU(0.0 GMac, 0.000% MACs, )
        )
        (1): Sequential(
          0.002 GMac, 0.077% MACs, 
          (0): Conv2d(0.002 GMac, 0.077% MACs, 256, 486, kernel_size=(1, 1), stride=(1, 1))
        )
      )
      (5): ConvDWSep2d(
        0.0 GMac, 0.013% MACs, 
        (0): Sequential(
          0.0 GMac, 0.000% MACs, 
          (0): Conv2d(0.0 GMac, 0.000% MACs, 256, 256, kernel_size=(3, 3), stride=(1, 1), padding=(1, 1), groups=256, bias=False)
          (1): BatchNorm2d(0.0 GMac, 0.000% MACs, 256, eps=1e-05, momentum=0.1, affine=True, track_running_stats=True)
          (2): ReLU(0.0 GMac, 0.000% MACs, )
        )
        (1): Sequential(
          0.0 GMac, 0.013% MACs, 
          (0): Conv2d(0.0 GMac, 0.013% MACs, 256, 324, kernel_size=(1, 1), stride=(1, 1))
        )
      )
    )
  )
)
2020-11-10 10:04:49,822 - mmdet - INFO - 

2020-11-10 10:04:49,827 - mmdet - INFO - Compute   : 2.59 GMac
2020-11-10 10:04:49,827 - mmdet - INFO - Parameters: 3.09 M
2020-11-10 10:05:07,145 - mmdet - INFO - Start running, host: a0393608@uda0393608, work_dir: /data/files/a0393608/files/work/ti/bitbucket/jacinto-ai/pytorch-jacinto-ai-detection/work_dirs/ssd-lite_mobilenet_fpn
…
