…
            dict(type='Pad', size_divisor=32),
            dict(type='ImageToTensor', keys=['img']),
            dict(type='Collect', keys=['img'])
        ])
]
work_dir = './work_dirs/ssd-lite_regnet_fpn_bgr'
gpu_ids = range(0, 1)

2020-09-14 11:52:50,864 - mmdet - INFO - load model from: open-mmlab://regnetx_1.6gf
2020-09-14 11:53:28,421 - mmdet - WARNING - The model and loaded state dict do not match exactly

unexpected key in source state_dict: fc.weight, fc.bias

2020-09-14 11:53:31,150 - mmdet - INFO - SingleStageDetector(
  24.19 GMac, 100.000% MACs, 
  (backbone): RegNet(
    19.105 GMac, 78.978% MACs, 
    (conv1): Conv2d(0.127 GMac, 0.527% MACs, 3, 32, kernel_size=(3, 3), stride=(2, 2), padding=(1, 1), bias=False)
    (bn1): BatchNorm2d(0.009 GMac, 0.039% MACs, 32, eps=1e-05, momentum=0.1, affine=True, track_running_stats=True)
    (relu): ReLU(0.005 GMac, 0.020% MACs, inplace=True)
    (layer1): ResLayer(
      2.222 GMac, 9.184% MACs, 
      (0): Bottleneck(
        1.242 GMac, 5.135% MACs, 
        (conv1): Conv2d(0.34 GMac, 1.404% MACs, 32, 72, kernel_size=(1, 1), stride=(1, 1), bias=False)
        (bn1): BatchNorm2d(0.021 GMac, 0.088% MACs, 72, eps=1e-05, momentum=0.1, affine=True, track_running_stats=True)
        (conv2): Conv2d(0.573 GMac, 2.370% MACs, 72, 72, kernel_size=(3, 3), stride=(2, 2), padding=(1, 1), groups=3, bias=False)
        (bn2): BatchNorm2d(0.005 GMac, 0.022% MACs, 72, eps=1e-05, momentum=0.1, affine=True, track_running_stats=True)
        (conv3): Conv2d(0.191 GMac, 0.790% MACs, 72, 72, kernel_size=(1, 1), stride=(1, 1), bias=False)
        (bn3): BatchNorm2d(0.005 GMac, 0.022% MACs, 72, eps=1e-05, momentum=0.1, affine=True, track_running_stats=True)
        (relu1): ReLU(0.011 GMac, 0.044% MACs, inplace=True)
        (relu2): ReLU(0.003 GMac, 0.011% MACs, inplace=True)
        (relu3): ReLU(0.003 GMac, 0.011% MACs, inplace=True)
        (downsample): Sequential(
          0.09 GMac, 0.373% MACs, 
          (0): Conv2d(0.085 GMac, 0.351% MACs, 32, 72, kernel_size=(1, 1), stride=(2, 2), bias=False)
          (1): BatchNorm2d(0.005 GMac, 0.022% MACs, 72, eps=1e-05, momentum=0.1, affine=True, track_running_stats=True)
        )
        (add): AddBlock(inplace=False, signed=True)
      )
      (1): Bottleneck(
        0.979 GMac, 4.049% MACs, 
        (conv1): Conv2d(0.191 GMac, 0.790% MACs, 72, 72, kernel_size=(1, 1), stride=(1, 1), bias=False)
        (bn1): BatchNorm2d(0.005 GMac, 0.022% MACs, 72, eps=1e-05, momentum=0.1, affine=True, track_running_stats=True)
        (conv2): Conv2d(0.573 GMac, 2.370% MACs, 72, 72, kernel_size=(3, 3), stride=(1, 1), padding=(1, 1), groups=3, bias=False)
        (bn2): BatchNorm2d(0.005 GMac, 0.022% MACs, 72, eps=1e-05, momentum=0.1, affine=True, track_running_stats=True)
        (conv3): Conv2d(0.191 GMac, 0.790% MACs, 72, 72, kernel_size=(1, 1), stride=(1, 1), bias=False)
        (bn3): BatchNorm2d(0.005 GMac, 0.022% MACs, 72, eps=1e-05, momentum=0.1, affine=True, track_running_stats=True)
        (relu1): ReLU(0.003 GMac, 0.011% MACs, inplace=True)
        (relu2): ReLU(0.003 GMac, 0.011% MACs, inplace=True)
        (relu3): ReLU(0.003 GMac, 0.011% MACs, inplace=True)
        (add): AddBlock(inplace=False, signed=True)
      )
    )
    (layer2): ResLayer(
      3.789 GMac, 15.662% MACs, 
      (0): Bottleneck(
        1.183 GMac, 4.890% MACs, 
        (conv1): Conv2d(0.446 GMac, 1.843% MACs, 72, 168, kernel_size=(1, 1), stride=(1, 1), bias=False)
        (bn1): BatchNorm2d(0.012 GMac, 0.051% MACs, 168, eps=1e-05, momentum=0.1, affine=True, track_running_stats=True)
        (conv2): Conv2d(0.334 GMac, 1.382% MACs, 168, 168, kernel_size=(3, 3), stride=(2, 2), padding=(1, 1), groups=7, bias=False)
        (bn2): BatchNorm2d(0.003 GMac, 0.013% MACs, 168, eps=1e-05, momentum=0.1, affine=True, track_running_stats=True)
        (conv3): Conv2d(0.26 GMac, 1.075% MACs, 168, 168, kernel_size=(1, 1), stride=(1, 1), bias=False)
        (bn3): BatchNorm2d(0.003 GMac, 0.013% MACs, 168, eps=1e-05, momentum=0.1, affine=True, track_running_stats=True)
        (relu1): ReLU(0.006 GMac, 0.026% MACs, inplace=True)
        (relu2): ReLU(0.002 GMac, 0.006% MACs, inplace=True)
        (relu3): ReLU(0.002 GMac, 0.006% MACs, inplace=True)
        (downsample): Sequential(
          0.115 GMac, 0.474% MACs, 
          (0): Conv2d(0.111 GMac, 0.461% MACs, 72, 168, kernel_size=(1, 1), stride=(2, 2), bias=False)
          (1): BatchNorm2d(0.003 GMac, 0.013% MACs, 168, eps=1e-05, momentum=0.1, affine=True, track_running_stats=True)
        )
        (add): AddBlock(inplace=False, signed=True)
      )
      (1): Bottleneck(
        0.869 GMac, 3.591% MACs, 
        (conv1): Conv2d(0.26 GMac, 1.075% MACs, 168, 168, kernel_size=(1, 1), stride=(1, 1), bias=False)
        (bn1): BatchNorm2d(0.003 GMac, 0.013% MACs, 168, eps=1e-05, momentum=0.1, affine=True, track_running_stats=True)
        (conv2): Conv2d(0.334 GMac, 1.382% MACs, 168, 168, kernel_size=(3, 3), stride=(1, 1), padding=(1, 1), groups=7, bias=False)
        (bn2): BatchNorm2d(0.003 GMac, 0.013% MACs, 168, eps=1e-05, momentum=0.1, affine=True, track_running_stats=True)
        (conv3): Conv2d(0.26 GMac, 1.075% MACs, 168, 168, kernel_size=(1, 1), stride=(1, 1), bias=False)
        (bn3): BatchNorm2d(0.003 GMac, 0.013% MACs, 168, eps=1e-05, momentum=0.1, affine=True, track_running_stats=True)
        (relu1): ReLU(0.002 GMac, 0.006% MACs, inplace=True)
        (relu2): ReLU(0.002 GMac, 0.006% MACs, inplace=True)
        (relu3): ReLU(0.002 GMac, 0.006% MACs, inplace=True)
        (add): AddBlock(inplace=False, signed=True)
      )
      (2): Bottleneck(
        0.869 GMac, 3.591% MACs, 
        (conv1): Conv2d(0.26 GMac, 1.075% MACs, 168, 168, kernel_size=(1, 1), stride=(1, 1), bias=False)
        (bn1): BatchNorm2d(0.003 GMac, 0.013% MACs, 168, eps=1e-05, momentum=0.1, affine=True, track_running_stats=True)
        (conv2): Conv2d(0.334 GMac, 1.382% MACs, 168, 168, kernel_size=(3, 3), stride=(1, 1), padding=(1, 1), groups=7, bias=False)
        (bn2): BatchNorm2d(0.003 GMac, 0.013% MACs, 168, eps=1e-05, momentum=0.1, affine=True, track_running_stats=True)
        (conv3): Conv2d(0.26 GMac, 1.075% MACs, 168, 168, kernel_size=(1, 1), stride=(1, 1), bias=False)
        (bn3): BatchNorm2d(0.003 GMac, 0.013% MACs, 168, eps=1e-05, momentum=0.1, affine=True, track_running_stats=True)
        (relu1): ReLU(0.002 GMac, 0.006% MACs, inplace=True)
        (relu2): ReLU(0.002 GMac, 0.006% MACs, inplace=True)
        (relu3): ReLU(0.002 GMac, 0.006% MACs, inplace=True)
        (add): AddBlock(inplace=False, signed=True)
      )
      (3): Bottleneck(
        0.869 GMac, 3.591% MACs, 
        (conv1): Conv2d(0.26 GMac, 1.075% MACs, 168, 168, kernel_size=(1, 1), stride=(1, 1), bias=False)
        (bn1): BatchNorm2d(0.003 GMac, 0.013% MACs, 168, eps=1e-05, momentum=0.1, affine=True, track_running_stats=True)
        (conv2): Conv2d(0.334 GMac, 1.382% MACs, 168, 168, kernel_size=(3, 3), stride=(1, 1), padding=(1, 1), groups=7, bias=False)
        (bn2): BatchNorm2d(0.003 GMac, 0.013% MACs, 168, eps=1e-05, momentum=0.1, affine=True, track_running_stats=True)
        (conv3): Conv2d(0.26 GMac, 1.075% MACs, 168, 168, kernel_size=(1, 1), stride=(1, 1), bias=False)
        (bn3): BatchNorm2d(0.003 GMac, 0.013% MACs, 168, eps=1e-05, momentum=0.1, affine=True, track_running_stats=True)
        (relu1): ReLU(0.002 GMac, 0.006% MACs, inplace=True)
        (relu2): ReLU(0.002 GMac, 0.006% MACs, inplace=True)
        (relu3): ReLU(0.002 GMac, 0.006% MACs, inplace=True)
        (add): AddBlock(inplace=False, signed=True)
      )
    )
    (layer3): ResLayer(
      10.202 GMac, 42.175% MACs, 
      (0): Bottleneck(
        1.395 GMac, 5.767% MACs, 
        (conv1): Conv2d(0.632 GMac, 2.611% MACs, 168, 408, kernel_size=(1, 1), stride=(1, 1), bias=False)
        (bn1): BatchNorm2d(0.008 GMac, 0.031% MACs, 408, eps=1e-05, momentum=0.1, affine=True, track_running_stats=True)
        (conv2): Conv2d(0.203 GMac, 0.839% MACs, 408, 408, kernel_size=(3, 3), stride=(2, 2), padding=(1, 1), groups=17, bias=False)
        (bn2): BatchNorm2d(0.002 GMac, 0.008% MACs, 408, eps=1e-05, momentum=0.1, affine=True, track_running_stats=True)
        (conv3): Conv2d(0.384 GMac, 1.585% MACs, 408, 408, kernel_size=(1, 1), stride=(1, 1), bias=False)
        (bn3): BatchNorm2d(0.002 GMac, 0.008% MACs, 408, eps=1e-05, momentum=0.1, affine=True, track_running_stats=True)
        (relu1): ReLU(0.004 GMac, 0.016% MACs, inplace=True)
        (relu2): ReLU(0.001 GMac, 0.004% MACs, inplace=True)
        (relu3): ReLU(0.001 GMac, 0.004% MACs, inplace=True)
        (downsample): Sequential(
          0.16 GMac, 0.661% MACs, 
          (0): Conv2d(0.158 GMac, 0.653% MACs, 168, 408, kernel_size=(1, 1), stride=(2, 2), bias=False)
          (1): BatchNorm2d(0.002 GMac, 0.008% MACs, 408, eps=1e-05, momentum=0.1, affine=True, track_running_stats=True)
        )
        (add): AddBlock(inplace=False, signed=True)
      )
      (1): Bottleneck(
        0.979 GMac, 4.045% MACs, 
        (conv1): Conv2d(0.384 GMac, 1.585% MACs, 408, 408, kernel_size=(1, 1), stride=(1, 1), bias=False)
        (bn1): BatchNorm2d(0.002 GMac, 0.008% MACs, 408, eps=1e-05, momentum=0.1, affine=True, track_running_stats=True)
        (conv2): Conv2d(0.203 GMac, 0.839% MACs, 408, 408, kernel_size=(3, 3), stride=(1, 1), padding=(1, 1), groups=17, bias=False)
        (bn2): BatchNorm2d(0.002 GMac, 0.008% MACs, 408, eps=1e-05, momentum=0.1, affine=True, track_running_stats=True)
        (conv3): Conv2d(0.384 GMac, 1.585% MACs, 408, 408, kernel_size=(1, 1), stride=(1, 1), bias=False)
        (bn3): BatchNorm2d(0.002 GMac, 0.008% MACs, 408, eps=1e-05, momentum=0.1, affine=True, track_running_stats=True)
        (relu1): ReLU(0.001 GMac, 0.004% MACs, inplace=True)
        (relu2): ReLU(0.001 GMac, 0.004% MACs, inplace=True)
        (relu3): ReLU(0.001 GMac, 0.004% MACs, inplace=True)
        (add): AddBlock(inplace=False, signed=True)
      )
      (2): Bottleneck(
        0.979 GMac, 4.045% MACs, 
        (conv1): Conv2d(0.384 GMac, 1.585% MACs, 408, 408, kernel_size=(1, 1), stride=(1, 1), bias=False)
        (bn1): BatchNorm2d(0.002 GMac, 0.008% MACs, 408, eps=1e-05, momentum=0.1, affine=True, track_running_stats=True)
        (conv2): Conv2d(0.203 GMac, 0.839% MACs, 408, 408, kernel_size=(3, 3), stride=(1, 1), padding=(1, 1), groups=17, bias=False)
        (bn2): BatchNorm2d(0.002 GMac, 0.008% MACs, 408, eps=1e-05, momentum=0.1, affine=True, track_running_stats=True)
        (conv3): Conv2d(0.384 GMac, 1.585% MACs, 408, 408, kernel_size=(1, 1), stride=(1, 1), bias=False)
        (bn3): BatchNorm2d(0.002 GMac, 0.008% MACs, 408, eps=1e-05, momentum=0.1, affine=True, track_running_stats=True)
        (relu1): ReLU(0.001 GMac, 0.004% MACs, inplace=True)
        (relu2): ReLU(0.001 GMac, 0.004% MACs, inplace=True)
        (relu3): ReLU(0.001 GMac, 0.004% MACs, inplace=True)
        (add): AddBlock(inplace=False, signed=True)
      )
      (3): Bottleneck(
        0.979 GMac, 4.045% MACs, 
        (conv1): Conv2d(0.384 GMac, 1.585% MACs, 408, 408, kernel_size=(1, 1), stride=(1, 1), bias=False)
        (bn1): BatchNorm2d(0.002 GMac, 0.008% MACs, 408, eps=1e-05, momentum=0.1, affine=True, track_running_stats=True)
        (conv2): Conv2d(0.203 GMac, 0.839% MACs, 408, 408, kernel_size=(3, 3), stride=(1, 1), padding=(1, 1), groups=17, bias=False)
        (bn2): BatchNorm2d(0.002 GMac, 0.008% MACs, 408, eps=1e-05, momentum=0.1, affine=True, track_running_stats=True)
        (conv3): Conv2d(0.384 GMac, 1.585% MACs, 408, 408, kernel_size=(1, 1), stride=(1, 1), bias=False)
        (bn3): BatchNorm2d(0.002 GMac, 0.008% MACs, 408, eps=1e-05, momentum=0.1, affine=True, track_running_stats=True)
        (relu1): ReLU(0.001 GMac, 0.004% MACs, inplace=True)
        (relu2): ReLU(0.001 GMac, 0.004% MACs, inplace=True)
        (relu3): ReLU(0.001 GMac, 0.004% MACs, inplace=True)
        (add): AddBlock(inplace=False, signed=True)
      )
      (4): Bottleneck(
        0.979 GMac, 4.045% MACs, 
        (conv1): Conv2d(0.384 GMac, 1.585% MACs, 408, 408, kernel_size=(1, 1), stride=(1, 1), bias=False)
        (bn1): BatchNorm2d(0.002 GMac, 0.008% MACs, 408, eps=1e-05, momentum=0.1, affine=True, track_running_stats=True)
        (conv2): Conv2d(0.203 GMac, 0.839% MACs, 408, 408, kernel_size=(3, 3), stride=(1, 1), padding=(1, 1), groups=17, bias=False)
        (bn2): BatchNorm2d(0.002 GMac, 0.008% MACs, 408, eps=1e-05, momentum=0.1, affine=True, track_running_stats=True)
        (conv3): Conv2d(0.384 GMac, 1.585% MACs, 408, 408, kernel_size=(1, 1), stride=(1, 1), bias=False)
        (bn3): BatchNorm2d(0.002 GMac, 0.008% MACs, 408, eps=1e-05, momentum=0.1, affine=True, track_running_stats=True)
        (relu1): ReLU(0.001 GMac, 0.004% MACs, inplace=True)
        (relu2): ReLU(0.001 GMac, 0.004% MACs, inplace=True)
        (relu3): ReLU(0.001 GMac, 0.004% MACs, inplace=True)
        (add): AddBlock(inplace=False, signed=True)
      )
      (5): Bottleneck(
        0.979 GMac, 4.045% MACs, 
        (conv1): Conv2d(0.384 GMac, 1.585% MACs, 408, 408, kernel_size=(1, 1), stride=(1, 1), bias=False)
        (bn1): BatchNorm2d(0.002 GMac, 0.008% MACs, 408, eps=1e-05, momentum=0.1, affine=True, track_running_stats=True)
        (conv2): Conv2d(0.203 GMac, 0.839% MACs, 408, 408, kernel_size=(3, 3), stride=(1, 1), padding=(1, 1), groups=17, bias=False)
        (bn2): BatchNorm2d(0.002 GMac, 0.008% MACs, 408, eps=1e-05, momentum=0.1, affine=True, track_running_stats=True)
        (conv3): Conv2d(0.384 GMac, 1.585% MACs, 408, 408, kernel_size=(1, 1), stride=(1, 1), bias=False)
        (bn3): BatchNorm2d(0.002 GMac, 0.008% MACs, 408, eps=1e-05, momentum=0.1, affine=True, track_running_stats=True)
        (relu1): ReLU(0.001 GMac, 0.004% MACs, inplace=True)
        (relu2): ReLU(0.001 GMac, 0.004% MACs, inplace=True)
        (relu3): ReLU(0.001 GMac, 0.004% MACs, inplace=True)
        (add): AddBlock(inplace=False, signed=True)
      )
      (6): Bottleneck(
        0.979 GMac, 4.045% MACs, 
        (conv1): Conv2d(0.384 GMac, 1.585% MACs, 408, 408, kernel_size=(1, 1), stride=(1, 1), bias=False)
        (bn1): BatchNorm2d(0.002 GMac, 0.008% MACs, 408, eps=1e-05, momentum=0.1, affine=True, track_running_stats=True)
        (conv2): Conv2d(0.203 GMac, 0.839% MACs, 408, 408, kernel_size=(3, 3), stride=(1, 1), padding=(1, 1), groups=17, bias=False)
        (bn2): BatchNorm2d(0.002 GMac, 0.008% MACs, 408, eps=1e-05, momentum=0.1, affine=True, track_running_stats=True)
        (conv3): Conv2d(0.384 GMac, 1.585% MACs, 408, 408, kernel_size=(1, 1), stride=(1, 1), bias=False)
        (bn3): BatchNorm2d(0.002 GMac, 0.008% MACs, 408, eps=1e-05, momentum=0.1, affine=True, track_running_stats=True)
        (relu1): ReLU(0.001 GMac, 0.004% MACs, inplace=True)
        (relu2): ReLU(0.001 GMac, 0.004% MACs, inplace=True)
        (relu3): ReLU(0.001 GMac, 0.004% MACs, inplace=True)
        (add): AddBlock(inplace=False, signed=True)
      )
      (7): Bottleneck(
        0.979 GMac, 4.045% MACs, 
        (conv1): Conv2d(0.384 GMac, 1.585% MACs, 408, 408, kernel_size=(1, 1), stride=(1, 1), bias=False)
        (bn1): BatchNorm2d(0.002 GMac, 0.008% MACs, 408, eps=1e-05, momentum=0.1, affine=True, track_running_stats=True)
        (conv2): Conv2d(0.203 GMac, 0.839% MACs, 408, 408, kernel_size=(3, 3), stride=(1, 1), padding=(1, 1), groups=17, bias=False)
        (bn2): BatchNorm2d(0.002 GMac, 0.008% MACs, 408, eps=1e-05, momentum=0.1, affine=True, track_running_stats=True)
        (conv3): Conv2d(0.384 GMac, 1.585% MACs, 408, 408, kernel_size=(1, 1), stride=(1, 1), bias=False)
        (bn3): BatchNorm2d(0.002 GMac, 0.008% MACs, 408, eps=1e-05, momentum=0.1, affine=True, track_running_stats=True)
        (relu1): ReLU(0.001 GMac, 0.004% MACs, inplace=True)
        (relu2): ReLU(0.001 GMac, 0.004% MACs, inplace=True)
        (relu3): ReLU(0.001 GMac, 0.004% MACs, inplace=True)
        (add): AddBlock(inplace=False, signed=True)
      )
      (8): Bottleneck(
        0.979 GMac, 4.045% MACs, 
        (conv1): Conv2d(0.384 GMac, 1.585% MACs, 408, 408, kernel_size=(1, 1), stride=(1, 1), bias=False)
        (bn1): BatchNorm2d(0.002 GMac, 0.008% MACs, 408, eps=1e-05, momentum=0.1, affine=True, track_running_stats=True)
        (conv2): Conv2d(0.203 GMac, 0.839% MACs, 408, 408, kernel_size=(3, 3), stride=(1, 1), padding=(1, 1), groups=17, bias=False)
        (bn2): BatchNorm2d(0.002 GMac, 0.008% MACs, 408, eps=1e-05, momentum=0.1, affine=True, track_running_stats=True)
        (conv3): Conv2d(0.384 GMac, 1.585% MACs, 408, 408, kernel_size=(1, 1), stride=(1, 1), bias=False)
        (bn3): BatchNorm2d(0.002 GMac, 0.008% MACs, 408, eps=1e-05, momentum=0.1, affine=True, track_running_stats=True)
        (relu1): ReLU(0.001 GMac, 0.004% MACs, inplace=True)
        (relu2): ReLU(0.001 GMac, 0.004% MACs, inplace=True)
        (relu3): ReLU(0.001 GMac, 0.004% MACs, inplace=True)
        (add): AddBlock(inplace=False, signed=True)
      )
      (9): Bottleneck(
        0.979 GMac, 4.045% MACs, 
        (conv1): Conv2d(0.384 GMac, 1.585% MACs, 408, 408, kernel_size=(1, 1), stride=(1, 1), bias=False)
        (bn1): BatchNorm2d(0.002 GMac, 0.008% MACs, 408, eps=1e-05, momentum=0.1, affine=True, track_running_stats=True)
        (conv2): Conv2d(0.203 GMac, 0.839% MACs, 408, 408, kernel_size=(3, 3), stride=(1, 1), padding=(1, 1), groups=17, bias=False)
        (bn2): BatchNorm2d(0.002 GMac, 0.008% MACs, 408, eps=1e-05, momentum=0.1, affine=True, track_running_stats=True)
        (conv3): Conv2d(0.384 GMac, 1.585% MACs, 408, 408, kernel_size=(1, 1), stride=(1, 1), bias=False)
        (bn3): BatchNorm2d(0.002 GMac, 0.008% MACs, 408, eps=1e-05, momentum=0.1, affine=True, track_running_stats=True)
        (relu1): ReLU(0.001 GMac, 0.004% MACs, inplace=True)
        (relu2): ReLU(0.001 GMac, 0.004% MACs, inplace=True)
        (relu3): ReLU(0.001 GMac, 0.004% MACs, inplace=True)
        (add): AddBlock(inplace=False, signed=True)
      )
    )
    (layer4): ResLayer(
      2.751 GMac, 11.373% MACs, 
      (0): Bottleneck(
        1.675 GMac, 6.923% MACs, 
        (conv1): Conv2d(0.857 GMac, 3.544% MACs, 408, 912, kernel_size=(1, 1), stride=(1, 1), bias=False)
        (bn1): BatchNorm2d(0.004 GMac, 0.017% MACs, 912, eps=1e-05, momentum=0.1, affine=True, track_running_stats=True)
        (conv2): Conv2d(0.113 GMac, 0.469% MACs, 912, 912, kernel_size=(3, 3), stride=(2, 2), padding=(1, 1), groups=38, bias=False)
        (bn2): BatchNorm2d(0.001 GMac, 0.004% MACs, 912, eps=1e-05, momentum=0.1, affine=True, track_running_stats=True)
        (conv3): Conv2d(0.479 GMac, 1.980% MACs, 912, 912, kernel_size=(1, 1), stride=(1, 1), bias=False)
        (bn3): BatchNorm2d(0.001 GMac, 0.004% MACs, 912, eps=1e-05, momentum=0.1, affine=True, track_running_stats=True)
        (relu1): ReLU(0.002 GMac, 0.009% MACs, inplace=True)
        (relu2): ReLU(0.001 GMac, 0.002% MACs, inplace=True)
        (relu3): ReLU(0.001 GMac, 0.002% MACs, inplace=True)
        (downsample): Sequential(
          0.215 GMac, 0.890% MACs, 
          (0): Conv2d(0.214 GMac, 0.886% MACs, 408, 912, kernel_size=(1, 1), stride=(2, 2), bias=False)
          (1): BatchNorm2d(0.001 GMac, 0.004% MACs, 912, eps=1e-05, momentum=0.1, affine=True, track_running_stats=True)
        )
        (add): AddBlock(inplace=False, signed=True)
      )
      (1): Bottleneck(
        1.076 GMac, 4.450% MACs, 
        (conv1): Conv2d(0.479 GMac, 1.980% MACs, 912, 912, kernel_size=(1, 1), stride=(1, 1), bias=False)
        (bn1): BatchNorm2d(0.001 GMac, 0.004% MACs, 912, eps=1e-05, momentum=0.1, affine=True, track_running_stats=True)
        (conv2): Conv2d(0.113 GMac, 0.469% MACs, 912, 912, kernel_size=(3, 3), stride=(1, 1), padding=(1, 1), groups=38, bias=False)
        (bn2): BatchNorm2d(0.001 GMac, 0.004% MACs, 912, eps=1e-05, momentum=0.1, affine=True, track_running_stats=True)
        (conv3): Conv2d(0.479 GMac, 1.980% MACs, 912, 912, kernel_size=(1, 1), stride=(1, 1), bias=False)
        (bn3): BatchNorm2d(0.001 GMac, 0.004% MACs, 912, eps=1e-05, momentum=0.1, affine=True, track_running_stats=True)
        (relu1): ReLU(0.001 GMac, 0.002% MACs, inplace=True)
        (relu2): ReLU(0.001 GMac, 0.002% MACs, inplace=True)
        (relu3): ReLU(0.001 GMac, 0.002% MACs, inplace=True)
        (add): AddBlock(inplace=False, signed=True)
      )
    )
  )
  (neck): FPNLite(
    2.42 GMac, 10.004% MACs, 
    (lateral_convs): ModuleList(
      0.802 GMac, 3.315% MACs, 
      (0): ConvNormAct2d(
        0.414 GMac, 1.710% MACs, 
        (0): Conv2d(0.409 GMac, 1.690% MACs, 168, 264, kernel_size=(1, 1), stride=(1, 1), bias=False)
        (1): BatchNorm2d(0.005 GMac, 0.020% MACs, 264, eps=1e-05, momentum=0.1, affine=True, track_running_stats=True)
      )
      (1): ConvNormAct2d(
        0.249 GMac, 1.031% MACs, 
        (0): Conv2d(0.248 GMac, 1.026% MACs, 408, 264, kernel_size=(1, 1), stride=(1, 1), bias=False)
        (1): BatchNorm2d(0.001 GMac, 0.005% MACs, 264, eps=1e-05, momentum=0.1, affine=True, track_running_stats=True)
      )
      (2): ConvNormAct2d(
        0.139 GMac, 0.575% MACs, 
        (0): Conv2d(0.139 GMac, 0.573% MACs, 912, 264, kernel_size=(1, 1), stride=(1, 1), bias=False)
        (1): BatchNorm2d(0.0 GMac, 0.001% MACs, 264, eps=1e-05, momentum=0.1, affine=True, track_running_stats=True)
      )
    )
    (fpn_convs): ModuleList(
      1.618 GMac, 6.689% MACs, 
      (0): ConvDWSep2d(
        1.18 GMac, 4.878% MACs, 
        (0): Sequential(
          0.533 GMac, 2.203% MACs, 
          (0): Conv2d(0.526 GMac, 2.172% MACs, 264, 264, kernel_size=(3, 3), stride=(1, 1), padding=(1, 1), groups=11, bias=False)
          (1): BatchNorm2d(0.005 GMac, 0.020% MACs, 264, eps=1e-05, momentum=0.1, affine=True, track_running_stats=True)
          (2): ReLU(0.002 GMac, 0.010% MACs, )
        )
        (1): Sequential(
          0.647 GMac, 2.675% MACs, 
          (0): Conv2d(0.642 GMac, 2.655% MACs, 264, 264, kernel_size=(1, 1), stride=(1, 1), bias=False)
          (1): BatchNorm2d(0.005 GMac, 0.020% MACs, 264, eps=1e-05, momentum=0.1, affine=True, track_running_stats=True)
        )
      )
      (1): ConvDWSep2d(
        0.295 GMac, 1.220% MACs, 
        (0): Sequential(
          0.133 GMac, 0.551% MACs, 
          (0): Conv2d(0.131 GMac, 0.543% MACs, 264, 264, kernel_size=(3, 3), stride=(1, 1), padding=(1, 1), groups=11, bias=False)
          (1): BatchNorm2d(0.001 GMac, 0.005% MACs, 264, eps=1e-05, momentum=0.1, affine=True, track_running_stats=True)
          (2): ReLU(0.001 GMac, 0.003% MACs, )
        )
        (1): Sequential(
          0.162 GMac, 0.669% MACs, 
          (0): Conv2d(0.161 GMac, 0.664% MACs, 264, 264, kernel_size=(1, 1), stride=(1, 1), bias=False)
          (1): BatchNorm2d(0.001 GMac, 0.005% MACs, 264, eps=1e-05, momentum=0.1, affine=True, track_running_stats=True)
        )
      )
      (2): ConvDWSep2d(
        0.074 GMac, 0.305% MACs, 
        (0): Sequential(
          0.033 GMac, 0.138% MACs, 
          (0): Conv2d(0.033 GMac, 0.136% MACs, 264, 264, kernel_size=(3, 3), stride=(1, 1), padding=(1, 1), groups=11, bias=False)
          (1): BatchNorm2d(0.0 GMac, 0.001% MACs, 264, eps=1e-05, momentum=0.1, affine=True, track_running_stats=True)
          (2): ReLU(0.0 GMac, 0.001% MACs, )
        )
        (1): Sequential(
          0.04 GMac, 0.167% MACs, 
          (0): Conv2d(0.04 GMac, 0.166% MACs, 264, 264, kernel_size=(1, 1), stride=(1, 1), bias=False)
          (1): BatchNorm2d(0.0 GMac, 0.001% MACs, 264, eps=1e-05, momentum=0.1, affine=True, track_running_stats=True)
        )
      )
      (3): ConvDWSep2d(
        0.064 GMac, 0.263% MACs, 
        (0): Sequential(
          0.029 GMac, 0.119% MACs, 
          (0): Conv2d(0.028 GMac, 0.117% MACs, 912, 912, kernel_size=(3, 3), stride=(2, 2), padding=(1, 1), groups=38, bias=False)
          (1): BatchNorm2d(0.0 GMac, 0.001% MACs, 912, eps=1e-05, momentum=0.1, affine=True, track_running_stats=True)
          (2): ReLU(0.0 GMac, 0.001% MACs, )
        )
        (1): Sequential(
          0.035 GMac, 0.144% MACs, 
          (0): Conv2d(0.035 GMac, 0.143% MACs, 912, 264, kernel_size=(1, 1), stride=(1, 1), bias=False)
          (1): BatchNorm2d(0.0 GMac, 0.000% MACs, 264, eps=1e-05, momentum=0.1, affine=True, track_running_stats=True)
        )
      )
      (4): ConvDWSep2d(
        0.005 GMac, 0.019% MACs, 
        (0): Sequential(
          0.002 GMac, 0.009% MACs, 
          (0): Conv2d(0.002 GMac, 0.008% MACs, 264, 264, kernel_size=(3, 3), stride=(2, 2), padding=(1, 1), groups=11, bias=False)
          (1): BatchNorm2d(0.0 GMac, 0.000% MACs, 264, eps=1e-05, momentum=0.1, affine=True, track_running_stats=True)
          (2): ReLU(0.0 GMac, 0.000% MACs, )
        )
        (1): Sequential(
          0.003 GMac, 0.010% MACs, 
          (0): Conv2d(0.003 GMac, 0.010% MACs, 264, 264, kernel_size=(1, 1), stride=(1, 1), bias=False)
          (1): BatchNorm2d(0.0 GMac, 0.000% MACs, 264, eps=1e-05, momentum=0.1, affine=True, track_running_stats=True)
        )
      )
      (5): ConvDWSep2d(
        0.001 GMac, 0.005% MACs, 
        (0): Sequential(
          0.001 GMac, 0.002% MACs, 
          (0): Conv2d(0.001 GMac, 0.002% MACs, 264, 264, kernel_size=(3, 3), stride=(2, 2), padding=(1, 1), groups=11, bias=False)
          (1): BatchNorm2d(0.0 GMac, 0.000% MACs, 264, eps=1e-05, momentum=0.1, affine=True, track_running_stats=True)
          (2): ReLU(0.0 GMac, 0.000% MACs, )
        )
        (1): Sequential(
          0.001 GMac, 0.003% MACs, 
          (0): Conv2d(0.001 GMac, 0.003% MACs, 264, 264, kernel_size=(1, 1), stride=(1, 1), bias=False)
          (1): BatchNorm2d(0.0 GMac, 0.000% MACs, 264, eps=1e-05, momentum=0.1, affine=True, track_running_stats=True)
        )
      )
    )
    (adds): ModuleList(
      0.0 GMac, 0.000% MACs, 
      (0): AddBlock(inplace=False, signed=True)
      (1): AddBlock(inplace=False, signed=True)
      (2): AddBlock(inplace=False, signed=True)
    )
  )
  (bbox_head): SSDLiteHead(
    2.665 GMac, 11.018% MACs, 
    (reg_convs): ModuleList(
      0.769 GMac, 3.178% MACs, 
      (0): ConvDWSep2d(
        0.572 GMac, 2.364% MACs, 
        (0): Sequential(
          0.533 GMac, 2.203% MACs, 
          (0): Conv2d(0.526 GMac, 2.172% MACs, 264, 264, kernel_size=(3, 3), stride=(1, 1), padding=(1, 1), groups=11, bias=False)
          (1): BatchNorm2d(0.005 GMac, 0.020% MACs, 264, eps=1e-05, momentum=0.1, affine=True, track_running_stats=True)
          (2): ReLU(0.002 GMac, 0.010% MACs, )
        )
        (1): Sequential(
          0.039 GMac, 0.162% MACs, 
          (0): Conv2d(0.039 GMac, 0.162% MACs, 264, 16, kernel_size=(1, 1), stride=(1, 1))
        )
      )
      (1): ConvDWSep2d(
        0.148 GMac, 0.611% MACs, 
        (0): Sequential(
          0.133 GMac, 0.551% MACs, 
          (0): Conv2d(0.131 GMac, 0.543% MACs, 264, 264, kernel_size=(3, 3), stride=(1, 1), padding=(1, 1), groups=11, bias=False)
          (1): BatchNorm2d(0.001 GMac, 0.005% MACs, 264, eps=1e-05, momentum=0.1, affine=True, track_running_stats=True)
          (2): ReLU(0.001 GMac, 0.003% MACs, )
        )
        (1): Sequential(
          0.015 GMac, 0.061% MACs, 
          (0): Conv2d(0.015 GMac, 0.061% MACs, 264, 24, kernel_size=(1, 1), stride=(1, 1))
        )
      )
      (2): ConvDWSep2d(
        0.037 GMac, 0.153% MACs, 
        (0): Sequential(
          0.033 GMac, 0.138% MACs, 
          (0): Conv2d(0.033 GMac, 0.136% MACs, 264, 264, kernel_size=(3, 3), stride=(1, 1), padding=(1, 1), groups=11, bias=False)
          (1): BatchNorm2d(0.0 GMac, 0.001% MACs, 264, eps=1e-05, momentum=0.1, affine=True, track_running_stats=True)
          (2): ReLU(0.0 GMac, 0.001% MACs, )
        )
        (1): Sequential(
          0.004 GMac, 0.015% MACs, 
          (0): Conv2d(0.004 GMac, 0.015% MACs, 264, 24, kernel_size=(1, 1), stride=(1, 1))
        )
      )
      (3): ConvDWSep2d(
        0.009 GMac, 0.038% MACs, 
        (0): Sequential(
          0.008 GMac, 0.034% MACs, 
          (0): Conv2d(0.008 GMac, 0.034% MACs, 264, 264, kernel_size=(3, 3), stride=(1, 1), padding=(1, 1), groups=11, bias=False)
          (1): BatchNorm2d(0.0 GMac, 0.000% MACs, 264, eps=1e-05, momentum=0.1, affine=True, track_running_stats=True)
          (2): ReLU(0.0 GMac, 0.000% MACs, )
        )
        (1): Sequential(
          0.001 GMac, 0.004% MACs, 
          (0): Conv2d(0.001 GMac, 0.004% MACs, 264, 24, kernel_size=(1, 1), stride=(1, 1))
        )
      )
      (4): ConvDWSep2d(
        0.002 GMac, 0.010% MACs, 
        (0): Sequential(
          0.002 GMac, 0.009% MACs, 
          (0): Conv2d(0.002 GMac, 0.008% MACs, 264, 264, kernel_size=(3, 3), stride=(1, 1), padding=(1, 1), groups=11, bias=False)
          (1): BatchNorm2d(0.0 GMac, 0.000% MACs, 264, eps=1e-05, momentum=0.1, affine=True, track_running_stats=True)
          (2): ReLU(0.0 GMac, 0.000% MACs, )
        )
        (1): Sequential(
          0.0 GMac, 0.001% MACs, 
          (0): Conv2d(0.0 GMac, 0.001% MACs, 264, 24, kernel_size=(1, 1), stride=(1, 1))
        )
      )
      (5): ConvDWSep2d(
        0.001 GMac, 0.002% MACs, 
        (0): Sequential(
          0.001 GMac, 0.002% MACs, 
          (0): Conv2d(0.001 GMac, 0.002% MACs, 264, 264, kernel_size=(3, 3), stride=(1, 1), padding=(1, 1), groups=11, bias=False)
          (1): BatchNorm2d(0.0 GMac, 0.000% MACs, 264, eps=1e-05, momentum=0.1, affine=True, track_running_stats=True)
          (2): ReLU(0.0 GMac, 0.000% MACs, )
        )
        (1): Sequential(
          0.0 GMac, 0.000% MACs, 
          (0): Conv2d(0.0 GMac, 0.000% MACs, 264, 16, kernel_size=(1, 1), stride=(1, 1))
        )
      )
    )
    (cls_convs): ModuleList(
      1.896 GMac, 7.840% MACs, 
      (0): ConvDWSep2d(
        1.324 GMac, 5.474% MACs, 
        (0): Sequential(
          0.533 GMac, 2.203% MACs, 
          (0): Conv2d(0.526 GMac, 2.172% MACs, 264, 264, kernel_size=(3, 3), stride=(1, 1), padding=(1, 1), groups=11, bias=False)
          (1): BatchNorm2d(0.005 GMac, 0.020% MACs, 264, eps=1e-05, momentum=0.1, affine=True, track_running_stats=True)
          (2): ReLU(0.002 GMac, 0.010% MACs, )
        )
        (1): Sequential(
          0.791 GMac, 3.271% MACs, 
          (0): Conv2d(0.791 GMac, 3.271% MACs, 264, 324, kernel_size=(1, 1), stride=(1, 1))
        )
      )
      (1): ConvDWSep2d(
        0.43 GMac, 1.777% MACs, 
        (0): Sequential(
          0.133 GMac, 0.551% MACs, 
          (0): Conv2d(0.131 GMac, 0.543% MACs, 264, 264, kernel_size=(3, 3), stride=(1, 1), padding=(1, 1), groups=11, bias=False)
          (1): BatchNorm2d(0.001 GMac, 0.005% MACs, 264, eps=1e-05, momentum=0.1, affine=True, track_running_stats=True)
          (2): ReLU(0.001 GMac, 0.003% MACs, )
        )
        (1): Sequential(
          0.297 GMac, 1.227% MACs, 
          (0): Conv2d(0.297 GMac, 1.227% MACs, 264, 486, kernel_size=(1, 1), stride=(1, 1))
        )
      )
      (2): ConvDWSep2d(
        0.107 GMac, 0.444% MACs, 
        (0): Sequential(
          0.033 GMac, 0.138% MACs, 
          (0): Conv2d(0.033 GMac, 0.136% MACs, 264, 264, kernel_size=(3, 3), stride=(1, 1), padding=(1, 1), groups=11, bias=False)
          (1): BatchNorm2d(0.0 GMac, 0.001% MACs, 264, eps=1e-05, momentum=0.1, affine=True, track_running_stats=True)
          (2): ReLU(0.0 GMac, 0.001% MACs, )
        )
        (1): Sequential(
          0.074 GMac, 0.307% MACs, 
          (0): Conv2d(0.074 GMac, 0.307% MACs, 264, 486, kernel_size=(1, 1), stride=(1, 1))
        )
      )
      (3): ConvDWSep2d(
        0.027 GMac, 0.111% MACs, 
        (0): Sequential(
          0.008 GMac, 0.034% MACs, 
          (0): Conv2d(0.008 GMac, 0.034% MACs, 264, 264, kernel_size=(3, 3), stride=(1, 1), padding=(1, 1), groups=11, bias=False)
          (1): BatchNorm2d(0.0 GMac, 0.000% MACs, 264, eps=1e-05, momentum=0.1, affine=True, track_running_stats=True)
          (2): ReLU(0.0 GMac, 0.000% MACs, )
        )
        (1): Sequential(
          0.019 GMac, 0.077% MACs, 
          (0): Conv2d(0.019 GMac, 0.077% MACs, 264, 486, kernel_size=(1, 1), stride=(1, 1))
        )
      )
      (4): ConvDWSep2d(
        0.007 GMac, 0.028% MACs, 
        (0): Sequential(
          0.002 GMac, 0.009% MACs, 
          (0): Conv2d(0.002 GMac, 0.008% MACs, 264, 264, kernel_size=(3, 3), stride=(1, 1), padding=(1, 1), groups=11, bias=False)
          (1): BatchNorm2d(0.0 GMac, 0.000% MACs, 264, eps=1e-05, momentum=0.1, affine=True, track_running_stats=True)
          (2): ReLU(0.0 GMac, 0.000% MACs, )
        )
        (1): Sequential(
          0.005 GMac, 0.019% MACs, 
          (0): Conv2d(0.005 GMac, 0.019% MACs, 264, 486, kernel_size=(1, 1), stride=(1, 1))
        )
      )
      (5): ConvDWSep2d(
        0.001 GMac, 0.005% MACs, 
        (0): Sequential(
          0.001 GMac, 0.002% MACs, 
          (0): Conv2d(0.001 GMac, 0.002% MACs, 264, 264, kernel_size=(3, 3), stride=(1, 1), padding=(1, 1), groups=11, bias=False)
          (1): BatchNorm2d(0.0 GMac, 0.000% MACs, 264, eps=1e-05, momentum=0.1, affine=True, track_running_stats=True)
          (2): ReLU(0.0 GMac, 0.000% MACs, )
        )
        (1): Sequential(
          0.001 GMac, 0.003% MACs, 
          (0): Conv2d(0.001 GMac, 0.003% MACs, 264, 324, kernel_size=(1, 1), stride=(1, 1))
        )
      )
    )
  )
)
2020-09-14 11:53:31,153 - mmdet - INFO - 

2020-09-14 11:53:31,159 - mmdet - INFO - Compute   : 24.19 GMac
2020-09-14 11:53:31,159 - mmdet - INFO - Parameters: 11.16 M
2020-09-14 11:53:54,262 - mmdet - INFO - Start running, host: a0393608@udtensorlab1, work_dir: /home/a0393608/files/work/ti/bitbucket/jacinto-ai/pytorch-jacinto-ai-detection/work_dirs/ssd-lite_regnet_fpn_bgr
…
