…
.2.1.0.weight, extra.2.1.1.weight, extra.2.1.1.bias, extra.2.1.1.running_mean, extra.2.1.1.running_var, extra.3.0.0.weight, extra.3.0.1.weight, extra.3.0.1.bias, extra.3.0.1.running_mean, extra.3.0.1.running_var, extra.3.1.0.weight, extra.3.1.1.weight, extra.3.1.1.bias, extra.3.1.1.running_mean, extra.3.1.1.running_var

2020-12-11 16:51:38,895 - mmdet - INFO - SingleStageDetector(
  1.674 GMac, 100.000% MACs, 
  (backbone): MobileNetV2(
    1.574 GMac, 94.005% MACs, 
    (features): Sequential(
      1.561 GMac, 93.206% MACs, 
      (0): Sequential(
        0.063 GMac, 3.758% MACs, 
        (0): Conv2d(0.057 GMac, 3.382% MACs, 3, 32, kernel_size=(3, 3), stride=(2, 2), padding=(1, 1), bias=False)
        (1): BatchNorm2d(0.004 GMac, 0.251% MACs, 32, eps=1e-05, momentum=0.1, affine=True, track_running_stats=True)
        (2): ReLU(0.002 GMac, 0.125% MACs, )
      )
      (1): InvertedResidual(
        0.061 GMac, 3.632% MACs, 
        (conv): Sequential(
          0.061 GMac, 3.632% MACs, 
          (0): Sequential(
            0.025 GMac, 1.503% MACs, 
            (0): Conv2d(0.019 GMac, 1.127% MACs, 32, 32, kernel_size=(3, 3), stride=(1, 1), padding=(1, 1), groups=32, bias=False)
            (1): BatchNorm2d(0.004 GMac, 0.251% MACs, 32, eps=1e-05, momentum=0.1, affine=True, track_running_stats=True)
            (2): ReLU(0.002 GMac, 0.125% MACs, )
          )
          (1): Conv2d(0.034 GMac, 2.004% MACs, 32, 16, kernel_size=(1, 1), stride=(1, 1), bias=False)
          (2): BatchNorm2d(0.002 GMac, 0.125% MACs, 16, eps=1e-05, momentum=0.1, affine=True, track_running_stats=True)
        )
      )
      (2): InvertedResidual(
        0.177 GMac, 10.568% MACs, 
        (conv): Sequential(
          0.177 GMac, 10.568% MACs, 
          (0): Sequential(
            0.12 GMac, 7.140% MACs, 
            (0): Conv2d(0.101 GMac, 6.012% MACs, 16, 96, kernel_size=(1, 1), stride=(1, 1), bias=False)
            (1): BatchNorm2d(0.013 GMac, 0.752% MACs, 96, eps=1e-05, momentum=0.1, affine=True, track_running_stats=True)
            (2): ReLU(0.006 GMac, 0.376% MACs, )
          )
          (1): Sequential(
            0.019 GMac, 1.127% MACs, 
            (0): Conv2d(0.014 GMac, 0.845% MACs, 96, 96, kernel_size=(3, 3), stride=(2, 2), padding=(1, 1), groups=96, bias=False)
            (1): BatchNorm2d(0.003 GMac, 0.188% MACs, 96, eps=1e-05, momentum=0.1, affine=True, track_running_stats=True)
            (2): ReLU(0.002 GMac, 0.094% MACs, )
          )
          (2): Conv2d(0.038 GMac, 2.255% MACs, 96, 24, kernel_size=(1, 1), stride=(1, 1), bias=False)
          (3): BatchNorm2d(0.001 GMac, 0.047% MACs, 24, eps=1e-05, momentum=0.1, affine=True, track_running_stats=True)
        )
      )
      (3): InvertedResidual(
        0.149 GMac, 8.924% MACs, 
        (conv): Sequential(
          0.149 GMac, 8.924% MACs, 
          (0): Sequential(
            0.064 GMac, 3.805% MACs, 
            (0): Conv2d(0.057 GMac, 3.382% MACs, 24, 144, kernel_size=(1, 1), stride=(1, 1), bias=False)
            (1): BatchNorm2d(0.005 GMac, 0.282% MACs, 144, eps=1e-05, momentum=0.1, affine=True, track_running_stats=True)
            (2): ReLU(0.002 GMac, 0.141% MACs, )
          )
          (1): Sequential(
            0.028 GMac, 1.691% MACs, 
            (0): Conv2d(0.021 GMac, 1.268% MACs, 144, 144, kernel_size=(3, 3), stride=(1, 1), padding=(1, 1), groups=144, bias=False)
            (1): BatchNorm2d(0.005 GMac, 0.282% MACs, 144, eps=1e-05, momentum=0.1, affine=True, track_running_stats=True)
            (2): ReLU(0.002 GMac, 0.141% MACs, )
          )
          (2): Conv2d(0.057 GMac, 3.382% MACs, 144, 24, kernel_size=(1, 1), stride=(1, 1), bias=False)
          (3): BatchNorm2d(0.001 GMac, 0.047% MACs, 24, eps=1e-05, momentum=0.1, affine=True, track_running_stats=True)
        )
        (add): AddBlock(inplace=False, signed=True)
      )
      (4): InvertedResidual(
        0.09 GMac, 5.370% MACs, 
        (conv): Sequential(
          0.09 GMac, 5.370% MACs, 
          (0): Sequential(
            0.064 GMac, 3.805% MACs, 
            (0): Conv2d(0.057 GMac, 3.382% MACs, 24, 144, kernel_size=(1, 1), stride=(1, 1), bias=False)
            (1): BatchNorm2d(0.005 GMac, 0.282% MACs, 144, eps=1e-05, momentum=0.1, affine=True, track_running_stats=True)
            (2): ReLU(0.002 GMac, 0.141% MACs, )
          )
          (1): Sequential(
            0.007 GMac, 0.423% MACs, 
            (0): Conv2d(0.005 GMac, 0.317% MACs, 144, 144, kernel_size=(3, 3), stride=(2, 2), padding=(1, 1), groups=144, bias=False)
            (1): BatchNorm2d(0.001 GMac, 0.070% MACs, 144, eps=1e-05, momentum=0.1, affine=True, track_running_stats=True)
            (2): ReLU(0.001 GMac, 0.035% MACs, )
          )
          (2): Conv2d(0.019 GMac, 1.127% MACs, 144, 32, kernel_size=(1, 1), stride=(1, 1), bias=False)
          (3): BatchNorm2d(0.0 GMac, 0.016% MACs, 32, eps=1e-05, momentum=0.1, affine=True, track_running_stats=True)
        )
      )
      (5): InvertedResidual(
        0.062 GMac, 3.726% MACs, 
        (conv): Sequential(
          0.062 GMac, 3.726% MACs, 
          (0): Sequential(
            0.028 GMac, 1.644% MACs, 
            (0): Conv2d(0.025 GMac, 1.503% MACs, 32, 192, kernel_size=(1, 1), stride=(1, 1), bias=False)
            (1): BatchNorm2d(0.002 GMac, 0.094% MACs, 192, eps=1e-05, momentum=0.1, affine=True, track_running_stats=True)
            (2): ReLU(0.001 GMac, 0.047% MACs, )
          )
          (1): Sequential(
            0.009 GMac, 0.564% MACs, 
            (0): Conv2d(0.007 GMac, 0.423% MACs, 192, 192, kernel_size=(3, 3), stride=(1, 1), padding=(1, 1), groups=192, bias=False)
            (1): BatchNorm2d(0.002 GMac, 0.094% MACs, 192, eps=1e-05, momentum=0.1, affine=True, track_running_stats=True)
            (2): ReLU(0.001 GMac, 0.047% MACs, )
          )
          (2): Conv2d(0.025 GMac, 1.503% MACs, 192, 32, kernel_size=(1, 1), stride=(1, 1), bias=False)
          (3): BatchNorm2d(0.0 GMac, 0.016% MACs, 32, eps=1e-05, momentum=0.1, affine=True, track_running_stats=True)
        )
        (add): AddBlock(inplace=False, signed=True)
      )
      (6): InvertedResidual(
        0.062 GMac, 3.726% MACs, 
        (conv): Sequential(
          0.062 GMac, 3.726% MACs, 
          (0): Sequential(
            0.028 GMac, 1.644% MACs, 
            (0): Conv2d(0.025 GMac, 1.503% MACs, 32, 192, kernel_size=(1, 1), stride=(1, 1), bias=False)
            (1): BatchNorm2d(0.002 GMac, 0.094% MACs, 192, eps=1e-05, momentum=0.1, affine=True, track_running_stats=True)
            (2): ReLU(0.001 GMac, 0.047% MACs, )
          )
          (1): Sequential(
            0.009 GMac, 0.564% MACs, 
            (0): Conv2d(0.007 GMac, 0.423% MACs, 192, 192, kernel_size=(3, 3), stride=(1, 1), padding=(1, 1), groups=192, bias=False)
            (1): BatchNorm2d(0.002 GMac, 0.094% MACs, 192, eps=1e-05, momentum=0.1, affine=True, track_running_stats=True)
            (2): ReLU(0.001 GMac, 0.047% MACs, )
          )
          (2): Conv2d(0.025 GMac, 1.503% MACs, 192, 32, kernel_size=(1, 1), stride=(1, 1), bias=False)
          (3): BatchNorm2d(0.0 GMac, 0.016% MACs, 32, eps=1e-05, momentum=0.1, affine=True, track_running_stats=True)
        )
        (add): AddBlock(inplace=False, signed=True)
      )
      (7): InvertedResidual(
        0.043 GMac, 2.544% MACs, 
        (conv): Sequential(
          0.043 GMac, 2.544% MACs, 
          (0): Sequential(
            0.028 GMac, 1.644% MACs, 
            (0): Conv2d(0.025 GMac, 1.503% MACs, 32, 192, kernel_size=(1, 1), stride=(1, 1), bias=False)
            (1): BatchNorm2d(0.002 GMac, 0.094% MACs, 192, eps=1e-05, momentum=0.1, affine=True, track_running_stats=True)
            (2): ReLU(0.001 GMac, 0.047% MACs, )
          )
          (1): Sequential(
            0.002 GMac, 0.141% MACs, 
            (0): Conv2d(0.002 GMac, 0.106% MACs, 192, 192, kernel_size=(3, 3), stride=(2, 2), padding=(1, 1), groups=192, bias=False)
            (1): BatchNorm2d(0.0 GMac, 0.023% MACs, 192, eps=1e-05, momentum=0.1, affine=True, track_running_stats=True)
            (2): ReLU(0.0 GMac, 0.012% MACs, )
          )
          (2): Conv2d(0.013 GMac, 0.752% MACs, 192, 64, kernel_size=(1, 1), stride=(1, 1), bias=False)
          (3): BatchNorm2d(0.0 GMac, 0.008% MACs, 64, eps=1e-05, momentum=0.1, affine=True, track_running_stats=True)
        )
      )
      (8): InvertedResidual(
        0.056 GMac, 3.366% MACs, 
        (conv): Sequential(
          0.056 GMac, 3.366% MACs, 
          (0): Sequential(
            0.026 GMac, 1.574% MACs, 
            (0): Conv2d(0.025 GMac, 1.503% MACs, 64, 384, kernel_size=(1, 1), stride=(1, 1), bias=False)
            (1): BatchNorm2d(0.001 GMac, 0.047% MACs, 384, eps=1e-05, momentum=0.1, affine=True, track_running_stats=True)
            (2): ReLU(0.0 GMac, 0.023% MACs, )
          )
          (1): Sequential(
            0.005 GMac, 0.282% MACs, 
            (0): Conv2d(0.004 GMac, 0.211% MACs, 384, 384, kernel_size=(3, 3), stride=(1, 1), padding=(1, 1), groups=384, bias=False)
            (1): BatchNorm2d(0.001 GMac, 0.047% MACs, 384, eps=1e-05, momentum=0.1, affine=True, track_running_stats=True)
            (2): ReLU(0.0 GMac, 0.023% MACs, )
          )
          (2): Conv2d(0.025 GMac, 1.503% MACs, 384, 64, kernel_size=(1, 1), stride=(1, 1), bias=False)
          (3): BatchNorm2d(0.0 GMac, 0.008% MACs, 64, eps=1e-05, momentum=0.1, affine=True, track_running_stats=True)
        )
        (add): AddBlock(inplace=False, signed=True)
      )
      (9): InvertedResidual(
        0.056 GMac, 3.366% MACs, 
        (conv): Sequential(
          0.056 GMac, 3.366% MACs, 
          (0): Sequential(
            0.026 GMac, 1.574% MACs, 
            (0): Conv2d(0.025 GMac, 1.503% MACs, 64, 384, kernel_size=(1, 1), stride=(1, 1), bias=False)
            (1): BatchNorm2d(0.001 GMac, 0.047% MACs, 384, eps=1e-05, momentum=0.1, affine=True, track_running_stats=True)
            (2): ReLU(0.0 GMac, 0.023% MACs, )
          )
          (1): Sequential(
            0.005 GMac, 0.282% MACs, 
            (0): Conv2d(0.004 GMac, 0.211% MACs, 384, 384, kernel_size=(3, 3), stride=(1, 1), padding=(1, 1), groups=384, bias=False)
            (1): BatchNorm2d(0.001 GMac, 0.047% MACs, 384, eps=1e-05, momentum=0.1, affine=True, track_running_stats=True)
            (2): ReLU(0.0 GMac, 0.023% MACs, )
          )
          (2): Conv2d(0.025 GMac, 1.503% MACs, 384, 64, kernel_size=(1, 1), stride=(1, 1), bias=False)
          (3): BatchNorm2d(0.0 GMac, 0.008% MACs, 64, eps=1e-05, momentum=0.1, affine=True, track_running_stats=True)
        )
        (add): AddBlock(inplace=False, signed=True)
      )
      (10): InvertedResidual(
        0.056 GMac, 3.366% MACs, 
        (conv): Sequential(
          0.056 GMac, 3.366% MACs, 
          (0): Sequential(
            0.026 GMac, 1.574% MACs, 
            (0): Conv2d(0.025 GMac, 1.503% MACs, 64, 384, kernel_size=(1, 1), stride=(1, 1), bias=False)
            (1): BatchNorm2d(0.001 GMac, 0.047% MACs, 384, eps=1e-05, momentum=0.1, affine=True, track_running_stats=True)
            (2): ReLU(0.0 GMac, 0.023% MACs, )
          )
          (1): Sequential(
            0.005 GMac, 0.282% MACs, 
            (0): Conv2d(0.004 GMac, 0.211% MACs, 384, 384, kernel_size=(3, 3), stride=(1, 1), padding=(1, 1), groups=384, bias=False)
            (1): BatchNorm2d(0.001 GMac, 0.047% MACs, 384, eps=1e-05, momentum=0.1, affine=True, track_running_stats=True)
            (2): ReLU(0.0 GMac, 0.023% MACs, )
          )
          (2): Conv2d(0.025 GMac, 1.503% MACs, 384, 64, kernel_size=(1, 1), stride=(1, 1), bias=False)
          (3): BatchNorm2d(0.0 GMac, 0.008% MACs, 64, eps=1e-05, momentum=0.1, affine=True, track_running_stats=True)
        )
        (add): AddBlock(inplace=False, signed=True)
      )
      (11): InvertedResidual(
        0.069 GMac, 4.122% MACs, 
        (conv): Sequential(
          0.069 GMac, 4.122% MACs, 
          (0): Sequential(
            0.026 GMac, 1.574% MACs, 
            (0): Conv2d(0.025 GMac, 1.503% MACs, 64, 384, kernel_size=(1, 1), stride=(1, 1), bias=False)
            (1): BatchNorm2d(0.001 GMac, 0.047% MACs, 384, eps=1e-05, momentum=0.1, affine=True, track_running_stats=True)
            (2): ReLU(0.0 GMac, 0.023% MACs, )
          )
          (1): Sequential(
            0.005 GMac, 0.282% MACs, 
            (0): Conv2d(0.004 GMac, 0.211% MACs, 384, 384, kernel_size=(3, 3), stride=(1, 1), padding=(1, 1), groups=384, bias=False)
            (1): BatchNorm2d(0.001 GMac, 0.047% MACs, 384, eps=1e-05, momentum=0.1, affine=True, track_running_stats=True)
            (2): ReLU(0.0 GMac, 0.023% MACs, )
          )
          (2): Conv2d(0.038 GMac, 2.255% MACs, 384, 96, kernel_size=(1, 1), stride=(1, 1), bias=False)
          (3): BatchNorm2d(0.0 GMac, 0.012% MACs, 96, eps=1e-05, momentum=0.1, affine=True, track_running_stats=True)
        )
      )
      (12): InvertedResidual(
        0.122 GMac, 7.304% MACs, 
        (conv): Sequential(
          0.122 GMac, 7.304% MACs, 
          (0): Sequential(
            0.058 GMac, 3.488% MACs, 
            (0): Conv2d(0.057 GMac, 3.382% MACs, 96, 576, kernel_size=(1, 1), stride=(1, 1), bias=False)
            (1): BatchNorm2d(0.001 GMac, 0.070% MACs, 576, eps=1e-05, momentum=0.1, affine=True, track_running_stats=True)
            (2): ReLU(0.001 GMac, 0.035% MACs, )
          )
          (1): Sequential(
            0.007 GMac, 0.423% MACs, 
            (0): Conv2d(0.005 GMac, 0.317% MACs, 576, 576, kernel_size=(3, 3), stride=(1, 1), padding=(1, 1), groups=576, bias=False)
            (1): BatchNorm2d(0.001 GMac, 0.070% MACs, 576, eps=1e-05, momentum=0.1, affine=True, track_running_stats=True)
            (2): ReLU(0.001 GMac, 0.035% MACs, )
          )
          (2): Conv2d(0.057 GMac, 3.382% MACs, 576, 96, kernel_size=(1, 1), stride=(1, 1), bias=False)
          (3): BatchNorm2d(0.0 GMac, 0.012% MACs, 96, eps=1e-05, momentum=0.1, affine=True, track_running_stats=True)
        )
        (add): AddBlock(inplace=False, signed=True)
      )
      (13): InvertedResidual(
        0.122 GMac, 7.304% MACs, 
        (conv): Sequential(
          0.122 GMac, 7.304% MACs, 
          (0): Sequential(
            0.058 GMac, 3.488% MACs, 
            (0): Conv2d(0.057 GMac, 3.382% MACs, 96, 576, kernel_size=(1, 1), stride=(1, 1), bias=False)
            (1): BatchNorm2d(0.001 GMac, 0.070% MACs, 576, eps=1e-05, momentum=0.1, affine=True, track_running_stats=True)
            (2): ReLU(0.001 GMac, 0.035% MACs, )
          )
          (1): Sequential(
            0.007 GMac, 0.423% MACs, 
            (0): Conv2d(0.005 GMac, 0.317% MACs, 576, 576, kernel_size=(3, 3), stride=(1, 1), padding=(1, 1), groups=576, bias=False)
            (1): BatchNorm2d(0.001 GMac, 0.070% MACs, 576, eps=1e-05, momentum=0.1, affine=True, track_running_stats=True)
            (2): ReLU(0.001 GMac, 0.035% MACs, )
          )
          (2): Conv2d(0.057 GMac, 3.382% MACs, 576, 96, kernel_size=(1, 1), stride=(1, 1), bias=False)
          (3): BatchNorm2d(0.0 GMac, 0.012% MACs, 96, eps=1e-05, momentum=0.1, affine=True, track_running_stats=True)
        )
        (add): AddBlock(inplace=False, signed=True)
      )
      (14): InvertedResidual(
        0.084 GMac, 5.007% MACs, 
        (conv): Sequential(
          0.084 GMac, 5.007% MACs, 
          (0): Sequential(
            0.058 GMac, 3.488% MACs, 
            (0): Conv2d(0.057 GMac, 3.382% MACs, 96, 576, kernel_size=(1, 1), stride=(1, 1), bias=False)
            (1): BatchNorm2d(0.001 GMac, 0.070% MACs, 576, eps=1e-05, momentum=0.1, affine=True, track_running_stats=True)
            (2): ReLU(0.001 GMac, 0.035% MACs, )
          )
          (1): Sequential(
            0.002 GMac, 0.106% MACs, 
            (0): Conv2d(0.001 GMac, 0.079% MACs, 576, 576, kernel_size=(3, 3), stride=(2, 2), padding=(1, 1), groups=576, bias=False)
            (1): BatchNorm2d(0.0 GMac, 0.018% MACs, 576, eps=1e-05, momentum=0.1, affine=True, track_running_stats=True)
            (2): ReLU(0.0 GMac, 0.009% MACs, )
          )
          (2): Conv2d(0.024 GMac, 1.409% MACs, 576, 160, kernel_size=(1, 1), stride=(1, 1), bias=False)
          (3): BatchNorm2d(0.0 GMac, 0.005% MACs, 160, eps=1e-05, momentum=0.1, affine=True, track_running_stats=True)
        )
      )
      (15): InvertedResidual(
        0.082 GMac, 4.922% MACs, 
        (conv): Sequential(
          0.082 GMac, 4.922% MACs, 
          (0): Sequential(
            0.04 GMac, 2.393% MACs, 
            (0): Conv2d(0.039 GMac, 2.349% MACs, 160, 960, kernel_size=(1, 1), stride=(1, 1), bias=False)
            (1): BatchNorm2d(0.0 GMac, 0.029% MACs, 960, eps=1e-05, momentum=0.1, affine=True, track_running_stats=True)
            (2): ReLU(0.0 GMac, 0.015% MACs, )
          )
          (1): Sequential(
            0.003 GMac, 0.176% MACs, 
            (0): Conv2d(0.002 GMac, 0.132% MACs, 960, 960, kernel_size=(3, 3), stride=(1, 1), padding=(1, 1), groups=960, bias=False)
            (1): BatchNorm2d(0.0 GMac, 0.029% MACs, 960, eps=1e-05, momentum=0.1, affine=True, track_running_stats=True)
            (2): ReLU(0.0 GMac, 0.015% MACs, )
          )
          (2): Conv2d(0.039 GMac, 2.349% MACs, 960, 160, kernel_size=(1, 1), stride=(1, 1), bias=False)
          (3): BatchNorm2d(0.0 GMac, 0.005% MACs, 160, eps=1e-05, momentum=0.1, affine=True, track_running_stats=True)
        )
        (add): AddBlock(inplace=False, signed=True)
      )
      (16): InvertedResidual(
        0.082 GMac, 4.922% MACs, 
        (conv): Sequential(
          0.082 GMac, 4.922% MACs, 
          (0): Sequential(
            0.04 GMac, 2.393% MACs, 
            (0): Conv2d(0.039 GMac, 2.349% MACs, 160, 960, kernel_size=(1, 1), stride=(1, 1), bias=False)
            (1): BatchNorm2d(0.0 GMac, 0.029% MACs, 960, eps=1e-05, momentum=0.1, affine=True, track_running_stats=True)
            (2): ReLU(0.0 GMac, 0.015% MACs, )
          )
          (1): Sequential(
            0.003 GMac, 0.176% MACs, 
            (0): Conv2d(0.002 GMac, 0.132% MACs, 960, 960, kernel_size=(3, 3), stride=(1, 1), padding=(1, 1), groups=960, bias=False)
            (1): BatchNorm2d(0.0 GMac, 0.029% MACs, 960, eps=1e-05, momentum=0.1, affine=True, track_running_stats=True)
            (2): ReLU(0.0 GMac, 0.015% MACs, )
          )
          (2): Conv2d(0.039 GMac, 2.349% MACs, 960, 160, kernel_size=(1, 1), stride=(1, 1), bias=False)
          (3): BatchNorm2d(0.0 GMac, 0.005% MACs, 160, eps=1e-05, momentum=0.1, affine=True, track_running_stats=True)
        )
        (add): AddBlock(inplace=False, signed=True)
      )
      (17): InvertedResidual(
        0.122 GMac, 7.276% MACs, 
        (conv): Sequential(
          0.122 GMac, 7.276% MACs, 
          (0): Sequential(
            0.04 GMac, 2.393% MACs, 
            (0): Conv2d(0.039 GMac, 2.349% MACs, 160, 960, kernel_size=(1, 1), stride=(1, 1), bias=False)
            (1): BatchNorm2d(0.0 GMac, 0.029% MACs, 960, eps=1e-05, momentum=0.1, affine=True, track_running_stats=True)
            (2): ReLU(0.0 GMac, 0.015% MACs, )
          )
          (1): Sequential(
            0.003 GMac, 0.176% MACs, 
            (0): Conv2d(0.002 GMac, 0.132% MACs, 960, 960, kernel_size=(3, 3), stride=(1, 1), padding=(1, 1), groups=960, bias=False)
            (1): BatchNorm2d(0.0 GMac, 0.029% MACs, 960, eps=1e-05, momentum=0.1, affine=True, track_running_stats=True)
            (2): ReLU(0.0 GMac, 0.015% MACs, )
          )
          (2): Conv2d(0.079 GMac, 4.697% MACs, 960, 320, kernel_size=(1, 1), stride=(1, 1), bias=False)
          (3): BatchNorm2d(0.0 GMac, 0.010% MACs, 320, eps=1e-05, momentum=0.1, affine=True, track_running_stats=True)
        )
      )
    )
    (extra): Sequential(
      0.013 GMac, 0.799% MACs, 
      (0): Sequential(
        0.011 GMac, 0.647% MACs, 
        (0): Sequential(
          0.0 GMac, 0.015% MACs, 
          (0): Conv2d(0.0 GMac, 0.011% MACs, 320, 320, kernel_size=(3, 3), stride=(2, 2), padding=(1, 1), groups=320, bias=False)
          (1): BatchNorm2d(0.0 GMac, 0.002% MACs, 320, eps=1e-05, momentum=0.1, affine=True, track_running_stats=True)
          (2): ReLU(0.0 GMac, 0.001% MACs, )
        )
        (1): Sequential(
          0.011 GMac, 0.632% MACs, 
          (0): Conv2d(0.01 GMac, 0.626% MACs, 320, 512, kernel_size=(1, 1), stride=(1, 1), bias=False)
          (1): BatchNorm2d(0.0 GMac, 0.004% MACs, 512, eps=1e-05, momentum=0.1, affine=True, track_running_stats=True)
          (2): ReLU(0.0 GMac, 0.002% MACs, )
        )
      )
      (1): Sequential(
        0.002 GMac, 0.132% MACs, 
        (0): Sequential(
          0.0 GMac, 0.006% MACs, 
          (0): Conv2d(0.0 GMac, 0.004% MACs, 512, 512, kernel_size=(3, 3), stride=(2, 2), padding=(1, 1), groups=512, bias=False)
          (1): BatchNorm2d(0.0 GMac, 0.001% MACs, 512, eps=1e-05, momentum=0.1, affine=True, track_running_stats=True)
          (2): ReLU(0.0 GMac, 0.000% MACs, )
        )
        (1): Sequential(
          0.002 GMac, 0.126% MACs, 
          (0): Conv2d(0.002 GMac, 0.125% MACs, 512, 256, kernel_size=(1, 1), stride=(1, 1), bias=False)
          (1): BatchNorm2d(0.0 GMac, 0.000% MACs, 256, eps=1e-05, momentum=0.1, affine=True, track_running_stats=True)
          (2): ReLU(0.0 GMac, 0.000% MACs, )
        )
      )
      (2): Sequential(
        0.0 GMac, 0.017% MACs, 
        (0): Sequential(
          0.0 GMac, 0.001% MACs, 
          (0): Conv2d(0.0 GMac, 0.001% MACs, 256, 256, kernel_size=(3, 3), stride=(2, 2), padding=(1, 1), groups=256, bias=False)
          (1): BatchNorm2d(0.0 GMac, 0.000% MACs, 256, eps=1e-05, momentum=0.1, affine=True, track_running_stats=True)
          (2): ReLU(0.0 GMac, 0.000% MACs, )
        )
        (1): Sequential(
          0.0 GMac, 0.016% MACs, 
          (0): Conv2d(0.0 GMac, 0.016% MACs, 256, 256, kernel_size=(1, 1), stride=(1, 1), bias=False)
          (1): BatchNorm2d(0.0 GMac, 0.000% MACs, 256, eps=1e-05, momentum=0.1, affine=True, track_running_stats=True)
          (2): ReLU(0.0 GMac, 0.000% MACs, )
        )
      )
      (3): Sequential(
        0.0 GMac, 0.004% MACs, 
        (0): Sequential(
          0.0 GMac, 0.000% MACs, 
          (0): Conv2d(0.0 GMac, 0.000% MACs, 256, 256, kernel_size=(3, 3), stride=(2, 2), padding=(1, 1), groups=256, bias=False)
          (1): BatchNorm2d(0.0 GMac, 0.000% MACs, 256, eps=1e-05, momentum=0.1, affine=True, track_running_stats=True)
          (2): ReLU(0.0 GMac, 0.000% MACs, )
        )
        (1): Sequential(
          0.0 GMac, 0.004% MACs, 
          (0): Conv2d(0.0 GMac, 0.004% MACs, 256, 256, kernel_size=(1, 1), stride=(1, 1), bias=False)
          (1): BatchNorm2d(0.0 GMac, 0.000% MACs, 256, eps=1e-05, momentum=0.1, affine=True, track_running_stats=True)
          (2): ReLU(0.0 GMac, 0.000% MACs, )
        )
      )
    )
  )
  (bbox_head): SSDLiteHead(
    0.1 GMac, 5.995% MACs, 
    (reg_convs): ModuleList(
      0.007 GMac, 0.424% MACs, 
      (0): ConvDWSep2d(
        0.003 GMac, 0.165% MACs, 
        (0): Sequential(
          0.001 GMac, 0.070% MACs, 
          (0): Conv2d(0.001 GMac, 0.053% MACs, 96, 96, kernel_size=(3, 3), stride=(1, 1), padding=(1, 1), groups=96, bias=False)
          (1): BatchNorm2d(0.0 GMac, 0.012% MACs, 96, eps=1e-05, momentum=0.1, affine=True, track_running_stats=True)
          (2): ReLU(0.0 GMac, 0.006% MACs, )
        )
        (1): Sequential(
          0.002 GMac, 0.095% MACs, 
          (0): Conv2d(0.002 GMac, 0.095% MACs, 96, 16, kernel_size=(1, 1), stride=(1, 1))
        )
      )
      (1): ConvDWSep2d(
        0.003 GMac, 0.177% MACs, 
        (0): Sequential(
          0.001 GMac, 0.059% MACs, 
          (0): Conv2d(0.001 GMac, 0.044% MACs, 320, 320, kernel_size=(3, 3), stride=(1, 1), padding=(1, 1), groups=320, bias=False)
          (1): BatchNorm2d(0.0 GMac, 0.010% MACs, 320, eps=1e-05, momentum=0.1, affine=True, track_running_stats=True)
          (2): ReLU(0.0 GMac, 0.005% MACs, )
        )
        (1): Sequential(
          0.002 GMac, 0.118% MACs, 
          (0): Conv2d(0.002 GMac, 0.118% MACs, 320, 24, kernel_size=(1, 1), stride=(1, 1))
        )
      )
      (2): ConvDWSep2d(
        0.001 GMac, 0.071% MACs, 
        (0): Sequential(
          0.0 GMac, 0.023% MACs, 
          (0): Conv2d(0.0 GMac, 0.018% MACs, 512, 512, kernel_size=(3, 3), stride=(1, 1), padding=(1, 1), groups=512, bias=False)
          (1): BatchNorm2d(0.0 GMac, 0.004% MACs, 512, eps=1e-05, momentum=0.1, affine=True, track_running_stats=True)
          (2): ReLU(0.0 GMac, 0.002% MACs, )
        )
        (1): Sequential(
          0.001 GMac, 0.047% MACs, 
          (0): Conv2d(0.001 GMac, 0.047% MACs, 512, 24, kernel_size=(1, 1), stride=(1, 1))
        )
      )
      (3): ConvDWSep2d(
        0.0 GMac, 0.009% MACs, 
        (0): Sequential(
          0.0 GMac, 0.003% MACs, 
          (0): Conv2d(0.0 GMac, 0.002% MACs, 256, 256, kernel_size=(3, 3), stride=(1, 1), padding=(1, 1), groups=256, bias=False)
          (1): BatchNorm2d(0.0 GMac, 0.000% MACs, 256, eps=1e-05, momentum=0.1, affine=True, track_running_stats=True)
          (2): ReLU(0.0 GMac, 0.000% MACs, )
        )
        (1): Sequential(
          0.0 GMac, 0.006% MACs, 
          (0): Conv2d(0.0 GMac, 0.006% MACs, 256, 24, kernel_size=(1, 1), stride=(1, 1))
        )
      )
      (4): ConvDWSep2d(
        0.0 GMac, 0.002% MACs, 
        (0): Sequential(
          0.0 GMac, 0.001% MACs, 
          (0): Conv2d(0.0 GMac, 0.001% MACs, 256, 256, kernel_size=(3, 3), stride=(1, 1), padding=(1, 1), groups=256, bias=False)
          (1): BatchNorm2d(0.0 GMac, 0.000% MACs, 256, eps=1e-05, momentum=0.1, affine=True, track_running_stats=True)
          (2): ReLU(0.0 GMac, 0.000% MACs, )
        )
        (1): Sequential(
          0.0 GMac, 0.001% MACs, 
          (0): Conv2d(0.0 GMac, 0.001% MACs, 256, 24, kernel_size=(1, 1), stride=(1, 1))
        )
      )
      (5): ConvDWSep2d(
        0.0 GMac, 0.000% MACs, 
        (0): Sequential(
          0.0 GMac, 0.000% MACs, 
          (0): Conv2d(0.0 GMac, 0.000% MACs, 256, 256, kernel_size=(3, 3), stride=(1, 1), padding=(1, 1), groups=256, bias=False)
          (1): BatchNorm2d(0.0 GMac, 0.000% MACs, 256, eps=1e-05, momentum=0.1, affine=True, track_running_stats=True)
          (2): ReLU(0.0 GMac, 0.000% MACs, )
        )
        (1): Sequential(
          0.0 GMac, 0.000% MACs, 
          (0): Conv2d(0.0 GMac, 0.000% MACs, 256, 16, kernel_size=(1, 1), stride=(1, 1))
        )
      )
    )
    (cls_convs): ModuleList(
      0.093 GMac, 5.571% MACs, 
      (0): ConvDWSep2d(
        0.033 GMac, 1.993% MACs, 
        (0): Sequential(
          0.001 GMac, 0.070% MACs, 
          (0): Conv2d(0.001 GMac, 0.053% MACs, 96, 96, kernel_size=(3, 3), stride=(1, 1), padding=(1, 1), groups=96, bias=False)
          (1): BatchNorm2d(0.0 GMac, 0.012% MACs, 96, eps=1e-05, momentum=0.1, affine=True, track_running_stats=True)
          (2): ReLU(0.0 GMac, 0.006% MACs, )
        )
        (1): Sequential(
          0.032 GMac, 1.922% MACs, 
          (0): Conv2d(0.032 GMac, 1.922% MACs, 96, 324, kernel_size=(1, 1), stride=(1, 1))
        )
      )
      (1): ConvDWSep2d(
        0.041 GMac, 2.444% MACs, 
        (0): Sequential(
          0.001 GMac, 0.059% MACs, 
          (0): Conv2d(0.001 GMac, 0.044% MACs, 320, 320, kernel_size=(3, 3), stride=(1, 1), padding=(1, 1), groups=320, bias=False)
          (1): BatchNorm2d(0.0 GMac, 0.010% MACs, 320, eps=1e-05, momentum=0.1, affine=True, track_running_stats=True)
          (2): ReLU(0.0 GMac, 0.005% MACs, )
        )
        (1): Sequential(
          0.04 GMac, 2.385% MACs, 
          (0): Conv2d(0.04 GMac, 2.385% MACs, 320, 486, kernel_size=(1, 1), stride=(1, 1))
        )
      )
      (2): ConvDWSep2d(
        0.016 GMac, 0.977% MACs, 
        (0): Sequential(
          0.0 GMac, 0.023% MACs, 
          (0): Conv2d(0.0 GMac, 0.018% MACs, 512, 512, kernel_size=(3, 3), stride=(1, 1), padding=(1, 1), groups=512, bias=False)
          (1): BatchNorm2d(0.0 GMac, 0.004% MACs, 512, eps=1e-05, momentum=0.1, affine=True, track_running_stats=True)
          (2): ReLU(0.0 GMac, 0.002% MACs, )
        )
        (1): Sequential(
          0.016 GMac, 0.953% MACs, 
          (0): Conv2d(0.016 GMac, 0.953% MACs, 512, 486, kernel_size=(1, 1), stride=(1, 1))
        )
      )
      (3): ConvDWSep2d(
        0.002 GMac, 0.122% MACs, 
        (0): Sequential(
          0.0 GMac, 0.003% MACs, 
          (0): Conv2d(0.0 GMac, 0.002% MACs, 256, 256, kernel_size=(3, 3), stride=(1, 1), padding=(1, 1), groups=256, bias=False)
          (1): BatchNorm2d(0.0 GMac, 0.000% MACs, 256, eps=1e-05, momentum=0.1, affine=True, track_running_stats=True)
          (2): ReLU(0.0 GMac, 0.000% MACs, )
        )
        (1): Sequential(
          0.002 GMac, 0.119% MACs, 
          (0): Conv2d(0.002 GMac, 0.119% MACs, 256, 486, kernel_size=(1, 1), stride=(1, 1))
        )
      )
      (4): ConvDWSep2d(
        0.001 GMac, 0.031% MACs, 
        (0): Sequential(
          0.0 GMac, 0.001% MACs, 
          (0): Conv2d(0.0 GMac, 0.001% MACs, 256, 256, kernel_size=(3, 3), stride=(1, 1), padding=(1, 1), groups=256, bias=False)
          (1): BatchNorm2d(0.0 GMac, 0.000% MACs, 256, eps=1e-05, momentum=0.1, affine=True, track_running_stats=True)
          (2): ReLU(0.0 GMac, 0.000% MACs, )
        )
        (1): Sequential(
          0.0 GMac, 0.030% MACs, 
          (0): Conv2d(0.0 GMac, 0.030% MACs, 256, 486, kernel_size=(1, 1), stride=(1, 1))
        )
      )
      (5): ConvDWSep2d(
        0.0 GMac, 0.005% MACs, 
        (0): Sequential(
          0.0 GMac, 0.000% MACs, 
          (0): Conv2d(0.0 GMac, 0.000% MACs, 256, 256, kernel_size=(3, 3), stride=(1, 1), padding=(1, 1), groups=256, bias=False)
          (1): BatchNorm2d(0.0 GMac, 0.000% MACs, 256, eps=1e-05, momentum=0.1, affine=True, track_running_stats=True)
          (2): ReLU(0.0 GMac, 0.000% MACs, )
        )
        (1): Sequential(
          0.0 GMac, 0.005% MACs, 
          (0): Conv2d(0.0 GMac, 0.005% MACs, 256, 324, kernel_size=(1, 1), stride=(1, 1))
        )
      )
    )
  )
)
2020-12-11 16:51:38,897 - mmdet - INFO - 

2020-12-11 16:51:38,900 - mmdet - INFO - Compute   : 1.67 GMac
2020-12-11 16:51:38,901 - mmdet - INFO - Parameters: 3.1 M
2020-12-11 16:51:54,858 - mmdet - INFO - Start running, host: a0393608@uda0393608, work_dir: /data/files/a0393608/files/work/ti/bitbucket/jacinto-ai/pytorch-mmdetection/work_dirs/ssd-lite_mobilenet
…
