…
=> loading pretrained weights file: /user/a0393608/work/code/ti/jacinto-ai/pytorch-jacinto-ai-devkit/data/checkpoints/ade20k_seg_class32/2021-03-14_20-53-47_ade20k_seg_class32_fpnlite_pixel2pixel_aspp_regnetx400mf_resize384x384_traincrop384x384_(51.03%)/training/model_best.pth
[33m=> creating model 'fpnlite_pixel2pixel_aspp_regnetx400mf'[39m
=> using pretrained weights from: /user/a0393608/work/code/ti/jacinto-ai/pytorch-jacinto-ai-devkit/data/checkpoints/ade20k_seg_class32/2021-03-14_20-53-47_ade20k_seg_class32_fpnlite_pixel2pixel_aspp_regnetx400mf_resize384x384_traincrop384x384_(51.03%)/training/model_best.pth
=> Size = [384, 384], GFLOPs = 6.153043968, GMACs = 3.076521984
FPNLitePixel2PixelASPP(
  (encoder): RegNetX400MFMI4(
    (features): Sequential(
      (stem): Sequential(
        (conv): Conv2d(3, 32, kernel_size=(3, 3), stride=(2, 2), padding=(1, 1), bias=False)
        (bn): BatchNorm2d(32, eps=1e-05, momentum=0.1, affine=True, track_running_stats=True)
        (relu1): ReLU(inplace=True)
      )
      (s1): Sequential(
        (b1): RegNetBottleneck(
          (f): Sequential(
            (a): Conv2d(32, 32, kernel_size=(1, 1), stride=(1, 1), bias=False)
            (a_bn): BatchNorm2d(32, eps=1e-05, momentum=0.1, affine=True, track_running_stats=True)
            (a_relu): ReLU(inplace=True)
            (b): Conv2d(32, 32, kernel_size=(3, 3), stride=(2, 2), padding=(1, 1), groups=2, bias=False)
            (b_bn): BatchNorm2d(32, eps=1e-05, momentum=0.1, affine=True, track_running_stats=True)
            (b_relu): ReLU(inplace=True)
            (c): Conv2d(32, 32, kernel_size=(1, 1), stride=(1, 1), bias=False)
            (c_bn): BatchNorm2d(32, eps=1e-05, momentum=0.1, affine=True, track_running_stats=True)
          )
          (proj): Conv2d(32, 32, kernel_size=(1, 1), stride=(2, 2), bias=False)
          (bn): BatchNorm2d(32, eps=1e-05, momentum=0.1, affine=True, track_running_stats=True)
          (add): AddBlock(inplace=False, signed=True)
          (relu): ReLU(inplace=True)
        )
      )
      (s2): Sequential(
        (b1): RegNetBottleneck(
          (f): Sequential(
            (a): Conv2d(32, 64, kernel_size=(1, 1), stride=(1, 1), bias=False)
            (a_bn): BatchNorm2d(64, eps=1e-05, momentum=0.1, affine=True, track_running_stats=True)
            (a_relu): ReLU(inplace=True)
            (b): Conv2d(64, 64, kernel_size=(3, 3), stride=(2, 2), padding=(1, 1), groups=4, bias=False)
            (b_bn): BatchNorm2d(64, eps=1e-05, momentum=0.1, affine=True, track_running_stats=True)
            (b_relu): ReLU(inplace=True)
            (c): Conv2d(64, 64, kernel_size=(1, 1), stride=(1, 1), bias=False)
            (c_bn): BatchNorm2d(64, eps=1e-05, momentum=0.1, affine=True, track_running_stats=True)
          )
          (proj): Conv2d(32, 64, kernel_size=(1, 1), stride=(2, 2), bias=False)
          (bn): BatchNorm2d(64, eps=1e-05, momentum=0.1, affine=True, track_running_stats=True)
          (add): AddBlock(inplace=False, signed=True)
          (relu): ReLU(inplace=True)
        )
        (b2): RegNetBottleneck(
          (f): Sequential(
            (a): Conv2d(64, 64, kernel_size=(1, 1), stride=(1, 1), bias=False)
            (a_bn): BatchNorm2d(64, eps=1e-05, momentum=0.1, affine=True, track_running_stats=True)
            (a_relu): ReLU(inplace=True)
            (b): Conv2d(64, 64, kernel_size=(3, 3), stride=(1, 1), padding=(1, 1), groups=4, bias=False)
            (b_bn): BatchNorm2d(64, eps=1e-05, momentum=0.1, affine=True, track_running_stats=True)
            (b_relu): ReLU(inplace=True)
            (c): Conv2d(64, 64, kernel_size=(1, 1), stride=(1, 1), bias=False)
            (c_bn): BatchNorm2d(64, eps=1e-05, momentum=0.1, affine=True, track_running_stats=True)
          )
          (add): AddBlock(inplace=False, signed=True)
          (relu): ReLU(inplace=True)
        )
      )
      (s3): Sequential(
        (b1): RegNetBottleneck(
          (f): Sequential(
            (a): Conv2d(64, 160, kernel_size=(1, 1), stride=(1, 1), bias=False)
            (a_bn): BatchNorm2d(160, eps=1e-05, momentum=0.1, affine=True, track_running_stats=True)
            (a_relu): ReLU(inplace=True)
            (b): Conv2d(160, 160, kernel_size=(3, 3), stride=(2, 2), padding=(1, 1), groups=10, bias=False)
            (b_bn): BatchNorm2d(160, eps=1e-05, momentum=0.1, affine=True, track_running_stats=True)
            (b_relu): ReLU(inplace=True)
            (c): Conv2d(160, 160, kernel_size=(1, 1), stride=(1, 1), bias=False)
            (c_bn): BatchNorm2d(160, eps=1e-05, momentum=0.1, affine=True, track_running_stats=True)
          )
          (proj): Conv2d(64, 160, kernel_size=(1, 1), stride=(2, 2), bias=False)
          (bn): BatchNorm2d(160, eps=1e-05, momentum=0.1, affine=True, track_running_stats=True)
          (add): AddBlock(inplace=False, signed=True)
          (relu): ReLU(inplace=True)
        )
        (b2): RegNetBottleneck(
          (f): Sequential(
            (a): Conv2d(160, 160, kernel_size=(1, 1), stride=(1, 1), bias=False)
            (a_bn): BatchNorm2d(160, eps=1e-05, momentum=0.1, affine=True, track_running_stats=True)
            (a_relu): ReLU(inplace=True)
            (b): Conv2d(160, 160, kernel_size=(3, 3), stride=(1, 1), padding=(1, 1), groups=10, bias=False)
            (b_bn): BatchNorm2d(160, eps=1e-05, momentum=0.1, affine=True, track_running_stats=True)
            (b_relu): ReLU(inplace=True)
            (c): Conv2d(160, 160, kernel_size=(1, 1), stride=(1, 1), bias=False)
            (c_bn): BatchNorm2d(160, eps=1e-05, momentum=0.1, affine=True, track_running_stats=True)
          )
          (add): AddBlock(inplace=False, signed=True)
          (relu): ReLU(inplace=True)
        )
        (b3): RegNetBottleneck(
          (f): Sequential(
            (a): Conv2d(160, 160, kernel_size=(1, 1), stride=(1, 1), bias=False)
            (a_bn): BatchNorm2d(160, eps=1e-05, momentum=0.1, affine=True, track_running_stats=True)
            (a_relu): ReLU(inplace=True)
            (b): Conv2d(160, 160, kernel_size=(3, 3), stride=(1, 1), padding=(1, 1), groups=10, bias=False)
            (b_bn): BatchNorm2d(160, eps=1e-05, momentum=0.1, affine=True, track_running_stats=True)
            (b_relu): ReLU(inplace=True)
            (c): Conv2d(160, 160, kernel_size=(1, 1), stride=(1, 1), bias=False)
            (c_bn): BatchNorm2d(160, eps=1e-05, momentum=0.1, affine=True, track_running_stats=True)
          )
          (add): AddBlock(inplace=False, signed=True)
          (relu): ReLU(inplace=True)
        )
        (b4): RegNetBottleneck(
          (f): Sequential(
            (a): Conv2d(160, 160, kernel_size=(1, 1), stride=(1, 1), bias=False)
            (a_bn): BatchNorm2d(160, eps=1e-05, momentum=0.1, affine=True, track_running_stats=True)
            (a_relu): ReLU(inplace=True)
            (b): Conv2d(160, 160, kernel_size=(3, 3), stride=(1, 1), padding=(1, 1), groups=10, bias=False)
            (b_bn): BatchNorm2d(160, eps=1e-05, momentum=0.1, affine=True, track_running_stats=True)
            (b_relu): ReLU(inplace=True)
            (c): Conv2d(160, 160, kernel_size=(1, 1), stride=(1, 1), bias=False)
            (c_bn): BatchNorm2d(160, eps=1e-05, momentum=0.1, affine=True, track_running_stats=True)
          )
          (add): AddBlock(inplace=False, signed=True)
          (relu): ReLU(inplace=True)
        )
        (b5): RegNetBottleneck(
          (f): Sequential(
            (a): Conv2d(160, 160, kernel_size=(1, 1), stride=(1, 1), bias=False)
            (a_bn): BatchNorm2d(160, eps=1e-05, momentum=0.1, affine=True, track_running_stats=True)
            (a_relu): ReLU(inplace=True)
            (b): Conv2d(160, 160, kernel_size=(3, 3), stride=(1, 1), padding=(1, 1), groups=10, bias=False)
            (b_bn): BatchNorm2d(160, eps=1e-05, momentum=0.1, affine=True, track_running_stats=True)
            (b_relu): ReLU(inplace=True)
            (c): Conv2d(160, 160, kernel_size=(1, 1), stride=(1, 1), bias=False)
            (c_bn): BatchNorm2d(160, eps=1e-05, momentum=0.1, affine=True, track_running_stats=True)
          )
          (add): AddBlock(inplace=False, signed=True)
          (relu): ReLU(inplace=True)
        )
        (b6): RegNetBottleneck(
          (f): Sequential(
            (a): Conv2d(160, 160, kernel_size=(1, 1), stride=(1, 1), bias=False)
            (a_bn): BatchNorm2d(160, eps=1e-05, momentum=0.1, affine=True, track_running_stats=True)
            (a_relu): ReLU(inplace=True)
            (b): Conv2d(160, 160, kernel_size=(3, 3), stride=(1, 1), padding=(1, 1), groups=10, bias=False)
            (b_bn): BatchNorm2d(160, eps=1e-05, momentum=0.1, affine=True, track_running_stats=True)
            (b_relu): ReLU(inplace=True)
            (c): Conv2d(160, 160, kernel_size=(1, 1), stride=(1, 1), bias=False)
            (c_bn): BatchNorm2d(160, eps=1e-05, momentum=0.1, affine=True, track_running_stats=True)
          )
          (add): AddBlock(inplace=False, signed=True)
          (relu): ReLU(inplace=True)
        )
        (b7): RegNetBottleneck(
          (f): Sequential(
            (a): Conv2d(160, 160, kernel_size=(1, 1), stride=(1, 1), bias=False)
            (a_bn): BatchNorm2d(160, eps=1e-05, momentum=0.1, affine=True, track_running_stats=True)
            (a_relu): ReLU(inplace=True)
            (b): Conv2d(160, 160, kernel_size=(3, 3), stride=(1, 1), padding=(1, 1), groups=10, bias=False)
            (b_bn): BatchNorm2d(160, eps=1e-05, momentum=0.1, affine=True, track_running_stats=True)
            (b_relu): ReLU(inplace=True)
            (c): Conv2d(160, 160, kernel_size=(1, 1), stride=(1, 1), bias=False)
            (c_bn): BatchNorm2d(160, eps=1e-05, momentum=0.1, affine=True, track_running_stats=True)
          )
          (add): AddBlock(inplace=False, signed=True)
          (relu): ReLU(inplace=True)
        )
      )
      (s4): Sequential(
        (b1): RegNetBottleneck(
          (f): Sequential(
            (a): Conv2d(160, 384, kernel_size=(1, 1), stride=(1, 1), bias=False)
            (a_bn): BatchNorm2d(384, eps=1e-05, momentum=0.1, affine=True, track_running_stats=True)
            (a_relu): ReLU(inplace=True)
            (b): Conv2d(384, 384, kernel_size=(3, 3), stride=(2, 2), padding=(1, 1), groups=24, bias=False)
            (b_bn): BatchNorm2d(384, eps=1e-05, momentum=0.1, affine=True, track_running_stats=True)
            (b_relu): ReLU(inplace=True)
            (c): Conv2d(384, 384, kernel_size=(1, 1), stride=(1, 1), bias=False)
            (c_bn): BatchNorm2d(384, eps=1e-05, momentum=0.1, affine=True, track_running_stats=True)
          )
          (proj): Conv2d(160, 384, kernel_size=(1, 1), stride=(2, 2), bias=False)
          (bn): BatchNorm2d(384, eps=1e-05, momentum=0.1, affine=True, track_running_stats=True)
          (add): AddBlock(inplace=False, signed=True)
          (relu): ReLU(inplace=True)
        )
        (b2): RegNetBottleneck(
          (f): Sequential(
            (a): Conv2d(384, 384, kernel_size=(1, 1), stride=(1, 1), bias=False)
            (a_bn): BatchNorm2d(384, eps=1e-05, momentum=0.1, affine=True, track_running_stats=True)
            (a_relu): ReLU(inplace=True)
            (b): Conv2d(384, 384, kernel_size=(3, 3), stride=(1, 1), padding=(1, 1), groups=24, bias=False)
            (b_bn): BatchNorm2d(384, eps=1e-05, momentum=0.1, affine=True, track_running_stats=True)
            (b_relu): ReLU(inplace=True)
            (c): Conv2d(384, 384, kernel_size=(1, 1), stride=(1, 1), bias=False)
            (c_bn): BatchNorm2d(384, eps=1e-05, momentum=0.1, affine=True, track_running_stats=True)
          )
          (add): AddBlock(inplace=False, signed=True)
          (relu): ReLU(inplace=True)
        )
        (b3): RegNetBottleneck(
          (f): Sequential(
            (a): Conv2d(384, 384, kernel_size=(1, 1), stride=(1, 1), bias=False)
            (a_bn): BatchNorm2d(384, eps=1e-05, momentum=0.1, affine=True, track_running_stats=True)
            (a_relu): ReLU(inplace=True)
            (b): Conv2d(384, 384, kernel_size=(3, 3), stride=(1, 1), padding=(1, 1), groups=24, bias=False)
            (b_bn): BatchNorm2d(384, eps=1e-05, momentum=0.1, affine=True, track_running_stats=True)
            (b_relu): ReLU(inplace=True)
            (c): Conv2d(384, 384, kernel_size=(1, 1), stride=(1, 1), bias=False)
            (c_bn): BatchNorm2d(384, eps=1e-05, momentum=0.1, affine=True, track_running_stats=True)
          )
          (add): AddBlock(inplace=False, signed=True)
          (relu): ReLU(inplace=True)
        )
        (b4): RegNetBottleneck(
          (f): Sequential(
            (a): Conv2d(384, 384, kernel_size=(1, 1), stride=(1, 1), bias=False)
            (a_bn): BatchNorm2d(384, eps=1e-05, momentum=0.1, affine=True, track_running_stats=True)
            (a_relu): ReLU(inplace=True)
            (b): Conv2d(384, 384, kernel_size=(3, 3), stride=(1, 1), padding=(1, 1), groups=24, bias=False)
            (b_bn): BatchNorm2d(384, eps=1e-05, momentum=0.1, affine=True, track_running_stats=True)
            (b_relu): ReLU(inplace=True)
            (c): Conv2d(384, 384, kernel_size=(1, 1), stride=(1, 1), bias=False)
            (c_bn): BatchNorm2d(384, eps=1e-05, momentum=0.1, affine=True, track_running_stats=True)
          )
          (add): AddBlock(inplace=False, signed=True)
          (relu): ReLU(inplace=True)
        )
        (b5): RegNetBottleneck(
          (f): Sequential(
            (a): Conv2d(384, 384, kernel_size=(1, 1), stride=(1, 1), bias=False)
            (a_bn): BatchNorm2d(384, eps=1e-05, momentum=0.1, affine=True, track_running_stats=True)
            (a_relu): ReLU(inplace=True)
            (b): Conv2d(384, 384, kernel_size=(3, 3), stride=(1, 1), padding=(1, 1), groups=24, bias=False)
            (b_bn): BatchNorm2d(384, eps=1e-05, momentum=0.1, affine=True, track_running_stats=True)
            (b_relu): ReLU(inplace=True)
            (c): Conv2d(384, 384, kernel_size=(1, 1), stride=(1, 1), bias=False)
            (c_bn): BatchNorm2d(384, eps=1e-05, momentum=0.1, affine=True, track_running_stats=True)
          )
          (add): AddBlock(inplace=False, signed=True)
          (relu): ReLU(inplace=True)
        )
        (b6): RegNetBottleneck(
          (f): Sequential(
            (a): Conv2d(384, 384, kernel_size=(1, 1), stride=(1, 1), bias=False)
            (a_bn): BatchNorm2d(384, eps=1e-05, momentum=0.1, affine=True, track_running_stats=True)
            (a_relu): ReLU(inplace=True)
            (b): Conv2d(384, 384, kernel_size=(3, 3), stride=(1, 1), padding=(1, 1), groups=24, bias=False)
            (b_bn): BatchNorm2d(384, eps=1e-05, momentum=0.1, affine=True, track_running_stats=True)
            (b_relu): ReLU(inplace=True)
            (c): Conv2d(384, 384, kernel_size=(1, 1), stride=(1, 1), bias=False)
            (c_bn): BatchNorm2d(384, eps=1e-05, momentum=0.1, affine=True, track_running_stats=True)
          )
          (add): AddBlock(inplace=False, signed=True)
          (relu): ReLU(inplace=True)
        )
        (b7): RegNetBottleneck(
          (f): Sequential(
            (a): Conv2d(384, 384, kernel_size=(1, 1), stride=(1, 1), bias=False)
            (a_bn): BatchNorm2d(384, eps=1e-05, momentum=0.1, affine=True, track_running_stats=True)
            (a_relu): ReLU(inplace=True)
            (b): Conv2d(384, 384, kernel_size=(3, 3), stride=(1, 1), padding=(1, 1), groups=24, bias=False)
            (b_bn): BatchNorm2d(384, eps=1e-05, momentum=0.1, affine=True, track_running_stats=True)
            (b_relu): ReLU(inplace=True)
            (c): Conv2d(384, 384, kernel_size=(1, 1), stride=(1, 1), bias=False)
            (c_bn): BatchNorm2d(384, eps=1e-05, momentum=0.1, affine=True, track_running_stats=True)
          )
          (add): AddBlock(inplace=False, signed=True)
          (relu): ReLU(inplace=True)
        )
        (b8): RegNetBottleneck(
          (f): Sequential(
            (a): Conv2d(384, 384, kernel_size=(1, 1), stride=(1, 1), bias=False)
            (a_bn): BatchNorm2d(384, eps=1e-05, momentum=0.1, affine=True, track_running_stats=True)
            (a_relu): ReLU(inplace=True)
            (b): Conv2d(384, 384, kernel_size=(3, 3), stride=(1, 1), padding=(1, 1), groups=24, bias=False)
            (b_bn): BatchNorm2d(384, eps=1e-05, momentum=0.1, affine=True, track_running_stats=True)
            (b_relu): ReLU(inplace=True)
            (c): Conv2d(384, 384, kernel_size=(1, 1), stride=(1, 1), bias=False)
            (c_bn): BatchNorm2d(384, eps=1e-05, momentum=0.1, affine=True, track_running_stats=True)
          )
          (add): AddBlock(inplace=False, signed=True)
          (relu): ReLU(inplace=True)
        )
        (b9): RegNetBottleneck(
          (f): Sequential(
            (a): Conv2d(384, 384, kernel_size=(1, 1), stride=(1, 1), bias=False)
            (a_bn): BatchNorm2d(384, eps=1e-05, momentum=0.1, affine=True, track_running_stats=True)
            (a_relu): ReLU(inplace=True)
            (b): Conv2d(384, 384, kernel_size=(3, 3), stride=(1, 1), padding=(1, 1), groups=24, bias=False)
            (b_bn): BatchNorm2d(384, eps=1e-05, momentum=0.1, affine=True, track_running_stats=True)
            (b_relu): ReLU(inplace=True)
            (c): Conv2d(384, 384, kernel_size=(1, 1), stride=(1, 1), bias=False)
            (c_bn): BatchNorm2d(384, eps=1e-05, momentum=0.1, affine=True, track_running_stats=True)
          )
          (add): AddBlock(inplace=False, signed=True)
          (relu): ReLU(inplace=True)
        )
        (b10): RegNetBottleneck(
          (f): Sequential(
            (a): Conv2d(384, 384, kernel_size=(1, 1), stride=(1, 1), bias=False)
            (a_bn): BatchNorm2d(384, eps=1e-05, momentum=0.1, affine=True, track_running_stats=True)
            (a_relu): ReLU(inplace=True)
            (b): Conv2d(384, 384, kernel_size=(3, 3), stride=(1, 1), padding=(1, 1), groups=24, bias=False)
            (b_bn): BatchNorm2d(384, eps=1e-05, momentum=0.1, affine=True, track_running_stats=True)
            (b_relu): ReLU(inplace=True)
            (c): Conv2d(384, 384, kernel_size=(1, 1), stride=(1, 1), bias=False)
            (c_bn): BatchNorm2d(384, eps=1e-05, momentum=0.1, affine=True, track_running_stats=True)
          )
          (add): AddBlock(inplace=False, signed=True)
          (relu): ReLU(inplace=True)
        )
        (b11): RegNetBottleneck(
          (f): Sequential(
            (a): Conv2d(384, 384, kernel_size=(1, 1), stride=(1, 1), bias=False)
            (a_bn): BatchNorm2d(384, eps=1e-05, momentum=0.1, affine=True, track_running_stats=True)
            (a_relu): ReLU(inplace=True)
            (b): Conv2d(384, 384, kernel_size=(3, 3), stride=(1, 1), padding=(1, 1), groups=24, bias=False)
            (b_bn): BatchNorm2d(384, eps=1e-05, momentum=0.1, affine=True, track_running_stats=True)
            (b_relu): ReLU(inplace=True)
            (c): Conv2d(384, 384, kernel_size=(1, 1), stride=(1, 1), bias=False)
            (c_bn): BatchNorm2d(384, eps=1e-05, momentum=0.1, affine=True, track_running_stats=True)
          )
          (add): AddBlock(inplace=False, signed=True)
          (relu): ReLU(inplace=True)
        )
        (b12): RegNetBottleneck(
          (f): Sequential(
            (a): Conv2d(384, 384, kernel_size=(1, 1), stride=(1, 1), bias=False)
            (a_bn): BatchNorm2d(384, eps=1e-05, momentum=0.1, affine=True, track_running_stats=True)
            (a_relu): ReLU(inplace=True)
            (b): Conv2d(384, 384, kernel_size=(3, 3), stride=(1, 1), padding=(1, 1), groups=24, bias=False)
            (b_bn): BatchNorm2d(384, eps=1e-05, momentum=0.1, affine=True, track_running_stats=True)
            (b_relu): ReLU(inplace=True)
            (c): Conv2d(384, 384, kernel_size=(1, 1), stride=(1, 1), bias=False)
            (c_bn): BatchNorm2d(384, eps=1e-05, momentum=0.1, affine=True, track_running_stats=True)
          )
          (add): AddBlock(inplace=False, signed=True)
          (relu): ReLU(inplace=True)
        )
      )
    )
  )
  (decoders): ModuleList(
    (0): FPNLitePixel2PixelDecoder(
      (rfblock): DWASPPLiteBlock(
        (conv1x1): Sequential(
          (0): Conv2d(384, 256, kernel_size=(1, 1), stride=(1, 1), bias=False)
          (1): BatchNorm2d(256, eps=1e-05, momentum=0.1, affine=True, track_running_stats=True)
          (2): ReLU()
        )
        (aspp_bra1): Sequential(
          (0): Sequential(
            (0): Conv2d(384, 384, kernel_size=(3, 3), stride=(1, 1), padding=(6, 6), dilation=(6, 6), groups=24, bias=False)
            (1): BatchNorm2d(384, eps=1e-05, momentum=0.1, affine=True, track_running_stats=True)
            (2): ReLU()
          )
          (1): Sequential(
            (0): Conv2d(384, 256, kernel_size=(1, 1), stride=(1, 1), bias=False)
            (1): BatchNorm2d(256, eps=1e-05, momentum=0.1, affine=True, track_running_stats=True)
            (2): ReLU()
          )
        )
        (aspp_bra2): Sequential(
          (0): Sequential(
            (0): Conv2d(384, 384, kernel_size=(3, 3), stride=(1, 1), padding=(12, 12), dilation=(12, 12), groups=24, bias=False)
            (1): BatchNorm2d(384, eps=1e-05, momentum=0.1, affine=True, track_running_stats=True)
            (2): ReLU()
          )
          (1): Sequential(
            (0): Conv2d(384, 256, kernel_size=(1, 1), stride=(1, 1), bias=False)
            (1): BatchNorm2d(256, eps=1e-05, momentum=0.1, affine=True, track_running_stats=True)
            (2): ReLU()
          )
        )
        (aspp_bra3): Sequential(
          (0): Sequential(
            (0): Conv2d(384, 384, kernel_size=(3, 3), stride=(1, 1), padding=(18, 18), dilation=(18, 18), groups=24, bias=False)
            (1): BatchNorm2d(384, eps=1e-05, momentum=0.1, affine=True, track_running_stats=True)
            (2): ReLU()
          )
          (1): Sequential(
            (0): Conv2d(384, 256, kernel_size=(1, 1), stride=(1, 1), bias=False)
            (1): BatchNorm2d(256, eps=1e-05, momentum=0.1, affine=True, track_running_stats=True)
            (2): ReLU()
          )
        )
        (dropout): Dropout2d(p=0.2, inplace=True)
        (aspp_out): Sequential(
          (0): Conv2d(1024, 256, kernel_size=(1, 1), stride=(1, 1), bias=False)
          (1): BatchNorm2d(256, eps=1e-05, momentum=0.1, affine=True, track_running_stats=True)
          (2): ReLU()
        )
        (cat): CatBlock(inplace=False, signed=True)
      )
      (fpn): InLoopFPNLitePyramid(
        (smooth_convs): ModuleList(
          (0): None
          (1): Sequential(
            (0): Sequential(
              (0): Conv2d(256, 256, kernel_size=(3, 3), stride=(1, 1), padding=(1, 1), groups=16, bias=False)
              (1): BatchNorm2d(256, eps=1e-05, momentum=0.1, affine=True, track_running_stats=True)
              (2): ReLU()
            )
            (1): Sequential(
              (0): Conv2d(256, 256, kernel_size=(1, 1), stride=(1, 1), bias=False)
              (1): BatchNorm2d(256, eps=1e-05, momentum=0.1, affine=True, track_running_stats=True)
              (2): ReLU()
            )
          )
          (2): Sequential(
            (0): Sequential(
              (0): Conv2d(256, 256, kernel_size=(3, 3), stride=(1, 1), padding=(1, 1), groups=16, bias=False)
              (1): BatchNorm2d(256, eps=1e-05, momentum=0.1, affine=True, track_running_stats=True)
              (2): ReLU()
            )
            (1): Sequential(
              (0): Conv2d(256, 256, kernel_size=(1, 1), stride=(1, 1), bias=False)
              (1): BatchNorm2d(256, eps=1e-05, momentum=0.1, affine=True, track_running_stats=True)
              (2): ReLU()
            )
          )
          (3): Sequential(
            (0): Sequential(
              (0): Conv2d(256, 256, kernel_size=(3, 3), stride=(1, 1), padding=(1, 1), groups=16, bias=False)
              (1): BatchNorm2d(256, eps=1e-05, momentum=0.1, affine=True, track_running_stats=True)
              (2): ReLU()
            )
            (1): Sequential(
              (0): Conv2d(256, 256, kernel_size=(1, 1), stride=(1, 1), bias=False)
              (1): BatchNorm2d(256, eps=1e-05, momentum=0.1, affine=True, track_running_stats=True)
              (2): ReLU()
            )
          )
        )
        (shortcuts): ModuleList(
          (0): None
          (1): Sequential(
            (0): Conv2d(160, 256, kernel_size=(1, 1), stride=(1, 1), bias=False)
            (1): BatchNorm2d(256, eps=1e-05, momentum=0.1, affine=True, track_running_stats=True)
            (2): ReLU()
          )
          (2): Sequential(
            (0): Conv2d(64, 256, kernel_size=(1, 1), stride=(1, 1), bias=False)
            (1): BatchNorm2d(256, eps=1e-05, momentum=0.1, affine=True, track_running_stats=True)
            (2): ReLU()
          )
          (3): Sequential(
            (0): Conv2d(32, 256, kernel_size=(1, 1), stride=(1, 1), bias=False)
            (1): BatchNorm2d(256, eps=1e-05, momentum=0.1, affine=True, track_running_stats=True)
            (2): ReLU()
          )
        )
        (upsamples): ModuleList(
          (0): ResizeWith()
          (1): ResizeWith()
          (2): ResizeWith()
        )
        (adds): ModuleList(
          (0): AddBlock(inplace=False, signed=True)
          (1): AddBlock(inplace=False, signed=True)
          (2): AddBlock(inplace=False, signed=True)
        )
      )
      (pred): Sequential(
        (0): Sequential(
          (0): Conv2d(256, 256, kernel_size=(3, 3), stride=(1, 1), padding=(1, 1), groups=16, bias=False)
          (1): BatchNorm2d(256, eps=1e-05, momentum=0.1, affine=True, track_running_stats=True)
        )
        (1): Sequential(
          (0): Conv2d(256, 32, kernel_size=(1, 1), stride=(1, 1), bias=False)
        )
      )
    )
  )
)
[32m=> validation 0.00% of 1x63... rate=0 Hz, eta=?, total=0:00:00, wall=23:09 IST=> validation 0.00% of 1x63... rate=0 Hz, eta=?, total=0:00:00, wall=23:09 IST=> validation 0.00% of 1x63...DataTime=0.8195, Epoch=1/60, Output=[MeanIoU=44.98] rate=0 Hz, eta=?, total=0:00:00, wall=23:09 IST=> validation 1.59% 
…
