…
decoders.0.fpn.shortcuts.3.1.weight
decoders.0.fpn.shortcuts.3.1.bias
decoders.0.fpn.shortcuts.3.1.running_mean
decoders.0.fpn.shortcuts.3.1.running_var
decoders.0.pred.0.0.weight
decoders.0.pred.0.1.weight
decoders.0.pred.0.1.bias
decoders.0.pred.0.1.running_mean
decoders.0.pred.0.1.running_var
decoders.0.pred.1.0.weight
[33m=> The following weights in pre-trained were not used: [39m
head.fc.weight
head.fc.bias
=> Size = [512, 512], GFLOPs = 15.820914688, GMACs = 7.910457344
FPNLitePixel2PixelASPP(
  (encoder): RegNetX800MFMI4(
    (features): Sequential(
      (stem): Sequential(
        (conv): Conv2d(3, 32, kernel_size=(3, 3), stride=(2, 2), padding=(1, 1), bias=False)
        (bn): BatchNorm2d(32, eps=1e-05, momentum=0.1, affine=True, track_running_stats=True)
        (relu1): ReLU(inplace=True)
      )
      (s1): Sequential(
        (b1): RegNetBottleneck(
          (f): Sequential(
            (a): Conv2d(32, 64, kernel_size=(1, 1), stride=(1, 1), bias=False)
            (a_bn): BatchNorm2d(64, eps=1e-05, momentum=0.1, affine=True, track_running_stats=True)
            (a_relu): ReLU(inplace=True)
            (b): Conv2d(64, 64, kernel_size=(3, 3), stride=(2, 2), padding=(1, 1), groups=4, bias=False)
            (b_bn): BatchNorm2d(64, eps=1e-05, momentum=0.1, affine=True, track_running_stats=True)
            (b_relu): ReLU(inplace=True)
            (c): Conv2d(64, 64, kernel_size=(1, 1), stride=(1, 1), bias=False)
            (c_bn): BatchNorm2d(64, eps=1e-05, momentum=0.1, affine=True, track_running_stats=True)
          )
          (proj): Conv2d(32, 64, kernel_size=(1, 1), stride=(2, 2), bias=False)
          (bn): BatchNorm2d(64, eps=1e-05, momentum=0.1, affine=True, track_running_stats=True)
          (add): AddBlock(inplace=False, signed=True)
          (relu): ReLU(inplace=True)
        )
      )
      (s2): Sequential(
        (b1): RegNetBottleneck(
          (f): Sequential(
            (a): Conv2d(64, 128, kernel_size=(1, 1), stride=(1, 1), bias=False)
            (a_bn): BatchNorm2d(128, eps=1e-05, momentum=0.1, affine=True, track_running_stats=True)
            (a_relu): ReLU(inplace=True)
            (b): Conv2d(128, 128, kernel_size=(3, 3), stride=(2, 2), padding=(1, 1), groups=8, bias=False)
            (b_bn): BatchNorm2d(128, eps=1e-05, momentum=0.1, affine=True, track_running_stats=True)
            (b_relu): ReLU(inplace=True)
            (c): Conv2d(128, 128, kernel_size=(1, 1), stride=(1, 1), bias=False)
            (c_bn): BatchNorm2d(128, eps=1e-05, momentum=0.1, affine=True, track_running_stats=True)
          )
          (proj): Conv2d(64, 128, kernel_size=(1, 1), stride=(2, 2), bias=False)
          (bn): BatchNorm2d(128, eps=1e-05, momentum=0.1, affine=True, track_running_stats=True)
          (add): AddBlock(inplace=False, signed=True)
          (relu): ReLU(inplace=True)
        )
        (b2): RegNetBottleneck(
          (f): Sequential(
            (a): Conv2d(128, 128, kernel_size=(1, 1), stride=(1, 1), bias=False)
            (a_bn): BatchNorm2d(128, eps=1e-05, momentum=0.1, affine=True, track_running_stats=True)
            (a_relu): ReLU(inplace=True)
            (b): Conv2d(128, 128, kernel_size=(3, 3), stride=(1, 1), padding=(1, 1), groups=8, bias=False)
            (b_bn): BatchNorm2d(128, eps=1e-05, momentum=0.1, affine=True, track_running_stats=True)
            (b_relu): ReLU(inplace=True)
            (c): Conv2d(128, 128, kernel_size=(1, 1), stride=(1, 1), bias=False)
            (c_bn): BatchNorm2d(128, eps=1e-05, momentum=0.1, affine=True, track_running_stats=True)
          )
          (add): AddBlock(inplace=False, signed=True)
          (relu): ReLU(inplace=True)
        )
        (b3): RegNetBottleneck(
          (f): Sequential(
            (a): Conv2d(128, 128, kernel_size=(1, 1), stride=(1, 1), bias=False)
            (a_bn): BatchNorm2d(128, eps=1e-05, momentum=0.1, affine=True, track_running_stats=True)
            (a_relu): ReLU(inplace=True)
            (b): Conv2d(128, 128, kernel_size=(3, 3), stride=(1, 1), padding=(1, 1), groups=8, bias=False)
            (b_bn): BatchNorm2d(128, eps=1e-05, momentum=0.1, affine=True, track_running_stats=True)
            (b_relu): ReLU(inplace=True)
            (c): Conv2d(128, 128, kernel_size=(1, 1), stride=(1, 1), bias=False)
            (c_bn): BatchNorm2d(128, eps=1e-05, momentum=0.1, affine=True, track_running_stats=True)
          )
          (add): AddBlock(inplace=False, signed=True)
          (relu): ReLU(inplace=True)
        )
      )
      (s3): Sequential(
        (b1): RegNetBottleneck(
          (f): Sequential(
            (a): Conv2d(128, 288, kernel_size=(1, 1), stride=(1, 1), bias=False)
            (a_bn): BatchNorm2d(288, eps=1e-05, momentum=0.1, affine=True, track_running_stats=True)
            (a_relu): ReLU(inplace=True)
            (b): Conv2d(288, 288, kernel_size=(3, 3), stride=(2, 2), padding=(1, 1), groups=18, bias=False)
            (b_bn): BatchNorm2d(288, eps=1e-05, momentum=0.1, affine=True, track_running_stats=True)
            (b_relu): ReLU(inplace=True)
            (c): Conv2d(288, 288, kernel_size=(1, 1), stride=(1, 1), bias=False)
            (c_bn): BatchNorm2d(288, eps=1e-05, momentum=0.1, affine=True, track_running_stats=True)
          )
          (proj): Conv2d(128, 288, kernel_size=(1, 1), stride=(2, 2), bias=False)
          (bn): BatchNorm2d(288, eps=1e-05, momentum=0.1, affine=True, track_running_stats=True)
          (add): AddBlock(inplace=False, signed=True)
          (relu): ReLU(inplace=True)
        )
        (b2): RegNetBottleneck(
          (f): Sequential(
            (a): Conv2d(288, 288, kernel_size=(1, 1), stride=(1, 1), bias=False)
            (a_bn): BatchNorm2d(288, eps=1e-05, momentum=0.1, affine=True, track_running_stats=True)
            (a_relu): ReLU(inplace=True)
            (b): Conv2d(288, 288, kernel_size=(3, 3), stride=(1, 1), padding=(1, 1), groups=18, bias=False)
            (b_bn): BatchNorm2d(288, eps=1e-05, momentum=0.1, affine=True, track_running_stats=True)
            (b_relu): ReLU(inplace=True)
            (c): Conv2d(288, 288, kernel_size=(1, 1), stride=(1, 1), bias=False)
            (c_bn): BatchNorm2d(288, eps=1e-05, momentum=0.1, affine=True, track_running_stats=True)
          )
          (add): AddBlock(inplace=False, signed=True)
          (relu): ReLU(inplace=True)
        )
        (b3): RegNetBottleneck(
          (f): Sequential(
            (a): Conv2d(288, 288, kernel_size=(1, 1), stride=(1, 1), bias=False)
            (a_bn): BatchNorm2d(288, eps=1e-05, momentum=0.1, affine=True, track_running_stats=True)
            (a_relu): ReLU(inplace=True)
            (b): Conv2d(288, 288, kernel_size=(3, 3), stride=(1, 1), padding=(1, 1), groups=18, bias=False)
            (b_bn): BatchNorm2d(288, eps=1e-05, momentum=0.1, affine=True, track_running_stats=True)
            (b_relu): ReLU(inplace=True)
            (c): Conv2d(288, 288, kernel_size=(1, 1), stride=(1, 1), bias=False)
            (c_bn): BatchNorm2d(288, eps=1e-05, momentum=0.1, affine=True, track_running_stats=True)
          )
          (add): AddBlock(inplace=False, signed=True)
          (relu): ReLU(inplace=True)
        )
        (b4): RegNetBottleneck(
          (f): Sequential(
            (a): Conv2d(288, 288, kernel_size=(1, 1), stride=(1, 1), bias=False)
            (a_bn): BatchNorm2d(288, eps=1e-05, momentum=0.1, affine=True, track_running_stats=True)
            (a_relu): ReLU(inplace=True)
            (b): Conv2d(288, 288, kernel_size=(3, 3), stride=(1, 1), padding=(1, 1), groups=18, bias=False)
            (b_bn): BatchNorm2d(288, eps=1e-05, momentum=0.1, affine=True, track_running_stats=True)
            (b_relu): ReLU(inplace=True)
            (c): Conv2d(288, 288, kernel_size=(1, 1), stride=(1, 1), bias=False)
            (c_bn): BatchNorm2d(288, eps=1e-05, momentum=0.1, affine=True, track_running_stats=True)
          )
          (add): AddBlock(inplace=False, signed=True)
          (relu): ReLU(inplace=True)
        )
        (b5): RegNetBottleneck(
          (f): Sequential(
            (a): Conv2d(288, 288, kernel_size=(1, 1), stride=(1, 1), bias=False)
            (a_bn): BatchNorm2d(288, eps=1e-05, momentum=0.1, affine=True, track_running_stats=True)
            (a_relu): ReLU(inplace=True)
            (b): Conv2d(288, 288, kernel_size=(3, 3), stride=(1, 1), padding=(1, 1), groups=18, bias=False)
            (b_bn): BatchNorm2d(288, eps=1e-05, momentum=0.1, affine=True, track_running_stats=True)
            (b_relu): ReLU(inplace=True)
            (c): Conv2d(288, 288, kernel_size=(1, 1), stride=(1, 1), bias=False)
            (c_bn): BatchNorm2d(288, eps=1e-05, momentum=0.1, affine=True, track_running_stats=True)
          )
          (add): AddBlock(inplace=False, signed=True)
          (relu): ReLU(inplace=True)
        )
        (b6): RegNetBottleneck(
          (f): Sequential(
            (a): Conv2d(288, 288, kernel_size=(1, 1), stride=(1, 1), bias=False)
            (a_bn): BatchNorm2d(288, eps=1e-05, momentum=0.1, affine=True, track_running_stats=True)
            (a_relu): ReLU(inplace=True)
            (b): Conv2d(288, 288, kernel_size=(3, 3), stride=(1, 1), padding=(1, 1), groups=18, bias=False)
            (b_bn): BatchNorm2d(288, eps=1e-05, momentum=0.1, affine=True, track_running_stats=True)
            (b_relu): ReLU(inplace=True)
            (c): Conv2d(288, 288, kernel_size=(1, 1), stride=(1, 1), bias=False)
            (c_bn): BatchNorm2d(288, eps=1e-05, momentum=0.1, affine=True, track_running_stats=True)
          )
          (add): AddBlock(inplace=False, signed=True)
          (relu): ReLU(inplace=True)
        )
        (b7): RegNetBottleneck(
          (f): Sequential(
            (a): Conv2d(288, 288, kernel_size=(1, 1), stride=(1, 1), bias=False)
            (a_bn): BatchNorm2d(288, eps=1e-05, momentum=0.1, affine=True, track_running_stats=True)
            (a_relu): ReLU(inplace=True)
            (b): Conv2d(288, 288, kernel_size=(3, 3), stride=(1, 1), padding=(1, 1), groups=18, bias=False)
            (b_bn): BatchNorm2d(288, eps=1e-05, momentum=0.1, affine=True, track_running_stats=True)
            (b_relu): ReLU(inplace=True)
            (c): Conv2d(288, 288, kernel_size=(1, 1), stride=(1, 1), bias=False)
            (c_bn): BatchNorm2d(288, eps=1e-05, momentum=0.1, affine=True, track_running_stats=True)
          )
          (add): AddBlock(inplace=False, signed=True)
          (relu): ReLU(inplace=True)
        )
      )
      (s4): Sequential(
        (b1): RegNetBottleneck(
          (f): Sequential(
            (a): Conv2d(288, 672, kernel_size=(1, 1), stride=(1, 1), bias=False)
            (a_bn): BatchNorm2d(672, eps=1e-05, momentum=0.1, affine=True, track_running_stats=True)
            (a_relu): ReLU(inplace=True)
            (b): Conv2d(672, 672, kernel_size=(3, 3), stride=(2, 2), padding=(1, 1), groups=42, bias=False)
            (b_bn): BatchNorm2d(672, eps=1e-05, momentum=0.1, affine=True, track_running_stats=True)
            (b_relu): ReLU(inplace=True)
            (c): Conv2d(672, 672, kernel_size=(1, 1), stride=(1, 1), bias=False)
            (c_bn): BatchNorm2d(672, eps=1e-05, momentum=0.1, affine=True, track_running_stats=True)
          )
          (proj): Conv2d(288, 672, kernel_size=(1, 1), stride=(2, 2), bias=False)
          (bn): BatchNorm2d(672, eps=1e-05, momentum=0.1, affine=True, track_running_stats=True)
          (add): AddBlock(inplace=False, signed=True)
          (relu): ReLU(inplace=True)
        )
        (b2): RegNetBottleneck(
          (f): Sequential(
            (a): Conv2d(672, 672, kernel_size=(1, 1), stride=(1, 1), bias=False)
            (a_bn): BatchNorm2d(672, eps=1e-05, momentum=0.1, affine=True, track_running_stats=True)
            (a_relu): ReLU(inplace=True)
            (b): Conv2d(672, 672, kernel_size=(3, 3), stride=(1, 1), padding=(1, 1), groups=42, bias=False)
            (b_bn): BatchNorm2d(672, eps=1e-05, momentum=0.1, affine=True, track_running_stats=True)
            (b_relu): ReLU(inplace=True)
            (c): Conv2d(672, 672, kernel_size=(1, 1), stride=(1, 1), bias=False)
            (c_bn): BatchNorm2d(672, eps=1e-05, momentum=0.1, affine=True, track_running_stats=True)
          )
          (add): AddBlock(inplace=False, signed=True)
          (relu): ReLU(inplace=True)
        )
        (b3): RegNetBottleneck(
          (f): Sequential(
            (a): Conv2d(672, 672, kernel_size=(1, 1), stride=(1, 1), bias=False)
            (a_bn): BatchNorm2d(672, eps=1e-05, momentum=0.1, affine=True, track_running_stats=True)
            (a_relu): ReLU(inplace=True)
            (b): Conv2d(672, 672, kernel_size=(3, 3), stride=(1, 1), padding=(1, 1), groups=42, bias=False)
            (b_bn): BatchNorm2d(672, eps=1e-05, momentum=0.1, affine=True, track_running_stats=True)
            (b_relu): ReLU(inplace=True)
            (c): Conv2d(672, 672, kernel_size=(1, 1), stride=(1, 1), bias=False)
            (c_bn): BatchNorm2d(672, eps=1e-05, momentum=0.1, affine=True, track_running_stats=True)
          )
          (add): AddBlock(inplace=False, signed=True)
          (relu): ReLU(inplace=True)
        )
        (b4): RegNetBottleneck(
          (f): Sequential(
            (a): Conv2d(672, 672, kernel_size=(1, 1), stride=(1, 1), bias=False)
            (a_bn): BatchNorm2d(672, eps=1e-05, momentum=0.1, affine=True, track_running_stats=True)
            (a_relu): ReLU(inplace=True)
            (b): Conv2d(672, 672, kernel_size=(3, 3), stride=(1, 1), padding=(1, 1), groups=42, bias=False)
            (b_bn): BatchNorm2d(672, eps=1e-05, momentum=0.1, affine=True, track_running_stats=True)
            (b_relu): ReLU(inplace=True)
            (c): Conv2d(672, 672, kernel_size=(1, 1), stride=(1, 1), bias=False)
            (c_bn): BatchNorm2d(672, eps=1e-05, momentum=0.1, affine=True, track_running_stats=True)
          )
          (add): AddBlock(inplace=False, signed=True)
          (relu): ReLU(inplace=True)
        )
        (b5): RegNetBottleneck(
          (f): Sequential(
            (a): Conv2d(672, 672, kernel_size=(1, 1), stride=(1, 1), bias=False)
            (a_bn): BatchNorm2d(672, eps=1e-05, momentum=0.1, affine=True, track_running_stats=True)
            (a_relu): ReLU(inplace=True)
            (b): Conv2d(672, 672, kernel_size=(3, 3), stride=(1, 1), padding=(1, 1), groups=42, bias=False)
            (b_bn): BatchNorm2d(672, eps=1e-05, momentum=0.1, affine=True, track_running_stats=True)
            (b_relu): ReLU(inplace=True)
            (c): Conv2d(672, 672, kernel_size=(1, 1), stride=(1, 1), bias=False)
            (c_bn): BatchNorm2d(672, eps=1e-05, momentum=0.1, affine=True, track_running_stats=True)
          )
          (add): AddBlock(inplace=False, signed=True)
          (relu): ReLU(inplace=True)
        )
      )
    )
  )
  (decoders): ModuleList(
    (0): FPNLitePixel2PixelDecoder(
      (rfblock): DWASPPLiteBlock(
        (conv1x1): Sequential(
          (0): Conv2d(672, 256, kernel_size=(1, 1), stride=(1, 1), bias=False)
          (1): BatchNorm2d(256, eps=1e-05, momentum=0.1, affine=True, track_running_stats=True)
          (2): ReLU()
        )
        (aspp_bra1): Sequential(
          (0): Sequential(
            (0): Conv2d(672, 672, kernel_size=(3, 3), stride=(1, 1), padding=(6, 6), dilation=(6, 6), groups=42, bias=False)
            (1): BatchNorm2d(672, eps=1e-05, momentum=0.1, affine=True, track_running_stats=True)
            (2): ReLU()
          )
          (1): Sequential(
            (0): Conv2d(672, 256, kernel_size=(1, 1), stride=(1, 1), bias=False)
            (1): BatchNorm2d(256, eps=1e-05, momentum=0.1, affine=True, track_running_stats=True)
            (2): ReLU()
          )
        )
        (aspp_bra2): Sequential(
          (0): Sequential(
            (0): Conv2d(672, 672, kernel_size=(3, 3), stride=(1, 1), padding=(12, 12), dilation=(12, 12), groups=42, bias=False)
            (1): BatchNorm2d(672, eps=1e-05, momentum=0.1, affine=True, track_running_stats=True)
            (2): ReLU()
          )
          (1): Sequential(
            (0): Conv2d(672, 256, kernel_size=(1, 1), stride=(1, 1), bias=False)
            (1): BatchNorm2d(256, eps=1e-05, momentum=0.1, affine=True, track_running_stats=True)
            (2): ReLU()
          )
        )
        (aspp_bra3): Sequential(
          (0): Sequential(
            (0): Conv2d(672, 672, kernel_size=(3, 3), stride=(1, 1), padding=(18, 18), dilation=(18, 18), groups=42, bias=False)
            (1): BatchNorm2d(672, eps=1e-05, momentum=0.1, affine=True, track_running_stats=True)
            (2): ReLU()
          )
          (1): Sequential(
            (0): Conv2d(672, 256, kernel_size=(1, 1), stride=(1, 1), bias=False)
            (1): BatchNorm2d(256, eps=1e-05, momentum=0.1, affine=True, track_running_stats=True)
            (2): ReLU()
          )
        )
        (dropout): Dropout2d(p=0.2, inplace=True)
        (aspp_out): Sequential(
          (0): Conv2d(1024, 256, kernel_size=(1, 1), stride=(1, 1), bias=False)
          (1): BatchNorm2d(256, eps=1e-05, momentum=0.1, affine=True, track_running_stats=True)
          (2): ReLU()
        )
        (cat): CatBlock(inplace=False, signed=True)
      )
      (fpn): InLoopFPNLitePyramid(
        (smooth_convs): ModuleList(
          (0): None
          (1): Sequential(
            (0): Sequential(
              (0): Conv2d(256, 256, kernel_size=(3, 3), stride=(1, 1), padding=(1, 1), groups=16, bias=False)
              (1): BatchNorm2d(256, eps=1e-05, momentum=0.1, affine=True, track_running_stats=True)
              (2): ReLU()
            )
            (1): Sequential(
              (0): Conv2d(256, 256, kernel_size=(1, 1), stride=(1, 1), bias=False)
              (1): BatchNorm2d(256, eps=1e-05, momentum=0.1, affine=True, track_running_stats=True)
              (2): ReLU()
            )
          )
          (2): Sequential(
            (0): Sequential(
              (0): Conv2d(256, 256, kernel_size=(3, 3), stride=(1, 1), padding=(1, 1), groups=16, bias=False)
              (1): BatchNorm2d(256, eps=1e-05, momentum=0.1, affine=True, track_running_stats=True)
              (2): ReLU()
            )
            (1): Sequential(
              (0): Conv2d(256, 256, kernel_size=(1, 1), stride=(1, 1), bias=False)
              (1): BatchNorm2d(256, eps=1e-05, momentum=0.1, affine=True, track_running_stats=True)
              (2): ReLU()
            )
          )
          (3): Sequential(
            (0): Sequential(
              (0): Conv2d(256, 256, kernel_size=(3, 3), stride=(1, 1), padding=(1, 1), groups=16, bias=False)
              (1): BatchNorm2d(256, eps=1e-05, momentum=0.1, affine=True, track_running_stats=True)
              (2): ReLU()
            )
            (1): Sequential(
              (0): Conv2d(256, 256, kernel_size=(1, 1), stride=(1, 1), bias=False)
              (1): BatchNorm2d(256, eps=1e-05, momentum=0.1, affine=True, track_running_stats=True)
              (2): ReLU()
            )
          )
        )
        (shortcuts): ModuleList(
          (0): None
          (1): Sequential(
            (0): Conv2d(288, 256, kernel_size=(1, 1), stride=(1, 1), bias=False)
            (1): BatchNorm2d(256, eps=1e-05, momentum=0.1, affine=True, track_running_stats=True)
            (2): ReLU()
          )
          (2): Sequential(
            (0): Conv2d(128, 256, kernel_size=(1, 1), stride=(1, 1), bias=False)
            (1): BatchNorm2d(256, eps=1e-05, momentum=0.1, affine=True, track_running_stats=True)
            (2): ReLU()
          )
          (3): Sequential(
            (0): Conv2d(64, 256, kernel_size=(1, 1), stride=(1, 1), bias=False)
            (1): BatchNorm2d(256, eps=1e-05, momentum=0.1, affine=True, track_running_stats=True)
            (2): ReLU()
          )
        )
        (upsamples): ModuleList(
          (0): ResizeWith()
          (1): ResizeWith()
          (2): ResizeWith()
        )
        (adds): ModuleList(
          (0): AddBlock(inplace=False, signed=True)
          (1): AddBlock(inplace=False, signed=True)
          (2): AddBlock(inplace=False, signed=True)
        )
      )
      (pred): Sequential(
        (0): Sequential(
          (0): Conv2d(256, 256, kernel_size=(3, 3), stride=(1, 1), padding=(1, 1), groups=16, bias=False)
          (1): BatchNorm2d(256, eps=1e-05, momentum=0.1, affine=True, track_running_stats=True)
        )
        (1): Sequential(
          (0): Conv2d(256, 32, kernel_size=(1, 1), stride=(1, 1), bias=False)
        )
      )
      (upsample): ResizeWith()
    )
  )
)
=> setting sgd optimizer
[32m
=> validation 0.00% of 1x63... rate=0 Hz, eta=?, total=0:00:00, wall=17:05 IST
=> validation 0.00% of 1x63... rate=0 Hz, eta=?, total=0:00:00, wall=17:05 IST
=> validation 0.00% of 1x63...DataTime=1.009, Epoch=1/60, Output=[MeanIoU=0.1099] rate=0 Hz, eta=?, total=0:00:00, wall=17:05 IST
…
