…
rand_scale: (0.2, 1.0)
rand_seed: 1
random_erasing: 0
resume: None
run_soon: True
save_mod_files: False
save_onnx: True
save_path: None
scheduler: cosine
shuffle: True
shuffle_val: True
start_epoch: 0
step_size: 1
stop_epoch: 150
total_batch_size: 512
transforms: None
warmup_epochs: 5
warmup_factor: 0.001
weight_decay: 4e-05
workers: 12
world_size: 1
=> resize resolution: 256
=> crop resolution  : 224
=> creating model 'mobilenetv3_lite_large_x2'
=> Resize = 256, Crop = 224, GFLOPs = 1.353773568, GMACs = 0.676886784
MobileNetV3Lite(
  (features): Sequential(
    (0): ConvBNActivation(
      (0): Conv2d(3, 32, kernel_size=(3, 3), stride=(2, 2), padding=(1, 1), bias=False)
      (1): BatchNorm2d(32, eps=0.001, momentum=0.01, affine=True, track_running_stats=True)
      (2): ReLU(inplace=True)
    )
    (1): InvertedResidual(
      (block): Sequential(
        (0): ConvBNActivation(
          (0): Conv2d(32, 32, kernel_size=(3, 3), stride=(1, 1), padding=(1, 1), groups=32, bias=False)
          (1): BatchNorm2d(32, eps=0.001, momentum=0.01, affine=True, track_running_stats=True)
          (2): ReLU(inplace=True)
        )
        (1): ConvBNActivation(
          (0): Conv2d(32, 32, kernel_size=(1, 1), stride=(1, 1), bias=False)
          (1): BatchNorm2d(32, eps=0.001, momentum=0.01, affine=True, track_running_stats=True)
          (2): Identity()
        )
      )
    )
    (2): InvertedResidual(
      (block): Sequential(
        (0): ConvBNActivation(
          (0): Conv2d(32, 128, kernel_size=(1, 1), stride=(1, 1), bias=False)
          (1): BatchNorm2d(128, eps=0.001, momentum=0.01, affine=True, track_running_stats=True)
          (2): ReLU(inplace=True)
        )
        (1): ConvBNActivation(
          (0): Conv2d(128, 128, kernel_size=(3, 3), stride=(2, 2), padding=(1, 1), groups=128, bias=False)
          (1): BatchNorm2d(128, eps=0.001, momentum=0.01, affine=True, track_running_stats=True)
          (2): ReLU(inplace=True)
        )
        (2): ConvBNActivation(
          (0): Conv2d(128, 48, kernel_size=(1, 1), stride=(1, 1), bias=False)
          (1): BatchNorm2d(48, eps=0.001, momentum=0.01, affine=True, track_running_stats=True)
          (2): Identity()
        )
      )
    )
    (3): InvertedResidual(
      (block): Sequential(
        (0): ConvBNActivation(
          (0): Conv2d(48, 144, kernel_size=(1, 1), stride=(1, 1), bias=False)
          (1): BatchNorm2d(144, eps=0.001, momentum=0.01, affine=True, track_running_stats=True)
          (2): ReLU(inplace=True)
        )
        (1): ConvBNActivation(
          (0): Conv2d(144, 144, kernel_size=(3, 3), stride=(1, 1), padding=(1, 1), groups=144, bias=False)
          (1): BatchNorm2d(144, eps=0.001, momentum=0.01, affine=True, track_running_stats=True)
          (2): ReLU(inplace=True)
        )
        (2): ConvBNActivation(
          (0): Conv2d(144, 48, kernel_size=(1, 1), stride=(1, 1), bias=False)
          (1): BatchNorm2d(48, eps=0.001, momentum=0.01, affine=True, track_running_stats=True)
          (2): Identity()
        )
      )
    )
    (4): InvertedResidual(
      (block): Sequential(
        (0): ConvBNActivation(
          (0): Conv2d(48, 144, kernel_size=(1, 1), stride=(1, 1), bias=False)
          (1): BatchNorm2d(144, eps=0.001, momentum=0.01, affine=True, track_running_stats=True)
          (2): ReLU(inplace=True)
        )
        (1): ConvBNActivation(
          (0): Conv2d(144, 144, kernel_size=(5, 5), stride=(2, 2), padding=(2, 2), groups=144, bias=False)
          (1): BatchNorm2d(144, eps=0.001, momentum=0.01, affine=True, track_running_stats=True)
          (2): ReLU(inplace=True)
        )
        (2): ConvBNActivation(
          (0): Conv2d(144, 80, kernel_size=(1, 1), stride=(1, 1), bias=False)
          (1): BatchNorm2d(80, eps=0.001, momentum=0.01, affine=True, track_running_stats=True)
          (2): Identity()
        )
      )
    )
    (5): InvertedResidual(
      (block): Sequential(
        (0): ConvBNActivation(
          (0): Conv2d(80, 240, kernel_size=(1, 1), stride=(1, 1), bias=False)
          (1): BatchNorm2d(240, eps=0.001, momentum=0.01, affine=True, track_running_stats=True)
          (2): ReLU(inplace=True)
        )
        (1): ConvBNActivation(
          (0): Conv2d(240, 240, kernel_size=(5, 5), stride=(1, 1), padding=(2, 2), groups=240, bias=False)
          (1): BatchNorm2d(240, eps=0.001, momentum=0.01, affine=True, track_running_stats=True)
          (2): ReLU(inplace=True)
        )
        (2): ConvBNActivation(
          (0): Conv2d(240, 80, kernel_size=(1, 1), stride=(1, 1), bias=False)
          (1): BatchNorm2d(80, eps=0.001, momentum=0.01, affine=True, track_running_stats=True)
          (2): Identity()
        )
      )
    )
    (6): InvertedResidual(
      (block): Sequential(
        (0): ConvBNActivation(
          (0): Conv2d(80, 240, kernel_size=(1, 1), stride=(1, 1), bias=False)
          (1): BatchNorm2d(240, eps=0.001, momentum=0.01, affine=True, track_running_stats=True)
          (2): ReLU(inplace=True)
        )
        (1): ConvBNActivation(
          (0): Conv2d(240, 240, kernel_size=(5, 5), stride=(1, 1), padding=(2, 2), groups=240, bias=False)
          (1): BatchNorm2d(240, eps=0.001, momentum=0.01, affine=True, track_running_stats=True)
          (2): ReLU(inplace=True)
        )
        (2): ConvBNActivation(
          (0): Conv2d(240, 80, kernel_size=(1, 1), stride=(1, 1), bias=False)
          (1): BatchNorm2d(80, eps=0.001, momentum=0.01, affine=True, track_running_stats=True)
          (2): Identity()
        )
      )
    )
    (7): InvertedResidual(
      (block): Sequential(
        (0): ConvBNActivation(
          (0): Conv2d(80, 480, kernel_size=(1, 1), stride=(1, 1), bias=False)
          (1): BatchNorm2d(480, eps=0.001, momentum=0.01, affine=True, track_running_stats=True)
          (2): ReLU(inplace=True)
        )
        (1): ConvBNActivation(
          (0): Conv2d(480, 480, kernel_size=(3, 3), stride=(2, 2), padding=(1, 1), groups=480, bias=False)
          (1): BatchNorm2d(480, eps=0.001, momentum=0.01, affine=True, track_running_stats=True)
          (2): ReLU(inplace=True)
        )
        (2): ConvBNActivation(
          (0): Conv2d(480, 160, kernel_size=(1, 1), stride=(1, 1), bias=False)
          (1): BatchNorm2d(160, eps=0.001, momentum=0.01, affine=True, track_running_stats=True)
          (2): Identity()
        )
      )
    )
    (8): InvertedResidual(
      (block): Sequential(
        (0): ConvBNActivation(
          (0): Conv2d(160, 400, kernel_size=(1, 1), stride=(1, 1), bias=False)
          (1): BatchNorm2d(400, eps=0.001, momentum=0.01, affine=True, track_running_stats=True)
          (2): ReLU(inplace=True)
        )
        (1): ConvBNActivation(
          (0): Conv2d(400, 400, kernel_size=(3, 3), stride=(1, 1), padding=(1, 1), groups=400, bias=False)
          (1): BatchNorm2d(400, eps=0.001, momentum=0.01, affine=True, track_running_stats=True)
          (2): ReLU(inplace=True)
        )
        (2): ConvBNActivation(
          (0): Conv2d(400, 160, kernel_size=(1, 1), stride=(1, 1), bias=False)
          (1): BatchNorm2d(160, eps=0.001, momentum=0.01, affine=True, track_running_stats=True)
          (2): Identity()
        )
      )
    )
    (9): InvertedResidual(
      (block): Sequential(
        (0): ConvBNActivation(
          (0): Conv2d(160, 368, kernel_size=(1, 1), stride=(1, 1), bias=False)
          (1): BatchNorm2d(368, eps=0.001, momentum=0.01, affine=True, track_running_stats=True)
          (2): ReLU(inplace=True)
        )
        (1): ConvBNActivation(
          (0): Conv2d(368, 368, kernel_size=(3, 3), stride=(1, 1), padding=(1, 1), groups=368, bias=False)
          (1): BatchNorm2d(368, eps=0.001, momentum=0.01, affine=True, track_running_stats=True)
          (2): ReLU(inplace=True)
        )
        (2): ConvBNActivation(
          (0): Conv2d(368, 160, kernel_size=(1, 1), stride=(1, 1), bias=False)
          (1): BatchNorm2d(160, eps=0.001, momentum=0.01, affine=True, track_running_stats=True)
          (2): Identity()
        )
      )
    )
    (10): InvertedResidual(
      (block): Sequential(
        (0): ConvBNActivation(
          (0): Conv2d(160, 368, kernel_size=(1, 1), stride=(1, 1), bias=False)
          (1): BatchNorm2d(368, eps=0.001, momentum=0.01, affine=True, track_running_stats=True)
          (2): ReLU(inplace=True)
        )
        (1): ConvBNActivation(
          (0): Conv2d(368, 368, kernel_size=(3, 3), stride=(1, 1), padding=(1, 1), groups=368, bias=False)
          (1): BatchNorm2d(368, eps=0.001, momentum=0.01, affine=True, track_running_stats=True)
          (2): ReLU(inplace=True)
        )
        (2): ConvBNActivation(
          (0): Conv2d(368, 160, kernel_size=(1, 1), stride=(1, 1), bias=False)
          (1): BatchNorm2d(160, eps=0.001, momentum=0.01, affine=True, track_running_stats=True)
          (2): Identity()
        )
      )
    )
    (11): InvertedResidual(
      (block): Sequential(
        (0): ConvBNActivation(
          (0): Conv2d(160, 960, kernel_size=(1, 1), stride=(1, 1), bias=False)
          (1): BatchNorm2d(960, eps=0.001, momentum=0.01, affine=True, track_running_stats=True)
          (2): ReLU(inplace=True)
        )
        (1): ConvBNActivation(
          (0): Conv2d(960, 960, kernel_size=(3, 3), stride=(1, 1), padding=(1, 1), groups=960, bias=False)
          (1): BatchNorm2d(960, eps=0.001, momentum=0.01, affine=True, track_running_stats=True)
          (2): ReLU(inplace=True)
        )
        (2): ConvBNActivation(
          (0): Conv2d(960, 224, kernel_size=(1, 1), stride=(1, 1), bias=False)
          (1): BatchNorm2d(224, eps=0.001, momentum=0.01, affine=True, track_running_stats=True)
          (2): Identity()
        )
      )
    )
    (12): InvertedResidual(
      (block): Sequential(
        (0): ConvBNActivation(
          (0): Conv2d(224, 1344, kernel_size=(1, 1), stride=(1, 1), bias=False)
          (1): BatchNorm2d(1344, eps=0.001, momentum=0.01, affine=True, track_running_stats=True)
          (2): ReLU(inplace=True)
        )
        (1): ConvBNActivation(
          (0): Conv2d(1344, 1344, kernel_size=(3, 3), stride=(1, 1), padding=(1, 1), groups=1344, bias=False)
          (1): BatchNorm2d(1344, eps=0.001, momentum=0.01, affine=True, track_running_stats=True)
          (2): ReLU(inplace=True)
        )
        (2): ConvBNActivation(
          (0): Conv2d(1344, 224, kernel_size=(1, 1), stride=(1, 1), bias=False)
          (1): BatchNorm2d(224, eps=0.001, momentum=0.01, affine=True, track_running_stats=True)
          (2): Identity()
        )
      )
    )
    (13): InvertedResidual(
      (block): Sequential(
        (0): ConvBNActivation(
          (0): Conv2d(224, 1344, kernel_size=(1, 1), stride=(1, 1), bias=False)
          (1): BatchNorm2d(1344, eps=0.001, momentum=0.01, affine=True, track_running_stats=True)
          (2): ReLU(inplace=True)
        )
        (1): ConvBNActivation(
          (0): Conv2d(1344, 1344, kernel_size=(5, 5), stride=(2, 2), padding=(2, 2), groups=1344, bias=False)
          (1): BatchNorm2d(1344, eps=0.001, momentum=0.01, affine=True, track_running_stats=True)
          (2): ReLU(inplace=True)
        )
        (2): ConvBNActivation(
          (0): Conv2d(1344, 160, kernel_size=(1, 1), stride=(1, 1), bias=False)
          (1): BatchNorm2d(160, eps=0.001, momentum=0.01, affine=True, track_running_stats=True)
          (2): Identity()
        )
      )
    )
    (14): InvertedResidual(
      (block): Sequential(
        (0): ConvBNActivation(
          (0): Conv2d(160, 960, kernel_size=(1, 1), stride=(1, 1), bias=False)
          (1): BatchNorm2d(960, eps=0.001, momentum=0.01, affine=True, track_running_stats=True)
          (2): ReLU(inplace=True)
        )
        (1): ConvBNActivation(
          (0): Conv2d(960, 960, kernel_size=(5, 5), stride=(1, 1), padding=(2, 2), groups=960, bias=False)
          (1): BatchNorm2d(960, eps=0.001, momentum=0.01, affine=True, track_running_stats=True)
          (2): ReLU(inplace=True)
        )
        (2): ConvBNActivation(
          (0): Conv2d(960, 160, kernel_size=(1, 1), stride=(1, 1), bias=False)
          (1): BatchNorm2d(160, eps=0.001, momentum=0.01, affine=True, track_running_stats=True)
          (2): Identity()
        )
      )
    )
    (15): InvertedResidual(
      (block): Sequential(
        (0): ConvBNActivation(
          (0): Conv2d(160, 960, kernel_size=(1, 1), stride=(1, 1), bias=False)
          (1): BatchNorm2d(960, eps=0.001, momentum=0.01, affine=True, track_running_stats=True)
          (2): ReLU(inplace=True)
        )
        (1): ConvBNActivation(
          (0): Conv2d(960, 960, kernel_size=(5, 5), stride=(1, 1), padding=(2, 2), groups=960, bias=False)
          (1): BatchNorm2d(960, eps=0.001, momentum=0.01, affine=True, track_running_stats=True)
          (2): ReLU(inplace=True)
        )
        (2): ConvBNActivation(
          (0): Conv2d(960, 160, kernel_size=(1, 1), stride=(1, 1), bias=False)
          (1): BatchNorm2d(160, eps=0.001, momentum=0.01, affine=True, track_running_stats=True)
          (2): Identity()
        )
      )
    )
    (16): ConvBNActivation(
      (0): Conv2d(160, 960, kernel_size=(1, 1), stride=(1, 1), bias=False)
      (1): BatchNorm2d(960, eps=0.001, momentum=0.01, affine=True, track_running_stats=True)
      (2): ReLU(inplace=True)
    )
  )
  (avgpool): AdaptiveAvgPool2d(output_size=1)
  (classifier): Sequential(
    (0): Linear(in_features=960, out_features=1280, bias=True)
    (1): ReLU()
    (2): Dropout(p=0.2, inplace=True)
    (3): Linear(in_features=1280, out_features=1000, bias=True)
  )
)=> args:  {'model_config': {'input_channels': 3, 'output_type': 'classification', 'output_channels': None, 'strides': None, 'num_tiles_x': 1, 'num_tiles_y': 1, 'en_make_divisible_by8': True, 'enable_fp16': False, 'num_classes': 1000}, 'dataset_config': {}, 'input_channel_reverse': False, 'data_path': './data/datasets/image_folder_classification'
…
