…
print_model: False
quantize: False
rand_scale: (0.2, 1.0)
rand_seed: 1
resume: None
run_soon: True
save_mod_files: False
save_onnx: True
save_path: None
scheduler: cosine
shuffle: True
shuffle_val: True
start_epoch: 0
step_size: 1
stop_epoch: 150
total_batch_size: 512
transforms: None
warmup_epochs: 5
warmup_factor: 0.001
weight_decay: 4e-05
workers: 12
world_size: 1
=> resize resolution: 256
=> crop resolution  : 224
=> creating model 'mobilenetv3_lite_small_x1'
=> Resize = 256, Crop = 224, GFLOPs = 0.108875648, GMACs = 0.054437824
MobileNetV3Lite(
  (features): Sequential(
    (0): ConvBNActivation(
      (0): Conv2d(3, 16, kernel_size=(3, 3), stride=(2, 2), padding=(1, 1), bias=False)
      (1): BatchNorm2d(16, eps=0.001, momentum=0.01, affine=True, track_running_stats=True)
      (2): ReLU(inplace=True)
    )
    (1): InvertedResidual(
      (block): Sequential(
        (0): ConvBNActivation(
          (0): Conv2d(16, 16, kernel_size=(3, 3), stride=(2, 2), padding=(1, 1), groups=16, bias=False)
          (1): BatchNorm2d(16, eps=0.001, momentum=0.01, affine=True, track_running_stats=True)
          (2): ReLU(inplace=True)
        )
        (1): ConvBNActivation(
          (0): Conv2d(16, 16, kernel_size=(1, 1), stride=(1, 1), bias=False)
          (1): BatchNorm2d(16, eps=0.001, momentum=0.01, affine=True, track_running_stats=True)
          (2): Identity()
        )
      )
    )
    (2): InvertedResidual(
      (block): Sequential(
        (0): ConvBNActivation(
          (0): Conv2d(16, 72, kernel_size=(1, 1), stride=(1, 1), bias=False)
          (1): BatchNorm2d(72, eps=0.001, momentum=0.01, affine=True, track_running_stats=True)
          (2): ReLU(inplace=True)
        )
        (1): ConvBNActivation(
          (0): Conv2d(72, 72, kernel_size=(3, 3), stride=(2, 2), padding=(1, 1), groups=72, bias=False)
          (1): BatchNorm2d(72, eps=0.001, momentum=0.01, affine=True, track_running_stats=True)
          (2): ReLU(inplace=True)
        )
        (2): ConvBNActivation(
          (0): Conv2d(72, 24, kernel_size=(1, 1), stride=(1, 1), bias=False)
          (1): BatchNorm2d(24, eps=0.001, momentum=0.01, affine=True, track_running_stats=True)
          (2): Identity()
        )
      )
    )
    (3): InvertedResidual(
      (block): Sequential(
        (0): ConvBNActivation(
          (0): Conv2d(24, 88, kernel_size=(1, 1), stride=(1, 1), bias=False)
          (1): BatchNorm2d(88, eps=0.001, momentum=0.01, affine=True, track_running_stats=True)
          (2): ReLU(inplace=True)
        )
        (1): ConvBNActivation(
          (0): Conv2d(88, 88, kernel_size=(3, 3), stride=(1, 1), padding=(1, 1), groups=88, bias=False)
          (1): BatchNorm2d(88, eps=0.001, momentum=0.01, affine=True, track_running_stats=True)
          (2): ReLU(inplace=True)
        )
        (2): ConvBNActivation(
          (0): Conv2d(88, 24, kernel_size=(1, 1), stride=(1, 1), bias=False)
          (1): BatchNorm2d(24, eps=0.001, momentum=0.01, affine=True, track_running_stats=True)
          (2): Identity()
        )
      )
    )
    (4): InvertedResidual(
      (block): Sequential(
        (0): ConvBNActivation(
          (0): Conv2d(24, 96, kernel_size=(1, 1), stride=(1, 1), bias=False)
          (1): BatchNorm2d(96, eps=0.001, momentum=0.01, affine=True, track_running_stats=True)
          (2): ReLU(inplace=True)
        )
        (1): ConvBNActivation(
          (0): Conv2d(96, 96, kernel_size=(5, 5), stride=(2, 2), padding=(2, 2), groups=96, bias=False)
          (1): BatchNorm2d(96, eps=0.001, momentum=0.01, affine=True, track_running_stats=True)
          (2): ReLU(inplace=True)
        )
        (2): ConvBNActivation(
          (0): Conv2d(96, 40, kernel_size=(1, 1), stride=(1, 1), bias=False)
          (1): BatchNorm2d(40, eps=0.001, momentum=0.01, affine=True, track_running_stats=True)
          (2): Identity()
        )
      )
    )
    (5): InvertedResidual(
      (block): Sequential(
        (0): ConvBNActivation(
          (0): Conv2d(40, 240, kernel_size=(1, 1), stride=(1, 1), bias=False)
          (1): BatchNorm2d(240, eps=0.001, momentum=0.01, affine=True, track_running_stats=True)
          (2): ReLU(inplace=True)
        )
        (1): ConvBNActivation(
          (0): Conv2d(240, 240, kernel_size=(5, 5), stride=(1, 1), padding=(2, 2), groups=240, bias=False)
          (1): BatchNorm2d(240, eps=0.001, momentum=0.01, affine=True, track_running_stats=True)
          (2): ReLU(inplace=True)
        )
        (2): ConvBNActivation(
          (0): Conv2d(240, 40, kernel_size=(1, 1), stride=(1, 1), bias=False)
          (1): BatchNorm2d(40, eps=0.001, momentum=0.01, affine=True, track_running_stats=True)
          (2): Identity()
        )
      )
    )
    (6): InvertedResidual(
      (block): Sequential(
        (0): ConvBNActivation(
          (0): Conv2d(40, 240, kernel_size=(1, 1), stride=(1, 1), bias=False)
          (1): BatchNorm2d(240, eps=0.001, momentum=0.01, affine=True, track_running_stats=True)
          (2): ReLU(inplace=True)
        )
        (1): ConvBNActivation(
          (0): Conv2d(240, 240, kernel_size=(5, 5), stride=(1, 1), padding=(2, 2), groups=240, bias=False)
          (1): BatchNorm2d(240, eps=0.001, momentum=0.01, affine=True, track_running_stats=True)
          (2): ReLU(inplace=True)
        )
        (2): ConvBNActivation(
          (0): Conv2d(240, 40, kernel_size=(1, 1), stride=(1, 1), bias=False)
          (1): BatchNorm2d(40, eps=0.001, momentum=0.01, affine=True, track_running_stats=True)
          (2): Identity()
        )
      )
    )
    (7): InvertedResidual(
      (block): Sequential(
        (0): ConvBNActivation(
          (0): Conv2d(40, 120, kernel_size=(1, 1), stride=(1, 1), bias=False)
          (1): BatchNorm2d(120, eps=0.001, momentum=0.01, affine=True, track_running_stats=True)
          (2): ReLU(inplace=True)
        )
        (1): ConvBNActivation(
          (0): Conv2d(120, 120, kernel_size=(5, 5), stride=(1, 1), padding=(2, 2), groups=120, bias=False)
          (1): BatchNorm2d(120, eps=0.001, momentum=0.01, affine=True, track_running_stats=True)
          (2): ReLU(inplace=True)
        )
        (2): ConvBNActivation(
          (0): Conv2d(120, 48, kernel_size=(1, 1), stride=(1, 1), bias=False)
          (1): BatchNorm2d(48, eps=0.001, momentum=0.01, affine=True, track_running_stats=True)
          (2): Identity()
        )
      )
    )
    (8): InvertedResidual(
      (block): Sequential(
        (0): ConvBNActivation(
          (0): Conv2d(48, 144, kernel_size=(1, 1), stride=(1, 1), bias=False)
          (1): BatchNorm2d(144, eps=0.001, momentum=0.01, affine=True, track_running_stats=True)
          (2): ReLU(inplace=True)
        )
        (1): ConvBNActivation(
          (0): Conv2d(144, 144, kernel_size=(5, 5), stride=(1, 1), padding=(2, 2), groups=144, bias=False)
          (1): BatchNorm2d(144, eps=0.001, momentum=0.01, affine=True, track_running_stats=True)
          (2): ReLU(inplace=True)
        )
        (2): ConvBNActivation(
          (0): Conv2d(144, 48, kernel_size=(1, 1), stride=(1, 1), bias=False)
          (1): BatchNorm2d(48, eps=0.001, momentum=0.01, affine=True, track_running_stats=True)
          (2): Identity()
        )
      )
    )
    (9): InvertedResidual(
      (block): Sequential(
        (0): ConvBNActivation(
          (0): Conv2d(48, 288, kernel_size=(1, 1), stride=(1, 1), bias=False)
          (1): BatchNorm2d(288, eps=0.001, momentum=0.01, affine=True, track_running_stats=True)
          (2): ReLU(inplace=True)
        )
        (1): ConvBNActivation(
          (0): Conv2d(288, 288, kernel_size=(5, 5), stride=(2, 2), padding=(2, 2), groups=288, bias=False)
          (1): BatchNorm2d(288, eps=0.001, momentum=0.01, affine=True, track_running_stats=True)
          (2): ReLU(inplace=True)
        )
        (2): ConvBNActivation(
          (0): Conv2d(288, 96, kernel_size=(1, 1), stride=(1, 1), bias=False)
          (1): BatchNorm2d(96, eps=0.001, momentum=0.01, affine=True, track_running_stats=True)
          (2): Identity()
        )
      )
    )
    (10): InvertedResidual(
      (block): Sequential(
        (0): ConvBNActivation(
          (0): Conv2d(96, 576, kernel_size=(1, 1), stride=(1, 1), bias=False)
          (1): BatchNorm2d(576, eps=0.001, momentum=0.01, affine=True, track_running_stats=True)
          (2): ReLU(inplace=True)
        )
        (1): ConvBNActivation(
          (0): Conv2d(576, 576, kernel_size=(5, 5), stride=(1, 1), padding=(2, 2), groups=576, bias=False)
          (1): BatchNorm2d(576, eps=0.001, momentum=0.01, affine=True, track_running_stats=True)
          (2): ReLU(inplace=True)
        )
        (2): ConvBNActivation(
          (0): Conv2d(576, 96, kernel_size=(1, 1), stride=(1, 1), bias=False)
          (1): BatchNorm2d(96, eps=0.001, momentum=0.01, affine=True, track_running_stats=True)
          (2): Identity()
        )
      )
    )
    (11): InvertedResidual(
      (block): Sequential(
        (0): ConvBNActivation(
          (0): Conv2d(96, 576, kernel_size=(1, 1), stride=(1, 1), bias=False)
          (1): BatchNorm2d(576, eps=0.001, momentum=0.01, affine=True, track_running_stats=True)
          (2): ReLU(inplace=True)
        )
        (1): ConvBNActivation(
          (0): Conv2d(576, 576, kernel_size=(5, 5), stride=(1, 1), padding=(2, 2), groups=576, bias=False)
          (1): BatchNorm2d(576, eps=0.001, momentum=0.01, affine=True, track_running_stats=True)
          (2): ReLU(inplace=True)
        )
        (2): ConvBNActivation(
          (0): Conv2d(576, 96, kernel_size=(1, 1), stride=(1, 1), bias=False)
          (1): BatchNorm2d(96, eps=0.001, momentum=0.01, affine=True, track_running_stats=True)
          (2): Identity()
        )
      )
    )
    (12): ConvBNActivation(
      (0): Conv2d(96, 576, kernel_size=(1, 1), stride=(1, 1), bias=False)
      (1): BatchNorm2d(576, eps=0.001, momentum=0.01, affine=True, track_running_stats=True)
      (2): ReLU(inplace=True)
    )
  )
  (avgpool): AdaptiveAvgPool2d(output_size=1)
  (classifier): Sequential(
    (0): Linear(in_features=576, out_features=1024, bias=True)
    (1): ReLU()
    (2): Dropout(p=0.2, inplace=True)
    (3): Linear(in_features=1024, out_features=1000, bias=True)
  )
)=> args:  {'model_config': {'input_channels': 3, 'output_type': 'classification', 'output_channels': None, 'strides': None, 'num_tiles_x': 1, 'num_tiles_y': 1, 'en_make_divisible_by8': True, 'enable_fp16': False, 'num_classes': 1000}, 'dataset_config': {}, 'input_channel_reverse': False, 'data_path': './data/datasets/image_folder_classification'
…
