…
            dict(type='Pad', size_divisor=32),
            dict(type='ImageToTensor', keys=['img']),
            dict(type='Collect', keys=['img'])
        ])
]
work_dir = './work_dirs/retinanet-lite_regnet_fpn_bgr'
gpu_ids = range(0, 1)

2020-09-08 22:24:57,401 - mmdet - INFO - load model from: open-mmlab://regnetx_800mf
2020-09-08 22:25:02,048 - mmdet - WARNING - The model and loaded state dict do not match exactly

unexpected key in source state_dict: fc.weight, fc.bias

2020-09-08 22:25:03,808 - mmdet - INFO - RetinaNet(
  11.093 GMac, 100.000% MACs, 
  (backbone): RegNet(
    4.253 GMac, 38.340% MACs, 
    (conv1): Conv2d(0.057 GMac, 0.510% MACs, 3, 32, kernel_size=(3, 3), stride=(2, 2), padding=(1, 1), bias=False)
    (bn1): BatchNorm2d(0.004 GMac, 0.038% MACs, 32, eps=1e-05, momentum=0.1, affine=True, track_running_stats=True)
    (relu): ReLU(0.002 GMac, 0.019% MACs, inplace=True)
    (layer1): ResLayer(
      0.407 GMac, 3.667% MACs, 
      (0): Bottleneck(
        0.407 GMac, 3.667% MACs, 
        (conv1): Conv2d(0.134 GMac, 1.210% MACs, 32, 64, kernel_size=(1, 1), stride=(1, 1), bias=False)
        (bn1): BatchNorm2d(0.008 GMac, 0.076% MACs, 64, eps=1e-05, momentum=0.1, affine=True, track_running_stats=True)
        (conv2): Conv2d(0.151 GMac, 1.361% MACs, 64, 64, kernel_size=(3, 3), stride=(2, 2), padding=(1, 1), groups=4, bias=False)
        (bn2): BatchNorm2d(0.002 GMac, 0.019% MACs, 64, eps=1e-05, momentum=0.1, affine=True, track_running_stats=True)
        (conv3): Conv2d(0.067 GMac, 0.605% MACs, 64, 64, kernel_size=(1, 1), stride=(1, 1), bias=False)
        (bn3): BatchNorm2d(0.002 GMac, 0.019% MACs, 64, eps=1e-05, momentum=0.1, affine=True, track_running_stats=True)
        (relu1): ReLU(0.004 GMac, 0.038% MACs, inplace=True)
        (relu2): ReLU(0.001 GMac, 0.009% MACs, inplace=True)
        (relu3): ReLU(0.001 GMac, 0.009% MACs, inplace=True)
        (downsample): Sequential(
          0.036 GMac, 0.321% MACs, 
          (0): Conv2d(0.034 GMac, 0.302% MACs, 32, 64, kernel_size=(1, 1), stride=(2, 2), bias=False)
          (1): BatchNorm2d(0.002 GMac, 0.019% MACs, 64, eps=1e-05, momentum=0.1, affine=True, track_running_stats=True)
        )
        (add): AddBlock(inplace=False, signed=True)
      )
    )
    (layer2): ResLayer(
      0.75 GMac, 6.758% MACs, 
      (0): Bottleneck(
        0.321 GMac, 2.892% MACs, 
        (conv1): Conv2d(0.134 GMac, 1.210% MACs, 64, 128, kernel_size=(1, 1), stride=(1, 1), bias=False)
        (bn1): BatchNorm2d(0.004 GMac, 0.038% MACs, 128, eps=1e-05, momentum=0.1, affine=True, track_running_stats=True)
        (conv2): Conv2d(0.075 GMac, 0.681% MACs, 128, 128, kernel_size=(3, 3), stride=(2, 2), padding=(1, 1), groups=8, bias=False)
        (bn2): BatchNorm2d(0.001 GMac, 0.009% MACs, 128, eps=1e-05, momentum=0.1, affine=True, track_running_stats=True)
        (conv3): Conv2d(0.067 GMac, 0.605% MACs, 128, 128, kernel_size=(1, 1), stride=(1, 1), bias=False)
        (bn3): BatchNorm2d(0.001 GMac, 0.009% MACs, 128, eps=1e-05, momentum=0.1, affine=True, track_running_stats=True)
        (relu1): ReLU(0.002 GMac, 0.019% MACs, inplace=True)
        (relu2): ReLU(0.001 GMac, 0.005% MACs, inplace=True)
        (relu3): ReLU(0.001 GMac, 0.005% MACs, inplace=True)
        (downsample): Sequential(
          0.035 GMac, 0.312% MACs, 
          (0): Conv2d(0.034 GMac, 0.302% MACs, 64, 128, kernel_size=(1, 1), stride=(2, 2), bias=False)
          (1): BatchNorm2d(0.001 GMac, 0.009% MACs, 128, eps=1e-05, momentum=0.1, affine=True, track_running_stats=True)
        )
        (add): AddBlock(inplace=False, signed=True)
      )
      (1): Bottleneck(
        0.214 GMac, 1.933% MACs, 
        (conv1): Conv2d(0.067 GMac, 0.605% MACs, 128, 128, kernel_size=(1, 1), stride=(1, 1), bias=False)
        (bn1): BatchNorm2d(0.001 GMac, 0.009% MACs, 128, eps=1e-05, momentum=0.1, affine=True, track_running_stats=True)
        (conv2): Conv2d(0.075 GMac, 0.681% MACs, 128, 128, kernel_size=(3, 3), stride=(1, 1), padding=(1, 1), groups=8, bias=False)
        (bn2): BatchNorm2d(0.001 GMac, 0.009% MACs, 128, eps=1e-05, momentum=0.1, affine=True, track_running_stats=True)
        (conv3): Conv2d(0.067 GMac, 0.605% MACs, 128, 128, kernel_size=(1, 1), stride=(1, 1), bias=False)
        (bn3): BatchNorm2d(0.001 GMac, 0.009% MACs, 128, eps=1e-05, momentum=0.1, affine=True, track_running_stats=True)
        (relu1): ReLU(0.001 GMac, 0.005% MACs, inplace=True)
        (relu2): ReLU(0.001 GMac, 0.005% MACs, inplace=True)
        (relu3): ReLU(0.001 GMac, 0.005% MACs, inplace=True)
        (add): AddBlock(inplace=False, signed=True)
      )
      (2): Bottleneck(
        0.214 GMac, 1.933% MACs, 
        (conv1): Conv2d(0.067 GMac, 0.605% MACs, 128, 128, kernel_size=(1, 1), stride=(1, 1), bias=False)
        (bn1): BatchNorm2d(0.001 GMac, 0.009% MACs, 128, eps=1e-05, momentum=0.1, affine=True, track_running_stats=True)
        (conv2): Conv2d(0.075 GMac, 0.681% MACs, 128, 128, kernel_size=(3, 3), stride=(1, 1), padding=(1, 1), groups=8, bias=False)
        (bn2): BatchNorm2d(0.001 GMac, 0.009% MACs, 128, eps=1e-05, momentum=0.1, affine=True, track_running_stats=True)
        (conv3): Conv2d(0.067 GMac, 0.605% MACs, 128, 128, kernel_size=(1, 1), stride=(1, 1), bias=False)
        (bn3): BatchNorm2d(0.001 GMac, 0.009% MACs, 128, eps=1e-05, momentum=0.1, affine=True, track_running_stats=True)
        (relu1): ReLU(0.001 GMac, 0.005% MACs, inplace=True)
        (relu2): ReLU(0.001 GMac, 0.005% MACs, inplace=True)
        (relu3): ReLU(0.001 GMac, 0.005% MACs, inplace=True)
        (add): AddBlock(inplace=False, signed=True)
      )
    )
    (layer3): ResLayer(
      1.612 GMac, 14.531% MACs, 
      (0): Bottleneck(
        0.322 GMac, 2.903% MACs, 
        (conv1): Conv2d(0.151 GMac, 1.361% MACs, 128, 288, kernel_size=(1, 1), stride=(1, 1), bias=False)
        (bn1): BatchNorm2d(0.002 GMac, 0.021% MACs, 288, eps=1e-05, momentum=0.1, affine=True, track_running_stats=True)
        (conv2): Conv2d(0.042 GMac, 0.383% MACs, 288, 288, kernel_size=(3, 3), stride=(2, 2), padding=(1, 1), groups=18, bias=False)
        (bn2): BatchNorm2d(0.001 GMac, 0.005% MACs, 288, eps=1e-05, momentum=0.1, affine=True, track_running_stats=True)
        (conv3): Conv2d(0.085 GMac, 0.766% MACs, 288, 288, kernel_size=(1, 1), stride=(1, 1), bias=False)
        (bn3): BatchNorm2d(0.001 GMac, 0.005% MACs, 288, eps=1e-05, momentum=0.1, affine=True, track_running_stats=True)
        (relu1): ReLU(0.001 GMac, 0.011% MACs, inplace=True)
        (relu2): ReLU(0.0 GMac, 0.003% MACs, inplace=True)
        (relu3): ReLU(0.0 GMac, 0.003% MACs, inplace=True)
        (downsample): Sequential(
          0.038 GMac, 0.346% MACs, 
          (0): Conv2d(0.038 GMac, 0.340% MACs, 128, 288, kernel_size=(1, 1), stride=(2, 2), bias=False)
          (1): BatchNorm2d(0.001 GMac, 0.005% MACs, 288, eps=1e-05, momentum=0.1, affine=True, track_running_stats=True)
        )
        (add): AddBlock(inplace=False, signed=True)
      )
      (1): Bottleneck(
        0.215 GMac, 1.938% MACs, 
        (conv1): Conv2d(0.085 GMac, 0.766% MACs, 288, 288, kernel_size=(1, 1), stride=(1, 1), bias=False)
        (bn1): BatchNorm2d(0.001 GMac, 0.005% MACs, 288, eps=1e-05, momentum=0.1, affine=True, track_running_stats=True)
        (conv2): Conv2d(0.042 GMac, 0.383% MACs, 288, 288, kernel_size=(3, 3), stride=(1, 1), padding=(1, 1), groups=18, bias=False)
        (bn2): BatchNorm2d(0.001 GMac, 0.005% MACs, 288, eps=1e-05, momentum=0.1, affine=True, track_running_stats=True)
        (conv3): Conv2d(0.085 GMac, 0.766% MACs, 288, 288, kernel_size=(1, 1), stride=(1, 1), bias=False)
        (bn3): BatchNorm2d(0.001 GMac, 0.005% MACs, 288, eps=1e-05, momentum=0.1, affine=True, track_running_stats=True)
        (relu1): ReLU(0.0 GMac, 0.003% MACs, inplace=True)
        (relu2): ReLU(0.0 GMac, 0.003% MACs, inplace=True)
        (relu3): ReLU(0.0 GMac, 0.003% MACs, inplace=True)
        (add): AddBlock(inplace=False, signed=True)
      )
      (2): Bottleneck(
        0.215 GMac, 1.938% MACs, 
        (conv1): Conv2d(0.085 GMac, 0.766% MACs, 288, 288, kernel_size=(1, 1), stride=(1, 1), bias=False)
        (bn1): BatchNorm2d(0.001 GMac, 0.005% MACs, 288, eps=1e-05, momentum=0.1, affine=True, track_running_stats=True)
        (conv2): Conv2d(0.042 GMac, 0.383% MACs, 288, 288, kernel_size=(3, 3), stride=(1, 1), padding=(1, 1), groups=18, bias=False)
        (bn2): BatchNorm2d(0.001 GMac, 0.005% MACs, 288, eps=1e-05, momentum=0.1, affine=True, track_running_stats=True)
        (conv3): Conv2d(0.085 GMac, 0.766% MACs, 288, 288, kernel_size=(1, 1), stride=(1, 1), bias=False)
        (bn3): BatchNorm2d(0.001 GMac, 0.005% MACs, 288, eps=1e-05, momentum=0.1, affine=True, track_running_stats=True)
        (relu1): ReLU(0.0 GMac, 0.003% MACs, inplace=True)
        (relu2): ReLU(0.0 GMac, 0.003% MACs, inplace=True)
        (relu3): ReLU(0.0 GMac, 0.003% MACs, inplace=True)
        (add): AddBlock(inplace=False, signed=True)
      )
      (3): Bottleneck(
        0.215 GMac, 1.938% MACs, 
        (conv1): Conv2d(0.085 GMac, 0.766% MACs, 288, 288, kernel_size=(1, 1), stride=(1, 1), bias=False)
        (bn1): BatchNorm2d(0.001 GMac, 0.005% MACs, 288, eps=1e-05, momentum=0.1, affine=True, track_running_stats=True)
        (conv2): Conv2d(0.042 GMac, 0.383% MACs, 288, 288, kernel_size=(3, 3), stride=(1, 1), padding=(1, 1), groups=18, bias=False)
        (bn2): BatchNorm2d(0.001 GMac, 0.005% MACs, 288, eps=1e-05, momentum=0.1, affine=True, track_running_stats=True)
        (conv3): Conv2d(0.085 GMac, 0.766% MACs, 288, 288, kernel_size=(1, 1), stride=(1, 1), bias=False)
        (bn3): BatchNorm2d(0.001 GMac, 0.005% MACs, 288, eps=1e-05, momentum=0.1, affine=True, track_running_stats=True)
        (relu1): ReLU(0.0 GMac, 0.003% MACs, inplace=True)
        (relu2): ReLU(0.0 GMac, 0.003% MACs, inplace=True)
        (relu3): ReLU(0.0 GMac, 0.003% MACs, inplace=True)
        (add): AddBlock(inplace=False, signed=True)
      )
      (4): Bottleneck(
        0.215 GMac, 1.938% MACs, 
        (conv1): Conv2d(0.085 GMac, 0.766% MACs, 288, 288, kernel_size=(1, 1), stride=(1, 1), bias=False)
        (bn1): BatchNorm2d(0.001 GMac, 0.005% MACs, 288, eps=1e-05, momentum=0.1, affine=True, track_running_stats=True)
        (conv2): Conv2d(0.042 GMac, 0.383% MACs, 288, 288, kernel_size=(3, 3), stride=(1, 1), padding=(1, 1), groups=18, bias=False)
        (bn2): BatchNorm2d(0.001 GMac, 0.005% MACs, 288, eps=1e-05, momentum=0.1, affine=True, track_running_stats=True)
        (conv3): Conv2d(0.085 GMac, 0.766% MACs, 288, 288, kernel_size=(1, 1), stride=(1, 1), bias=False)
        (bn3): BatchNorm2d(0.001 GMac, 0.005% MACs, 288, eps=1e-05, momentum=0.1, affine=True, track_running_stats=True)
        (relu1): ReLU(0.0 GMac, 0.003% MACs, inplace=True)
        (relu2): ReLU(0.0 GMac, 0.003% MACs, inplace=True)
        (relu3): ReLU(0.0 GMac, 0.003% MACs, inplace=True)
        (add): AddBlock(inplace=False, signed=True)
      )
      (5): Bottleneck(
        0.215 GMac, 1.938% MACs, 
        (conv1): Conv2d(0.085 GMac, 0.766% MACs, 288, 288, kernel_size=(1, 1), stride=(1, 1), bias=False)
        (bn1): BatchNorm2d(0.001 GMac, 0.005% MACs, 288, eps=1e-05, momentum=0.1, affine=True, track_running_stats=True)
        (conv2): Conv2d(0.042 GMac, 0.383% MACs, 288, 288, kernel_size=(3, 3), stride=(1, 1), padding=(1, 1), groups=18, bias=False)
        (bn2): BatchNorm2d(0.001 GMac, 0.005% MACs, 288, eps=1e-05, momentum=0.1, affine=True, track_running_stats=True)
        (conv3): Conv2d(0.085 GMac, 0.766% MACs, 288, 288, kernel_size=(1, 1), stride=(1, 1), bias=False)
        (bn3): BatchNorm2d(0.001 GMac, 0.005% MACs, 288, eps=1e-05, momentum=0.1, affine=True, track_running_stats=True)
        (relu1): ReLU(0.0 GMac, 0.003% MACs, inplace=True)
        (relu2): ReLU(0.0 GMac, 0.003% MACs, inplace=True)
        (relu3): ReLU(0.0 GMac, 0.003% MACs, inplace=True)
        (add): AddBlock(inplace=False, signed=True)
      )
      (6): Bottleneck(
        0.215 GMac, 1.938% MACs, 
        (conv1): Conv2d(0.085 GMac, 0.766% MACs, 288, 288, kernel_size=(1, 1), stride=(1, 1), bias=False)
        (bn1): BatchNorm2d(0.001 GMac, 0.005% MACs, 288, eps=1e-05, momentum=0.1, affine=True, track_running_stats=True)
        (conv2): Conv2d(0.042 GMac, 0.383% MACs, 288, 288, kernel_size=(3, 3), stride=(1, 1), padding=(1, 1), groups=18, bias=False)
        (bn2): BatchNorm2d(0.001 GMac, 0.005% MACs, 288, eps=1e-05, momentum=0.1, affine=True, track_running_stats=True)
        (conv3): Conv2d(0.085 GMac, 0.766% MACs, 288, 288, kernel_size=(1, 1), stride=(1, 1), bias=False)
        (bn3): BatchNorm2d(0.001 GMac, 0.005% MACs, 288, eps=1e-05, momentum=0.1, affine=True, track_running_stats=True)
        (relu1): ReLU(0.0 GMac, 0.003% MACs, inplace=True)
        (relu2): ReLU(0.0 GMac, 0.003% MACs, inplace=True)
        (relu3): ReLU(0.0 GMac, 0.003% MACs, inplace=True)
        (add): AddBlock(inplace=False, signed=True)
      )
    )
    (layer4): ResLayer(
      1.422 GMac, 12.816% MACs, 
      (0): Bottleneck(
        0.392 GMac, 3.530% MACs, 
        (conv1): Conv2d(0.198 GMac, 1.786% MACs, 288, 672, kernel_size=(1, 1), stride=(1, 1), bias=False)
        (bn1): BatchNorm2d(0.001 GMac, 0.012% MACs, 672, eps=1e-05, momentum=0.1, affine=True, track_running_stats=True)
        (conv2): Conv2d(0.025 GMac, 0.223% MACs, 672, 672, kernel_size=(3, 3), stride=(2, 2), padding=(1, 1), groups=42, bias=False)
        (bn2): BatchNorm2d(0.0 GMac, 0.003% MACs, 672, eps=1e-05, momentum=0.1, affine=True, track_running_stats=True)
        (conv3): Conv2d(0.116 GMac, 1.042% MACs, 672, 672, kernel_size=(1, 1), stride=(1, 1), bias=False)
        (bn3): BatchNorm2d(0.0 GMac, 0.003% MACs, 672, eps=1e-05, momentum=0.1, affine=True, track_running_stats=True)
        (relu1): ReLU(0.001 GMac, 0.006% MACs, inplace=True)
        (relu2): ReLU(0.0 GMac, 0.002% MACs, inplace=True)
        (relu3): ReLU(0.0 GMac, 0.002% MACs, inplace=True)
        (downsample): Sequential(
          0.05 GMac, 0.450% MACs, 
          (0): Conv2d(0.05 GMac, 0.447% MACs, 288, 672, kernel_size=(1, 1), stride=(2, 2), bias=False)
          (1): BatchNorm2d(0.0 GMac, 0.003% MACs, 672, eps=1e-05, momentum=0.1, affine=True, track_running_stats=True)
        )
        (add): AddBlock(inplace=False, signed=True)
      )
      (1): Bottleneck(
        0.258 GMac, 2.321% MACs, 
        (conv1): Conv2d(0.116 GMac, 1.042% MACs, 672, 672, kernel_size=(1, 1), stride=(1, 1), bias=False)
        (bn1): BatchNorm2d(0.0 GMac, 0.003% MACs, 672, eps=1e-05, momentum=0.1, affine=True, track_running_stats=True)
        (conv2): Conv2d(0.025 GMac, 0.223% MACs, 672, 672, kernel_size=(3, 3), stride=(1, 1), padding=(1, 1), groups=42, bias=False)
        (bn2): BatchNorm2d(0.0 GMac, 0.003% MACs, 672, eps=1e-05, momentum=0.1, affine=True, track_running_stats=True)
        (conv3): Conv2d(0.116 GMac, 1.042% MACs, 672, 672, kernel_size=(1, 1), stride=(1, 1), bias=False)
        (bn3): BatchNorm2d(0.0 GMac, 0.003% MACs, 672, eps=1e-05, momentum=0.1, affine=True, track_running_stats=True)
        (relu1): ReLU(0.0 GMac, 0.002% MACs, inplace=True)
        (relu2): ReLU(0.0 GMac, 0.002% MACs, inplace=True)
        (relu3): ReLU(0.0 GMac, 0.002% MACs, inplace=True)
        (add): AddBlock(inplace=False, signed=True)
      )
      (2): Bottleneck(
        0.258 GMac, 2.321% MACs, 
        (conv1): Conv2d(0.116 GMac, 1.042% MACs, 672, 672, kernel_size=(1, 1), stride=(1, 1), bias=False)
        (bn1): BatchNorm2d(0.0 GMac, 0.003% MACs, 672, eps=1e-05, momentum=0.1, affine=True, track_running_stats=True)
        (conv2): Conv2d(0.025 GMac, 0.223% MACs, 672, 672, kernel_size=(3, 3), stride=(1, 1), padding=(1, 1), groups=42, bias=False)
        (bn2): BatchNorm2d(0.0 GMac, 0.003% MACs, 672, eps=1e-05, momentum=0.1, affine=True, track_running_stats=True)
        (conv3): Conv2d(0.116 GMac, 1.042% MACs, 672, 672, kernel_size=(1, 1), stride=(1, 1), bias=False)
        (bn3): BatchNorm2d(0.0 GMac, 0.003% MACs, 672, eps=1e-05, momentum=0.1, affine=True, track_running_stats=True)
        (relu1): ReLU(0.0 GMac, 0.002% MACs, inplace=True)
        (relu2): ReLU(0.0 GMac, 0.002% MACs, inplace=True)
        (relu3): ReLU(0.0 GMac, 0.002% MACs, inplace=True)
        (add): AddBlock(inplace=False, signed=True)
      )
      (3): Bottleneck(
        0.258 GMac, 2.321% MACs, 
        (conv1): Conv2d(0.116 GMac, 1.042% MACs, 672, 672, kernel_size=(1, 1), stride=(1, 1), bias=False)
        (bn1): BatchNorm2d(0.0 GMac, 0.003% MACs, 672, eps=1e-05, momentum=0.1, affine=True, track_running_stats=True)
        (conv2): Conv2d(0.025 GMac, 0.223% MACs, 672, 672, kernel_size=(3, 3), stride=(1, 1), padding=(1, 1), groups=42, bias=False)
        (bn2): BatchNorm2d(0.0 GMac, 0.003% MACs, 672, eps=1e-05, momentum=0.1, affine=True, track_running_stats=True)
        (conv3): Conv2d(0.116 GMac, 1.042% MACs, 672, 672, kernel_size=(1, 1), stride=(1, 1), bias=False)
        (bn3): BatchNorm2d(0.0 GMac, 0.003% MACs, 672, eps=1e-05, momentum=0.1, affine=True, track_running_stats=True)
        (relu1): ReLU(0.0 GMac, 0.002% MACs, inplace=True)
        (relu2): ReLU(0.0 GMac, 0.002% MACs, inplace=True)
        (relu3): ReLU(0.0 GMac, 0.002% MACs, inplace=True)
        (add): AddBlock(inplace=False, signed=True)
      )
      (4): Bottleneck(
        0.258 GMac, 2.321% MACs, 
        (conv1): Conv2d(0.116 GMac, 1.042% MACs, 672, 672, kernel_size=(1, 1), stride=(1, 1), bias=False)
        (bn1): BatchNorm2d(0.0 GMac, 0.003% MACs, 672, eps=1e-05, momentum=0.1, affine=True, track_running_stats=True)
        (conv2): Conv2d(0.025 GMac, 0.223% MACs, 672, 672, kernel_size=(3, 3), stride=(1, 1), padding=(1, 1), groups=42, bias=False)
        (bn2): BatchNorm2d(0.0 GMac, 0.003% MACs, 672, eps=1e-05, momentum=0.1, affine=True, track_running_stats=True)
        (conv3): Conv2d(0.116 GMac, 1.042% MACs, 672, 672, kernel_size=(1, 1), stride=(1, 1), bias=False)
        (bn3): BatchNorm2d(0.0 GMac, 0.003% MACs, 672, eps=1e-05, momentum=0.1, affine=True, track_running_stats=True)
        (relu1): ReLU(0.0 GMac, 0.002% MACs, inplace=True)
        (relu2): ReLU(0.0 GMac, 0.002% MACs, inplace=True)
        (relu3): ReLU(0.0 GMac, 0.002% MACs, inplace=True)
        (add): AddBlock(inplace=False, signed=True)
      )
    )
  )
  (neck): FPNLite(
    0.833 GMac, 7.508% MACs, 
    (lateral_convs): ModuleList(
      0.257 GMac, 2.312% MACs, 
      (0): ConvNormAct2d(
        0.136 GMac, 1.229% MACs, 
        (0): Conv2d(0.134 GMac, 1.210% MACs, 128, 256, kernel_size=(1, 1), stride=(1, 1), bias=False)
        (1): BatchNorm2d(0.002 GMac, 0.019% MACs, 256, eps=1e-05, momentum=0.1, affine=True, track_running_stats=True)
      )
      (1): ConvNormAct2d(
        0.076 GMac, 0.685% MACs, 
        (0): Conv2d(0.075 GMac, 0.681% MACs, 288, 256, kernel_size=(1, 1), stride=(1, 1), bias=False)
        (1): BatchNorm2d(0.001 GMac, 0.005% MACs, 256, eps=1e-05, momentum=0.1, affine=True, track_running_stats=True)
      )
      (2): ConvNormAct2d(
        0.044 GMac, 0.398% MACs, 
        (0): Conv2d(0.044 GMac, 0.397% MACs, 672, 256, kernel_size=(1, 1), stride=(1, 1), bias=False)
        (1): BatchNorm2d(0.0 GMac, 0.001% MACs, 256, eps=1e-05, momentum=0.1, affine=True, track_running_stats=True)
      )
    )
    (fpn_convs): ModuleList(
      0.576 GMac, 5.196% MACs, 
      (0): ConvDWSep2d(
        0.425 GMac, 3.828% MACs, 
        (0): Sequential(
          0.154 GMac, 1.389% MACs, 
          (0): Conv2d(0.151 GMac, 1.361% MACs, 256, 256, kernel_size=(3, 3), stride=(1, 1), padding=(1, 1), groups=16, bias=False)
          (1): BatchNorm2d(0.002 GMac, 0.019% MACs, 256, eps=1e-05, momentum=0.1, affine=True, track_running_stats=True)
          (2): ReLU(0.001 GMac, 0.009% MACs, )
        )
        (1): Sequential(
          0.271 GMac, 2.439% MACs, 
          (0): Conv2d(0.268 GMac, 2.420% MACs, 256, 256, kernel_size=(1, 1), stride=(1, 1), bias=False)
          (1): BatchNorm2d(0.002 GMac, 0.019% MACs, 256, eps=1e-05, momentum=0.1, affine=True, track_running_stats=True)
        )
      )
      (1): ConvDWSep2d(
        0.106 GMac, 0.957% MACs, 
        (0): Sequential(
          0.039 GMac, 0.347% MACs, 
          (0): Conv2d(0.038 GMac, 0.340% MACs, 256, 256, kernel_size=(3, 3), stride=(1, 1), padding=(1, 1), groups=16, bias=False)
          (1): BatchNorm2d(0.001 GMac, 0.005% MACs, 256, eps=1e-05, momentum=0.1, affine=True, track_running_stats=True)
          (2): ReLU(0.0 GMac, 0.002% MACs, )
        )
        (1): Sequential(
          0.068 GMac, 0.610% MACs, 
          (0): Conv2d(0.067 GMac, 0.605% MACs, 256, 256, kernel_size=(1, 1), stride=(1, 1), bias=False)
          (1): BatchNorm2d(0.001 GMac, 0.005% MACs, 256, eps=1e-05, momentum=0.1, affine=True, track_running_stats=True)
        )
      )
      (2): ConvDWSep2d(
        0.027 GMac, 0.239% MACs, 
        (0): Sequential(
          0.01 GMac, 0.087% MACs, 
          (0): Conv2d(0.009 GMac, 0.085% MACs, 256, 256, kernel_size=(3, 3), stride=(1, 1), padding=(1, 1), groups=16, bias=False)
          (1): BatchNorm2d(0.0 GMac, 0.001% MACs, 256, eps=1e-05, momentum=0.1, affine=True, track_running_stats=True)
          (2): ReLU(0.0 GMac, 0.001% MACs, )
        )
        (1): Sequential(
          0.017 GMac, 0.152% MACs, 
          (0): Conv2d(0.017 GMac, 0.151% MACs, 256, 256, kernel_size=(1, 1), stride=(1, 1), bias=False)
          (1): BatchNorm2d(0.0 GMac, 0.001% MACs, 256, eps=1e-05, momentum=0.1, affine=True, track_running_stats=True)
        )
      )
      (3): ConvDWSep2d(
        0.017 GMac, 0.157% MACs, 
        (0): Sequential(
          0.006 GMac, 0.057% MACs, 
          (0): Conv2d(0.006 GMac, 0.056% MACs, 672, 672, kernel_size=(3, 3), stride=(2, 2), padding=(1, 1), groups=42, bias=False)
          (1): BatchNorm2d(0.0 GMac, 0.001% MACs, 672, eps=1e-05, momentum=0.1, affine=True, track_running_stats=True)
          (2): ReLU(0.0 GMac, 0.000% MACs, )
        )
        (1): Sequential(
          0.011 GMac, 0.100% MACs, 
          (0): Conv2d(0.011 GMac, 0.099% MACs, 672, 256, kernel_size=(1, 1), stride=(1, 1), bias=False)
          (1): BatchNorm2d(0.0 GMac, 0.000% MACs, 256, eps=1e-05, momentum=0.1, affine=True, track_running_stats=True)
        )
      )
      (4): ConvDWSep2d(
        0.002 GMac, 0.015% MACs, 
        (0): Sequential(
          0.001 GMac, 0.005% MACs, 
          (0): Conv2d(0.001 GMac, 0.005% MACs, 256, 256, kernel_size=(3, 3), stride=(2, 2), padding=(1, 1), groups=16, bias=False)
          (1): BatchNorm2d(0.0 GMac, 0.000% MACs, 256, eps=1e-05, momentum=0.1, affine=True, track_running_stats=True)
          (2): ReLU(0.0 GMac, 0.000% MACs, )
        )
        (1): Sequential(
          0.001 GMac, 0.010% MACs, 
          (0): Conv2d(0.001 GMac, 0.009% MACs, 256, 256, kernel_size=(1, 1), stride=(1, 1), bias=False)
          (1): BatchNorm2d(0.0 GMac, 0.000% MACs, 256, eps=1e-05, momentum=0.1, affine=True, track_running_stats=True)
        )
      )
    )
    (adds): ModuleList(
      0.0 GMac, 0.000% MACs, 
      (0): AddBlock(inplace=False, signed=True)
      (1): AddBlock(inplace=False, signed=True)
      (2): AddBlock(inplace=False, signed=True)
    )
  )
  (bbox_head): RetinaLiteHead(
    6.007 GMac, 54.152% MACs, 
    (loss_cls): FocalLoss(0.0 GMac, 0.000% MACs, )
    (loss_bbox): L1Loss(0.0 GMac, 0.000% MACs, )
    (cls_convs): ModuleList(
      2.268 GMac, 20.447% MACs, 
      (0): ConvDWSep2d(
        0.567 GMac, 5.112% MACs, 
        (0): Sequential(
          0.205 GMac, 1.851% MACs, 
          (0): Conv2d(0.201 GMac, 1.813% MACs, 256, 256, kernel_size=(3, 3), stride=(1, 1), padding=(1, 1), groups=16, bias=False)
          (1): BatchNorm2d(0.003 GMac, 0.025% MACs, 256, eps=1e-05, momentum=0.1, affine=True, track_running_stats=True)
          (2): ReLU(0.001 GMac, 0.013% MACs, )
        )
        (1): Sequential(
          0.362 GMac, 3.261% MACs, 
          (0): Conv2d(0.358 GMac, 3.223% MACs, 256, 256, kernel_size=(1, 1), stride=(1, 1), bias=False)
          (1): BatchNorm2d(0.003 GMac, 0.025% MACs, 256, eps=1e-05, momentum=0.1, affine=True, track_running_stats=True)
          (2): ReLU(0.001 GMac, 0.013% MACs, )
        )
      )
      (1): ConvDWSep2d(
        0.567 GMac, 5.112% MACs, 
        (0): Sequential(
          0.205 GMac, 1.851% MACs, 
          (0): Conv2d(0.201 GMac, 1.813% MACs, 256, 256, kernel_size=(3, 3), stride=(1, 1), padding=(1, 1), groups=16, bias=False)
          (1): BatchNorm2d(0.003 GMac, 0.025% MACs, 256, eps=1e-05, momentum=0.1, affine=True, track_running_stats=True)
          (2): ReLU(0.001 GMac, 0.013% MACs, )
        )
        (1): Sequential(
          0.362 GMac, 3.261% MACs, 
          (0): Conv2d(0.358 GMac, 3.223% MACs, 256, 256, kernel_size=(1, 1), stride=(1, 1), bias=False)
          (1): BatchNorm2d(0.003 GMac, 0.025% MACs, 256, eps=1e-05, momentum=0.1, affine=True, track_running_stats=True)
          (2): ReLU(0.001 GMac, 0.013% MACs, )
        )
      )
      (2): ConvDWSep2d(
        0.567 GMac, 5.112% MACs, 
        (0): Sequential(
          0.205 GMac, 1.851% MACs, 
          (0): Conv2d(0.201 GMac, 1.813% MACs, 256, 256, kernel_size=(3, 3), stride=(1, 1), padding=(1, 1), groups=16, bias=False)
          (1): BatchNorm2d(0.003 GMac, 0.025% MACs, 256, eps=1e-05, momentum=0.1, affine=True, track_running_stats=True)
          (2): ReLU(0.001 GMac, 0.013% MACs, )
        )
        (1): Sequential(
          0.362 GMac, 3.261% MACs, 
          (0): Conv2d(0.358 GMac, 3.223% MACs, 256, 256, kernel_size=(1, 1), stride=(1, 1), bias=False)
          (1): BatchNorm2d(0.003 GMac, 0.025% MACs, 256, eps=1e-05, momentum=0.1, affine=True, track_running_stats=True)
          (2): ReLU(0.001 GMac, 0.013% MACs, )
        )
      )
      (3): ConvDWSep2d(
        0.567 GMac, 5.112% MACs, 
        (0): Sequential(
          0.205 GMac, 1.851% MACs, 
          (0): Conv2d(0.201 GMac, 1.813% MACs, 256, 256, kernel_size=(3, 3), stride=(1, 1), padding=(1, 1), groups=16, bias=False)
          (1): BatchNorm2d(0.003 GMac, 0.025% MACs, 256, eps=1e-05, momentum=0.1, affine=True, track_running_stats=True)
          (2): ReLU(0.001 GMac, 0.013% MACs, )
        )
        (1): Sequential(
          0.362 GMac, 3.261% MACs, 
          (0): Conv2d(0.358 GMac, 3.223% MACs, 256, 256, kernel_size=(1, 1), stride=(1, 1), bias=False)
          (1): BatchNorm2d(0.003 GMac, 0.025% MACs, 256, eps=1e-05, momentum=0.1, affine=True, track_running_stats=True)
          (2): ReLU(0.001 GMac, 0.013% MACs, )
        )
      )
    )
    (reg_convs): ModuleList(
      2.268 GMac, 20.447% MACs, 
      (0): ConvDWSep2d(
        0.567 GMac, 5.112% MACs, 
        (0): Sequential(
          0.205 GMac, 1.851% MACs, 
          (0): Conv2d(0.201 GMac, 1.813% MACs, 256, 256, kernel_size=(3, 3), stride=(1, 1), padding=(1, 1), groups=16, bias=False)
          (1): BatchNorm2d(0.003 GMac, 0.025% MACs, 256, eps=1e-05, momentum=0.1, affine=True, track_running_stats=True)
          (2): ReLU(0.001 GMac, 0.013% MACs, )
        )
        (1): Sequential(
          0.362 GMac, 3.261% MACs, 
          (0): Conv2d(0.358 GMac, 3.223% MACs, 256, 256, kernel_size=(1, 1), stride=(1, 1), bias=False)
          (1): BatchNorm2d(0.003 GMac, 0.025% MACs, 256, eps=1e-05, momentum=0.1, affine=True, track_running_stats=True)
          (2): ReLU(0.001 GMac, 0.013% MACs, )
        )
      )
      (1): ConvDWSep2d(
        0.567 GMac, 5.112% MACs, 
        (0): Sequential(
          0.205 GMac, 1.851% MACs, 
          (0): Conv2d(0.201 GMac, 1.813% MACs, 256, 256, kernel_size=(3, 3), stride=(1, 1), padding=(1, 1), groups=16, bias=False)
          (1): BatchNorm2d(0.003 GMac, 0.025% MACs, 256, eps=1e-05, momentum=0.1, affine=True, track_running_stats=True)
          (2): ReLU(0.001 GMac, 0.013% MACs, )
        )
        (1): Sequential(
          0.362 GMac, 3.261% MACs, 
          (0): Conv2d(0.358 GMac, 3.223% MACs, 256, 256, kernel_size=(1, 1), stride=(1, 1), bias=False)
          (1): BatchNorm2d(0.003 GMac, 0.025% MACs, 256, eps=1e-05, momentum=0.1, affine=True, track_running_stats=True)
          (2): ReLU(0.001 GMac, 0.013% MACs, )
        )
      )
      (2): ConvDWSep2d(
        0.567 GMac, 5.112% MACs, 
        (0): Sequential(
          0.205 GMac, 1.851% MACs, 
          (0): Conv2d(0.201 GMac, 1.813% MACs, 256, 256, kernel_size=(3, 3), stride=(1, 1), padding=(1, 1), groups=16, bias=False)
          (1): BatchNorm2d(0.003 GMac, 0.025% MACs, 256, eps=1e-05, momentum=0.1, affine=True, track_running_stats=True)
          (2): ReLU(0.001 GMac, 0.013% MACs, )
        )
        (1): Sequential(
          0.362 GMac, 3.261% MACs, 
          (0): Conv2d(0.358 GMac, 3.223% MACs, 256, 256, kernel_size=(1, 1), stride=(1, 1), bias=False)
          (1): BatchNorm2d(0.003 GMac, 0.025% MACs, 256, eps=1e-05, momentum=0.1, affine=True, track_running_stats=True)
          (2): ReLU(0.001 GMac, 0.013% MACs, )
        )
      )
      (3): ConvDWSep2d(
        0.567 GMac, 5.112% MACs, 
        (0): Sequential(
          0.205 GMac, 1.851% MACs, 
          (0): Conv2d(0.201 GMac, 1.813% MACs, 256, 256, kernel_size=(3, 3), stride=(1, 1), padding=(1, 1), groups=16, bias=False)
          (1): BatchNorm2d(0.003 GMac, 0.025% MACs, 256, eps=1e-05, momentum=0.1, affine=True, track_running_stats=True)
          (2): ReLU(0.001 GMac, 0.013% MACs, )
        )
        (1): Sequential(
          0.362 GMac, 3.261% MACs, 
          (0): Conv2d(0.358 GMac, 3.223% MACs, 256, 256, kernel_size=(1, 1), stride=(1, 1), bias=False)
          (1): BatchNorm2d(0.003 GMac, 0.025% MACs, 256, eps=1e-05, momentum=0.1, affine=True, track_running_stats=True)
          (2): ReLU(0.001 GMac, 0.013% MACs, )
        )
      )
    )
    (retina_cls): ConvDWSep2d(
      1.215 GMac, 10.952% MACs, 
      (0): Sequential(
        0.205 GMac, 1.851% MACs, 
        (0): Conv2d(0.201 GMac, 1.813% MACs, 256, 256, kernel_size=(3, 3), stride=(1, 1), padding=(1, 1), groups=16, bias=False)
        (1): BatchNorm2d(0.003 GMac, 0.025% MACs, 256, eps=1e-05, momentum=0.1, affine=True, track_running_stats=True)
        (2): ReLU(0.001 GMac, 0.013% MACs, )
      )
      (1): Sequential(
        1.01 GMac, 9.101% MACs, 
        (0): Conv2d(1.01 GMac, 9.101% MACs, 256, 720, kernel_size=(1, 1), stride=(1, 1))
      )
    )
    (retina_reg): ConvDWSep2d(
      0.256 GMac, 2.306% MACs, 
      (0): Sequential(
        0.205 GMac, 1.851% MACs, 
        (0): Conv2d(0.201 GMac, 1.813% MACs, 256, 256, kernel_size=(3, 3), stride=(1, 1), padding=(1, 1), groups=16, bias=False)
        (1): BatchNorm2d(0.003 GMac, 0.025% MACs, 256, eps=1e-05, momentum=0.1, affine=True, track_running_stats=True)
        (2): ReLU(0.001 GMac, 0.013% MACs, )
      )
      (1): Sequential(
        0.05 GMac, 0.455% MACs, 
        (0): Conv2d(0.05 GMac, 0.455% MACs, 256, 36, kernel_size=(1, 1), stride=(1, 1))
      )
    )
  )
)
2020-09-08 22:25:03,813 - mmdet - INFO - 

2020-09-08 22:25:03,819 - mmdet - INFO - Compute   : 11.09 GMac
2020-09-08 22:25:03,819 - mmdet - INFO - Parameters: 8.65 M
2020-09-08 22:25:30,442 - mmdet - INFO - Start running, host: a0393608@udtensorlab1, work_dir: /home/a0393608/files/work/ti/bitbucket/jacinto-ai/pytorch-jacinto-ai-detection/work_dirs/retinanet-lite_regnet_fpn_bgr
…
