…
            dict(type='Pad', size_divisor=128),
            dict(type='ImageToTensor', keys=['img']),
            dict(type='Collect', keys=['img'])
        ])
]
work_dir = './work_dirs/ssd-lite_regnet_fpn_bgr'
gpu_ids = range(0, 1)

2020-10-26 09:34:51,536 - mmdet - INFO - load model from: open-mmlab://regnetx_1.6gf
2020-10-26 09:34:54,607 - mmdet - WARNING - The model and loaded state dict do not match exactly

unexpected key in source state_dict: fc.weight, fc.bias

2020-10-26 09:34:57,284 - mmdet - INFO - SingleStageDetector(
  25.366 GMac, 100.000% MACs, 
  (backbone): RegNet(
    19.105 GMac, 75.318% MACs, 
    (conv1): Conv2d(0.127 GMac, 0.502% MACs, 3, 32, kernel_size=(3, 3), stride=(2, 2), padding=(1, 1), bias=False)
    (bn1): BatchNorm2d(0.009 GMac, 0.037% MACs, 32, eps=1e-05, momentum=0.1, affine=True, track_running_stats=True)
    (relu): ReLU(0.005 GMac, 0.019% MACs, inplace=True)
    (layer1): ResLayer(
      2.222 GMac, 8.758% MACs, 
      (0): Bottleneck(
        1.242 GMac, 4.897% MACs, 
        (conv1): Conv2d(0.34 GMac, 1.339% MACs, 32, 72, kernel_size=(1, 1), stride=(1, 1), bias=False)
        (bn1): BatchNorm2d(0.021 GMac, 0.084% MACs, 72, eps=1e-05, momentum=0.1, affine=True, track_running_stats=True)
        (conv2): Conv2d(0.573 GMac, 2.260% MACs, 72, 72, kernel_size=(3, 3), stride=(2, 2), padding=(1, 1), groups=3, bias=False)
        (bn2): BatchNorm2d(0.005 GMac, 0.021% MACs, 72, eps=1e-05, momentum=0.1, affine=True, track_running_stats=True)
        (conv3): Conv2d(0.191 GMac, 0.753% MACs, 72, 72, kernel_size=(1, 1), stride=(1, 1), bias=False)
        (bn3): BatchNorm2d(0.005 GMac, 0.021% MACs, 72, eps=1e-05, momentum=0.1, affine=True, track_running_stats=True)
        (relu1): ReLU(0.011 GMac, 0.042% MACs, inplace=True)
        (relu2): ReLU(0.003 GMac, 0.010% MACs, inplace=True)
        (relu3): ReLU(0.003 GMac, 0.010% MACs, inplace=True)
        (downsample): Sequential(
          0.09 GMac, 0.356% MACs, 
          (0): Conv2d(0.085 GMac, 0.335% MACs, 32, 72, kernel_size=(1, 1), stride=(2, 2), bias=False)
          (1): BatchNorm2d(0.005 GMac, 0.021% MACs, 72, eps=1e-05, momentum=0.1, affine=True, track_running_stats=True)
        )
        (add): AddBlock(inplace=False, signed=True)
      )
      (1): Bottleneck(
        0.979 GMac, 3.861% MACs, 
        (conv1): Conv2d(0.191 GMac, 0.753% MACs, 72, 72, kernel_size=(1, 1), stride=(1, 1), bias=False)
        (bn1): BatchNorm2d(0.005 GMac, 0.021% MACs, 72, eps=1e-05, momentum=0.1, affine=True, track_running_stats=True)
        (conv2): Conv2d(0.573 GMac, 2.260% MACs, 72, 72, kernel_size=(3, 3), stride=(1, 1), padding=(1, 1), groups=3, bias=False)
        (bn2): BatchNorm2d(0.005 GMac, 0.021% MACs, 72, eps=1e-05, momentum=0.1, affine=True, track_running_stats=True)
        (conv3): Conv2d(0.191 GMac, 0.753% MACs, 72, 72, kernel_size=(1, 1), stride=(1, 1), bias=False)
        (bn3): BatchNorm2d(0.005 GMac, 0.021% MACs, 72, eps=1e-05, momentum=0.1, affine=True, track_running_stats=True)
        (relu1): ReLU(0.003 GMac, 0.010% MACs, inplace=True)
        (relu2): ReLU(0.003 GMac, 0.010% MACs, inplace=True)
        (relu3): ReLU(0.003 GMac, 0.010% MACs, inplace=True)
        (add): AddBlock(inplace=False, signed=True)
      )
    )
    (layer2): ResLayer(
      3.789 GMac, 14.936% MACs, 
      (0): Bottleneck(
        1.183 GMac, 4.663% MACs, 
        (conv1): Conv2d(0.446 GMac, 1.758% MACs, 72, 168, kernel_size=(1, 1), stride=(1, 1), bias=False)
        (bn1): BatchNorm2d(0.012 GMac, 0.049% MACs, 168, eps=1e-05, momentum=0.1, affine=True, track_running_stats=True)
        (conv2): Conv2d(0.334 GMac, 1.318% MACs, 168, 168, kernel_size=(3, 3), stride=(2, 2), padding=(1, 1), groups=7, bias=False)
        (bn2): BatchNorm2d(0.003 GMac, 0.012% MACs, 168, eps=1e-05, momentum=0.1, affine=True, track_running_stats=True)
        (conv3): Conv2d(0.26 GMac, 1.025% MACs, 168, 168, kernel_size=(1, 1), stride=(1, 1), bias=False)
        (bn3): BatchNorm2d(0.003 GMac, 0.012% MACs, 168, eps=1e-05, momentum=0.1, affine=True, track_running_stats=True)
        (relu1): ReLU(0.006 GMac, 0.024% MACs, inplace=True)
        (relu2): ReLU(0.002 GMac, 0.006% MACs, inplace=True)
        (relu3): ReLU(0.002 GMac, 0.006% MACs, inplace=True)
        (downsample): Sequential(
          0.115 GMac, 0.452% MACs, 
          (0): Conv2d(0.111 GMac, 0.439% MACs, 72, 168, kernel_size=(1, 1), stride=(2, 2), bias=False)
          (1): BatchNorm2d(0.003 GMac, 0.012% MACs, 168, eps=1e-05, momentum=0.1, affine=True, track_running_stats=True)
        )
        (add): AddBlock(inplace=False, signed=True)
      )
      (1): Bottleneck(
        0.869 GMac, 3.424% MACs, 
        (conv1): Conv2d(0.26 GMac, 1.025% MACs, 168, 168, kernel_size=(1, 1), stride=(1, 1), bias=False)
        (bn1): BatchNorm2d(0.003 GMac, 0.012% MACs, 168, eps=1e-05, momentum=0.1, affine=True, track_running_stats=True)
        (conv2): Conv2d(0.334 GMac, 1.318% MACs, 168, 168, kernel_size=(3, 3), stride=(1, 1), padding=(1, 1), groups=7, bias=False)
        (bn2): BatchNorm2d(0.003 GMac, 0.012% MACs, 168, eps=1e-05, momentum=0.1, affine=True, track_running_stats=True)
        (conv3): Conv2d(0.26 GMac, 1.025% MACs, 168, 168, kernel_size=(1, 1), stride=(1, 1), bias=False)
        (bn3): BatchNorm2d(0.003 GMac, 0.012% MACs, 168, eps=1e-05, momentum=0.1, affine=True, track_running_stats=True)
        (relu1): ReLU(0.002 GMac, 0.006% MACs, inplace=True)
        (relu2): ReLU(0.002 GMac, 0.006% MACs, inplace=True)
        (relu3): ReLU(0.002 GMac, 0.006% MACs, inplace=True)
        (add): AddBlock(inplace=False, signed=True)
      )
      (2): Bottleneck(
        0.869 GMac, 3.424% MACs, 
        (conv1): Conv2d(0.26 GMac, 1.025% MACs, 168, 168, kernel_size=(1, 1), stride=(1, 1), bias=False)
        (bn1): BatchNorm2d(0.003 GMac, 0.012% MACs, 168, eps=1e-05, momentum=0.1, affine=True, track_running_stats=True)
        (conv2): Conv2d(0.334 GMac, 1.318% MACs, 168, 168, kernel_size=(3, 3), stride=(1, 1), padding=(1, 1), groups=7, bias=False)
        (bn2): BatchNorm2d(0.003 GMac, 0.012% MACs, 168, eps=1e-05, momentum=0.1, affine=True, track_running_stats=True)
        (conv3): Conv2d(0.26 GMac, 1.025% MACs, 168, 168, kernel_size=(1, 1), stride=(1, 1), bias=False)
        (bn3): BatchNorm2d(0.003 GMac, 0.012% MACs, 168, eps=1e-05, momentum=0.1, affine=True, track_running_stats=True)
        (relu1): ReLU(0.002 GMac, 0.006% MACs, inplace=True)
        (relu2): ReLU(0.002 GMac, 0.006% MACs, inplace=True)
        (relu3): ReLU(0.002 GMac, 0.006% MACs, inplace=True)
        (add): AddBlock(inplace=False, signed=True)
      )
      (3): Bottleneck(
        0.869 GMac, 3.424% MACs, 
        (conv1): Conv2d(0.26 GMac, 1.025% MACs, 168, 168, kernel_size=(1, 1), stride=(1, 1), bias=False)
        (bn1): BatchNorm2d(0.003 GMac, 0.012% MACs, 168, eps=1e-05, momentum=0.1, affine=True, track_running_stats=True)
        (conv2): Conv2d(0.334 GMac, 1.318% MACs, 168, 168, kernel_size=(3, 3), stride=(1, 1), padding=(1, 1), groups=7, bias=False)
        (bn2): BatchNorm2d(0.003 GMac, 0.012% MACs, 168, eps=1e-05, momentum=0.1, affine=True, track_running_stats=True)
        (conv3): Conv2d(0.26 GMac, 1.025% MACs, 168, 168, kernel_size=(1, 1), stride=(1, 1), bias=False)
        (bn3): BatchNorm2d(0.003 GMac, 0.012% MACs, 168, eps=1e-05, momentum=0.1, affine=True, track_running_stats=True)
        (relu1): ReLU(0.002 GMac, 0.006% MACs, inplace=True)
        (relu2): ReLU(0.002 GMac, 0.006% MACs, inplace=True)
        (relu3): ReLU(0.002 GMac, 0.006% MACs, inplace=True)
        (add): AddBlock(inplace=False, signed=True)
      )
    )
    (layer3): ResLayer(
      10.202 GMac, 40.220% MACs, 
      (0): Bottleneck(
        1.395 GMac, 5.500% MACs, 
        (conv1): Conv2d(0.632 GMac, 2.490% MACs, 168, 408, kernel_size=(1, 1), stride=(1, 1), bias=False)
        (bn1): BatchNorm2d(0.008 GMac, 0.030% MACs, 408, eps=1e-05, momentum=0.1, affine=True, track_running_stats=True)
        (conv2): Conv2d(0.203 GMac, 0.800% MACs, 408, 408, kernel_size=(3, 3), stride=(2, 2), padding=(1, 1), groups=17, bias=False)
        (bn2): BatchNorm2d(0.002 GMac, 0.007% MACs, 408, eps=1e-05, momentum=0.1, affine=True, track_running_stats=True)
        (conv3): Conv2d(0.384 GMac, 1.512% MACs, 408, 408, kernel_size=(1, 1), stride=(1, 1), bias=False)
        (bn3): BatchNorm2d(0.002 GMac, 0.007% MACs, 408, eps=1e-05, momentum=0.1, affine=True, track_running_stats=True)
        (relu1): ReLU(0.004 GMac, 0.015% MACs, inplace=True)
        (relu2): ReLU(0.001 GMac, 0.004% MACs, inplace=True)
        (relu3): ReLU(0.001 GMac, 0.004% MACs, inplace=True)
        (downsample): Sequential(
          0.16 GMac, 0.630% MACs, 
          (0): Conv2d(0.158 GMac, 0.623% MACs, 168, 408, kernel_size=(1, 1), stride=(2, 2), bias=False)
          (1): BatchNorm2d(0.002 GMac, 0.007% MACs, 408, eps=1e-05, momentum=0.1, affine=True, track_running_stats=True)
        )
        (add): AddBlock(inplace=False, signed=True)
      )
      (1): Bottleneck(
        0.979 GMac, 3.858% MACs, 
        (conv1): Conv2d(0.384 GMac, 1.512% MACs, 408, 408, kernel_size=(1, 1), stride=(1, 1), bias=False)
        (bn1): BatchNorm2d(0.002 GMac, 0.007% MACs, 408, eps=1e-05, momentum=0.1, affine=True, track_running_stats=True)
        (conv2): Conv2d(0.203 GMac, 0.800% MACs, 408, 408, kernel_size=(3, 3), stride=(1, 1), padding=(1, 1), groups=17, bias=False)
        (bn2): BatchNorm2d(0.002 GMac, 0.007% MACs, 408, eps=1e-05, momentum=0.1, affine=True, track_running_stats=True)
        (conv3): Conv2d(0.384 GMac, 1.512% MACs, 408, 408, kernel_size=(1, 1), stride=(1, 1), bias=False)
        (bn3): BatchNorm2d(0.002 GMac, 0.007% MACs, 408, eps=1e-05, momentum=0.1, affine=True, track_running_stats=True)
        (relu1): ReLU(0.001 GMac, 0.004% MACs, inplace=True)
        (relu2): ReLU(0.001 GMac, 0.004% MACs, inplace=True)
        (relu3): ReLU(0.001 GMac, 0.004% MACs, inplace=True)
        (add): AddBlock(inplace=False, signed=True)
      )
      (2): Bottleneck(
        0.979 GMac, 3.858% MACs, 
        (conv1): Conv2d(0.384 GMac, 1.512% MACs, 408, 408, kernel_size=(1, 1), stride=(1, 1), bias=False)
        (bn1): BatchNorm2d(0.002 GMac, 0.007% MACs, 408, eps=1e-05, momentum=0.1, affine=True, track_running_stats=True)
        (conv2): Conv2d(0.203 GMac, 0.800% MACs, 408, 408, kernel_size=(3, 3), stride=(1, 1), padding=(1, 1), groups=17, bias=False)
        (bn2): BatchNorm2d(0.002 GMac, 0.007% MACs, 408, eps=1e-05, momentum=0.1, affine=True, track_running_stats=True)
        (conv3): Conv2d(0.384 GMac, 1.512% MACs, 408, 408, kernel_size=(1, 1), stride=(1, 1), bias=False)
        (bn3): BatchNorm2d(0.002 GMac, 0.007% MACs, 408, eps=1e-05, momentum=0.1, affine=True, track_running_stats=True)
        (relu1): ReLU(0.001 GMac, 0.004% MACs, inplace=True)
        (relu2): ReLU(0.001 GMac, 0.004% MACs, inplace=True)
        (relu3): ReLU(0.001 GMac, 0.004% MACs, inplace=True)
        (add): AddBlock(inplace=False, signed=True)
      )
      (3): Bottleneck(
        0.979 GMac, 3.858% MACs, 
        (conv1): Conv2d(0.384 GMac, 1.512% MACs, 408, 408, kernel_size=(1, 1), stride=(1, 1), bias=False)
        (bn1): BatchNorm2d(0.002 GMac, 0.007% MACs, 408, eps=1e-05, momentum=0.1, affine=True, track_running_stats=True)
        (conv2): Conv2d(0.203 GMac, 0.800% MACs, 408, 408, kernel_size=(3, 3), stride=(1, 1), padding=(1, 1), groups=17, bias=False)
        (bn2): BatchNorm2d(0.002 GMac, 0.007% MACs, 408, eps=1e-05, momentum=0.1, affine=True, track_running_stats=True)
        (conv3): Conv2d(0.384 GMac, 1.512% MACs, 408, 408, kernel_size=(1, 1), stride=(1, 1), bias=False)
        (bn3): BatchNorm2d(0.002 GMac, 0.007% MACs, 408, eps=1e-05, momentum=0.1, affine=True, track_running_stats=True)
        (relu1): ReLU(0.001 GMac, 0.004% MACs, inplace=True)
        (relu2): ReLU(0.001 GMac, 0.004% MACs, inplace=True)
        (relu3): ReLU(0.001 GMac, 0.004% MACs, inplace=True)
        (add): AddBlock(inplace=False, signed=True)
      )
      (4): Bottleneck(
        0.979 GMac, 3.858% MACs, 
        (conv1): Conv2d(0.384 GMac, 1.512% MACs, 408, 408, kernel_size=(1, 1), stride=(1, 1), bias=False)
        (bn1): BatchNorm2d(0.002 GMac, 0.007% MACs, 408, eps=1e-05, momentum=0.1, affine=True, track_running_stats=True)
        (conv2): Conv2d(0.203 GMac, 0.800% MACs, 408, 408, kernel_size=(3, 3), stride=(1, 1), padding=(1, 1), groups=17, bias=False)
        (bn2): BatchNorm2d(0.002 GMac, 0.007% MACs, 408, eps=1e-05, momentum=0.1, affine=True, track_running_stats=True)
        (conv3): Conv2d(0.384 GMac, 1.512% MACs, 408, 408, kernel_size=(1, 1), stride=(1, 1), bias=False)
        (bn3): BatchNorm2d(0.002 GMac, 0.007% MACs, 408, eps=1e-05, momentum=0.1, affine=True, track_running_stats=True)
        (relu1): ReLU(0.001 GMac, 0.004% MACs, inplace=True)
        (relu2): ReLU(0.001 GMac, 0.004% MACs, inplace=True)
        (relu3): ReLU(0.001 GMac, 0.004% MACs, inplace=True)
        (add): AddBlock(inplace=False, signed=True)
      )
      (5): Bottleneck(
        0.979 GMac, 3.858% MACs, 
        (conv1): Conv2d(0.384 GMac, 1.512% MACs, 408, 408, kernel_size=(1, 1), stride=(1, 1), bias=False)
        (bn1): BatchNorm2d(0.002 GMac, 0.007% MACs, 408, eps=1e-05, momentum=0.1, affine=True, track_running_stats=True)
        (conv2): Conv2d(0.203 GMac, 0.800% MACs, 408, 408, kernel_size=(3, 3), stride=(1, 1), padding=(1, 1), groups=17, bias=False)
        (bn2): BatchNorm2d(0.002 GMac, 0.007% MACs, 408, eps=1e-05, momentum=0.1, affine=True, track_running_stats=True)
        (conv3): Conv2d(0.384 GMac, 1.512% MACs, 408, 408, kernel_size=(1, 1), stride=(1, 1), bias=False)
        (bn3): BatchNorm2d(0.002 GMac, 0.007% MACs, 408, eps=1e-05, momentum=0.1, affine=True, track_running_stats=True)
        (relu1): ReLU(0.001 GMac, 0.004% MACs, inplace=True)
        (relu2): ReLU(0.001 GMac, 0.004% MACs, inplace=True)
        (relu3): ReLU(0.001 GMac, 0.004% MACs, inplace=True)
        (add): AddBlock(inplace=False, signed=True)
      )
      (6): Bottleneck(
        0.979 GMac, 3.858% MACs, 
        (conv1): Conv2d(0.384 GMac, 1.512% MACs, 408, 408, kernel_size=(1, 1), stride=(1, 1), bias=False)
        (bn1): BatchNorm2d(0.002 GMac, 0.007% MACs, 408, eps=1e-05, momentum=0.1, affine=True, track_running_stats=True)
        (conv2): Conv2d(0.203 GMac, 0.800% MACs, 408, 408, kernel_size=(3, 3), stride=(1, 1), padding=(1, 1), groups=17, bias=False)
        (bn2): BatchNorm2d(0.002 GMac, 0.007% MACs, 408, eps=1e-05, momentum=0.1, affine=True, track_running_stats=True)
        (conv3): Conv2d(0.384 GMac, 1.512% MACs, 408, 408, kernel_size=(1, 1), stride=(1, 1), bias=False)
        (bn3): BatchNorm2d(0.002 GMac, 0.007% MACs, 408, eps=1e-05, momentum=0.1, affine=True, track_running_stats=True)
        (relu1): ReLU(0.001 GMac, 0.004% MACs, inplace=True)
        (relu2): ReLU(0.001 GMac, 0.004% MACs, inplace=True)
        (relu3): ReLU(0.001 GMac, 0.004% MACs, inplace=True)
        (add): AddBlock(inplace=False, signed=True)
      )
      (7): Bottleneck(
        0.979 GMac, 3.858% MACs, 
        (conv1): Conv2d(0.384 GMac, 1.512% MACs, 408, 408, kernel_size=(1, 1), stride=(1, 1), bias=False)
        (bn1): BatchNorm2d(0.002 GMac, 0.007% MACs, 408, eps=1e-05, momentum=0.1, affine=True, track_running_stats=True)
        (conv2): Conv2d(0.203 GMac, 0.800% MACs, 408, 408, kernel_size=(3, 3), stride=(1, 1), padding=(1, 1), groups=17, bias=False)
        (bn2): BatchNorm2d(0.002 GMac, 0.007% MACs, 408, eps=1e-05, momentum=0.1, affine=True, track_running_stats=True)
        (conv3): Conv2d(0.384 GMac, 1.512% MACs, 408, 408, kernel_size=(1, 1), stride=(1, 1), bias=False)
        (bn3): BatchNorm2d(0.002 GMac, 0.007% MACs, 408, eps=1e-05, momentum=0.1, affine=True, track_running_stats=True)
        (relu1): ReLU(0.001 GMac, 0.004% MACs, inplace=True)
        (relu2): ReLU(0.001 GMac, 0.004% MACs, inplace=True)
        (relu3): ReLU(0.001 GMac, 0.004% MACs, inplace=True)
        (add): AddBlock(inplace=False, signed=True)
      )
      (8): Bottleneck(
        0.979 GMac, 3.858% MACs, 
        (conv1): Conv2d(0.384 GMac, 1.512% MACs, 408, 408, kernel_size=(1, 1), stride=(1, 1), bias=False)
        (bn1): BatchNorm2d(0.002 GMac, 0.007% MACs, 408, eps=1e-05, momentum=0.1, affine=True, track_running_stats=True)
        (conv2): Conv2d(0.203 GMac, 0.800% MACs, 408, 408, kernel_size=(3, 3), stride=(1, 1), padding=(1, 1), groups=17, bias=False)
        (bn2): BatchNorm2d(0.002 GMac, 0.007% MACs, 408, eps=1e-05, momentum=0.1, affine=True, track_running_stats=True)
        (conv3): Conv2d(0.384 GMac, 1.512% MACs, 408, 408, kernel_size=(1, 1), stride=(1, 1), bias=False)
        (bn3): BatchNorm2d(0.002 GMac, 0.007% MACs, 408, eps=1e-05, momentum=0.1, affine=True, track_running_stats=True)
        (relu1): ReLU(0.001 GMac, 0.004% MACs, inplace=True)
        (relu2): ReLU(0.001 GMac, 0.004% MACs, inplace=True)
        (relu3): ReLU(0.001 GMac, 0.004% MACs, inplace=True)
        (add): AddBlock(inplace=False, signed=True)
      )
      (9): Bottleneck(
        0.979 GMac, 3.858% MACs, 
        (conv1): Conv2d(0.384 GMac, 1.512% MACs, 408, 408, kernel_size=(1, 1), stride=(1, 1), bias=False)
        (bn1): BatchNorm2d(0.002 GMac, 0.007% MACs, 408, eps=1e-05, momentum=0.1, affine=True, track_running_stats=True)
        (conv2): Conv2d(0.203 GMac, 0.800% MACs, 408, 408, kernel_size=(3, 3), stride=(1, 1), padding=(1, 1), groups=17, bias=False)
        (bn2): BatchNorm2d(0.002 GMac, 0.007% MACs, 408, eps=1e-05, momentum=0.1, affine=True, track_running_stats=True)
        (conv3): Conv2d(0.384 GMac, 1.512% MACs, 408, 408, kernel_size=(1, 1), stride=(1, 1), bias=False)
        (bn3): BatchNorm2d(0.002 GMac, 0.007% MACs, 408, eps=1e-05, momentum=0.1, affine=True, track_running_stats=True)
        (relu1): ReLU(0.001 GMac, 0.004% MACs, inplace=True)
        (relu2): ReLU(0.001 GMac, 0.004% MACs, inplace=True)
        (relu3): ReLU(0.001 GMac, 0.004% MACs, inplace=True)
        (add): AddBlock(inplace=False, signed=True)
      )
    )
    (layer4): ResLayer(
      2.751 GMac, 10.846% MACs, 
      (0): Bottleneck(
        1.675 GMac, 6.602% MACs, 
        (conv1): Conv2d(0.857 GMac, 3.380% MACs, 408, 912, kernel_size=(1, 1), stride=(1, 1), bias=False)
        (bn1): BatchNorm2d(0.004 GMac, 0.017% MACs, 912, eps=1e-05, momentum=0.1, affine=True, track_running_stats=True)
        (conv2): Conv2d(0.113 GMac, 0.447% MACs, 912, 912, kernel_size=(3, 3), stride=(2, 2), padding=(1, 1), groups=38, bias=False)
        (bn2): BatchNorm2d(0.001 GMac, 0.004% MACs, 912, eps=1e-05, momentum=0.1, affine=True, track_running_stats=True)
        (conv3): Conv2d(0.479 GMac, 1.889% MACs, 912, 912, kernel_size=(1, 1), stride=(1, 1), bias=False)
        (bn3): BatchNorm2d(0.001 GMac, 0.004% MACs, 912, eps=1e-05, momentum=0.1, affine=True, track_running_stats=True)
        (relu1): ReLU(0.002 GMac, 0.008% MACs, inplace=True)
        (relu2): ReLU(0.001 GMac, 0.002% MACs, inplace=True)
        (relu3): ReLU(0.001 GMac, 0.002% MACs, inplace=True)
        (downsample): Sequential(
          0.215 GMac, 0.849% MACs, 
          (0): Conv2d(0.214 GMac, 0.845% MACs, 408, 912, kernel_size=(1, 1), stride=(2, 2), bias=False)
          (1): BatchNorm2d(0.001 GMac, 0.004% MACs, 912, eps=1e-05, momentum=0.1, affine=True, track_running_stats=True)
        )
        (add): AddBlock(inplace=False, signed=True)
      )
      (1): Bottleneck(
        1.076 GMac, 4.243% MACs, 
        (conv1): Conv2d(0.479 GMac, 1.889% MACs, 912, 912, kernel_size=(1, 1), stride=(1, 1), bias=False)
        (bn1): BatchNorm2d(0.001 GMac, 0.004% MACs, 912, eps=1e-05, momentum=0.1, affine=True, track_running_stats=True)
        (conv2): Conv2d(0.113 GMac, 0.447% MACs, 912, 912, kernel_size=(3, 3), stride=(1, 1), padding=(1, 1), groups=38, bias=False)
        (bn2): BatchNorm2d(0.001 GMac, 0.004% MACs, 912, eps=1e-05, momentum=0.1, affine=True, track_running_stats=True)
        (conv3): Conv2d(0.479 GMac, 1.889% MACs, 912, 912, kernel_size=(1, 1), stride=(1, 1), bias=False)
        (bn3): BatchNorm2d(0.001 GMac, 0.004% MACs, 912, eps=1e-05, momentum=0.1, affine=True, track_running_stats=True)
        (relu1): ReLU(0.001 GMac, 0.002% MACs, inplace=True)
        (relu2): ReLU(0.001 GMac, 0.002% MACs, inplace=True)
        (relu3): ReLU(0.001 GMac, 0.002% MACs, inplace=True)
        (add): AddBlock(inplace=False, signed=True)
      )
    )
  )
  (neck): BiFPNLite(
    4.563 GMac, 17.988% MACs, 
    (bifpn_blocks): Sequential(
      4.563 GMac, 17.988% MACs, 
      (0): BiFPNLiteBlock(
        1.54 GMac, 6.073% MACs, 
        (in_convs): ModuleList(
          0.533 GMac, 2.101% MACs, 
          (0): ConvNormAct2d(
            0.263 GMac, 1.038% MACs, 
            (0): Conv2d(0.26 GMac, 1.025% MACs, 168, 168, kernel_size=(1, 1), stride=(1, 1), bias=False)
            (1): BatchNorm2d(0.003 GMac, 0.012% MACs, 168, eps=1e-05, momentum=0.1, affine=True, track_running_stats=True)
          )
          (1): ConvNormAct2d(
            0.159 GMac, 0.626% MACs, 
            (0): Conv2d(0.158 GMac, 0.623% MACs, 408, 168, kernel_size=(1, 1), stride=(1, 1), bias=False)
            (1): BatchNorm2d(0.001 GMac, 0.003% MACs, 168, eps=1e-05, momentum=0.1, affine=True, track_running_stats=True)
          )
          (2): ConvNormAct2d(
            0.088 GMac, 0.349% MACs, 
            (0): Conv2d(0.088 GMac, 0.348% MACs, 912, 168, kernel_size=(1, 1), stride=(1, 1), bias=False)
            (1): BatchNorm2d(0.0 GMac, 0.001% MACs, 168, eps=1e-05, momentum=0.1, affine=True, track_running_stats=True)
          )
          (3): Sequential(
            0.023 GMac, 0.089% MACs, 
            (0): MaxPool2d(0.001 GMac, 0.002% MACs, kernel_size=3, stride=2, padding=1, dilation=1, ceil_mode=False)
            (1): ConvNormAct2d(
              0.022 GMac, 0.087% MACs, 
              (0): Conv2d(0.022 GMac, 0.087% MACs, 912, 168, kernel_size=(1, 1), stride=(1, 1), bias=False)
              (1): BatchNorm2d(0.0 GMac, 0.000% MACs, 168, eps=1e-05, momentum=0.1, affine=True, track_running_stats=True)
            )
          )
          (4): MaxPool2d(0.0 GMac, 0.000% MACs, kernel_size=3, stride=2, padding=1, dilation=1, ceil_mode=False)
          (5): MaxPool2d(0.0 GMac, 0.000% MACs, kernel_size=3, stride=2, padding=1, dilation=1, ceil_mode=False)
        )
        (ups): ModuleList(
          0.0 GMac, 0.000% MACs, 
          (0): ResizeWith(0.0 GMac, 0.000% MACs, )
          (1): ResizeWith(0.0 GMac, 0.000% MACs, )
          (2): ResizeWith(0.0 GMac, 0.000% MACs, )
          (3): ResizeWith(0.0 GMac, 0.000% MACs, )
          (4): ResizeWith(0.0 GMac, 0.000% MACs, )
        )
        (up_convs): ModuleList(
          0.802 GMac, 3.163% MACs, 
          (0): ConvDWSep2d(
            0.602 GMac, 2.374% MACs, 
            (0): Sequential(
              0.339 GMac, 1.337% MACs, 
              (0): Conv2d(0.334 GMac, 1.318% MACs, 168, 168, kernel_size=(3, 3), stride=(1, 1), padding=(1, 1), groups=7, bias=False)
              (1): BatchNorm2d(0.003 GMac, 0.012% MACs, 168, eps=1e-05, momentum=0.1, affine=True, track_running_stats=True)
              (2): ReLU(0.002 GMac, 0.006% MACs, )
            )
            (1): Sequential(
              0.263 GMac, 1.038% MACs, 
              (0): Conv2d(0.26 GMac, 1.025% MACs, 168, 168, kernel_size=(1, 1), stride=(1, 1), bias=False)
              (1): BatchNorm2d(0.003 GMac, 0.012% MACs, 168, eps=1e-05, momentum=0.1, affine=True, track_running_stats=True)
            )
          )
          (1): ConvDWSep2d(
            0.151 GMac, 0.594% MACs, 
            (0): Sequential(
              0.085 GMac, 0.334% MACs, 
              (0): Conv2d(0.084 GMac, 0.330% MACs, 168, 168, kernel_size=(3, 3), stride=(1, 1), padding=(1, 1), groups=7, bias=False)
              (1): BatchNorm2d(0.001 GMac, 0.003% MACs, 168, eps=1e-05, momentum=0.1, affine=True, track_running_stats=True)
              (2): ReLU(0.0 GMac, 0.002% MACs, )
            )
            (1): Sequential(
              0.066 GMac, 0.259% MACs, 
              (0): Conv2d(0.065 GMac, 0.256% MACs, 168, 168, kernel_size=(1, 1), stride=(1, 1), bias=False)
              (1): BatchNorm2d(0.001 GMac, 0.003% MACs, 168, eps=1e-05, momentum=0.1, affine=True, track_running_stats=True)
            )
          )
          (2): ConvDWSep2d(
            0.038 GMac, 0.148% MACs, 
            (0): Sequential(
              0.021 GMac, 0.084% MACs, 
              (0): Conv2d(0.021 GMac, 0.082% MACs, 168, 168, kernel_size=(3, 3), stride=(1, 1), padding=(1, 1), groups=7, bias=False)
              (1): BatchNorm2d(0.0 GMac, 0.001% MACs, 168, eps=1e-05, momentum=0.1, affine=True, track_running_stats=True)
              (2): ReLU(0.0 GMac, 0.000% MACs, )
            )
            (1): Sequential(
              0.016 GMac, 0.065% MACs, 
              (0): Conv2d(0.016 GMac, 0.064% MACs, 168, 168, kernel_size=(1, 1), stride=(1, 1), bias=False)
              (1): BatchNorm2d(0.0 GMac, 0.001% MACs, 168, eps=1e-05, momentum=0.1, affine=True, track_running_stats=True)
            )
          )
          (3): ConvDWSep2d(
            0.009 GMac, 0.037% MACs, 
            (0): Sequential(
              0.005 GMac, 0.021% MACs, 
              (0): Conv2d(0.005 GMac, 0.021% MACs, 168, 168, kernel_size=(3, 3), stride=(1, 1), padding=(1, 1), groups=7, bias=False)
              (1): BatchNorm2d(0.0 GMac, 0.000% MACs, 168, eps=1e-05, momentum=0.1, affine=True, track_running_stats=True)
              (2): ReLU(0.0 GMac, 0.000% MACs, )
            )
            (1): Sequential(
              0.004 GMac, 0.016% MACs, 
              (0): Conv2d(0.004 GMac, 0.016% MACs, 168, 168, kernel_size=(1, 1), stride=(1, 1), bias=False)
              (1): BatchNorm2d(0.0 GMac, 0.000% MACs, 168, eps=1e-05, momentum=0.1, affine=True, track_running_stats=True)
            )
          )
          (4): ConvDWSep2d(
            0.002 GMac, 0.009% MACs, 
            (0): Sequential(
              0.001 GMac, 0.005% MACs, 
              (0): Conv2d(0.001 GMac, 0.005% MACs, 168, 168, kernel_size=(3, 3), stride=(1, 1), padding=(1, 1), groups=7, bias=False)
              (1): BatchNorm2d(0.0 GMac, 0.000% MACs, 168, eps=1e-05, momentum=0.1, affine=True, track_running_stats=True)
              (2): ReLU(0.0 GMac, 0.000% MACs, )
            )
            (1): Sequential(
              0.001 GMac, 0.004% MACs, 
              (0): Conv2d(0.001 GMac, 0.004% MACs, 168, 168, kernel_size=(1, 1), stride=(1, 1), bias=False)
              (1): BatchNorm2d(0.0 GMac, 0.000% MACs, 168, eps=1e-05, momentum=0.1, affine=True, track_running_stats=True)
            )
          )
        )
        (up_acts): ModuleList(
          0.002 GMac, 0.008% MACs, 
          (0): ReLU(0.002 GMac, 0.006% MACs, )
          (1): ReLU(0.0 GMac, 0.002% MACs, )
          (2): ReLU(0.0 GMac, 0.000% MACs, )
          (3): ReLU(0.0 GMac, 0.000% MACs, )
          (4): ReLU(0.0 GMac, 0.000% MACs, )
…
          (1): MaxPool2d(0.0 GMac, 0.002% MACs, kernel_size=3, stride=2, padding=1, dilation=1, ceil_mode=False)
          (2): MaxPool2d(0.0 GMac, 0.000% MACs, kernel_size=3, stride=2, padding=1, dilation=1, ceil_mode=False)
          (3): MaxPool2d(0.0 GMac, 0.000% MACs, kernel_size=3, stride=2, padding=1, dilation=1, ceil_mode=False)
          (4): MaxPool2d(0.0 GMac, 0.000% MACs, kernel_size=3, stride=2, padding=1, dilation=1, ceil_mode=False)
        )
        (down_convs): ModuleList(
          0.201 GMac, 0.791% MACs, 
          (0): ConvDWSep2d(
            0.151 GMac, 0.594% MACs, 
            (0): Sequential(
              0.085 GMac, 0.334% MACs, 
              (0): Conv2d(0.084 GMac, 0.330% MACs, 168, 168, kernel_size=(3, 3), stride=(1, 1), padding=(1, 1), groups=7, bias=False)
              (1): BatchNorm2d(0.001 GMac, 0.003% MACs, 168, eps=1e-05, momentum=0.1, affine=True, track_running_stats=True)
              (2): ReLU(0.0 GMac, 0.002% MACs, )
            )
            (1): Sequential(
              0.066 GMac, 0.259% MACs, 
              (0): Conv2d(0.065 GMac, 0.256% MACs, 168, 168, kernel_size=(1, 1), stride=(1, 1), bias=False)
              (1): BatchNorm2d(0.001 GMac, 0.003% MACs, 168, eps=1e-05, momentum=0.1, affine=True, track_running_stats=True)
            )
          )
          (1): ConvDWSep2d(
            0.038 GMac, 0.148% MACs, 
            (0): Sequential(
              0.021 GMac, 0.084% MACs, 
              (0): Conv2d(0.021 GMac, 0.082% MACs, 168, 168, kernel_size=(3, 3), stride=(1, 1), padding=(1, 1), groups=7, bias=False)
              (1): BatchNorm2d(0.0 GMac, 0.001% MACs, 168, eps=1e-05, momentum=0.1, affine=True, track_running_stats=True)
              (2): ReLU(0.0 GMac, 0.000% MACs, )
            )
            (1): Sequential(
              0.016 GMac, 0.065% MACs, 
              (0): Conv2d(0.016 GMac, 0.064% MACs, 168, 168, kernel_size=(1, 1), stride=(1, 1), bias=False)
              (1): BatchNorm2d(0.0 GMac, 0.001% MACs, 168, eps=1e-05, momentum=0.1, affine=True, track_running_stats=True)
            )
          )
          (2): ConvDWSep2d(
            0.009 GMac, 0.037% MACs, 
            (0): Sequential(
              0.005 GMac, 0.021% MACs, 
              (0): Conv2d(0.005 GMac, 0.021% MACs, 168, 168, kernel_size=(3, 3), stride=(1, 1), padding=(1, 1), groups=7, bias=False)
              (1): BatchNorm2d(0.0 GMac, 0.000% MACs, 168, eps=1e-05, momentum=0.1, affine=True, track_running_stats=True)
              (2): ReLU(0.0 GMac, 0.000% MACs, )
            )
            (1): Sequential(
              0.004 GMac, 0.016% MACs, 
              (0): Conv2d(0.004 GMac, 0.016% MACs, 168, 168, kernel_size=(1, 1), stride=(1, 1), bias=False)
              (1): BatchNorm2d(0.0 GMac, 0.000% MACs, 168, eps=1e-05, momentum=0.1, affine=True, track_running_stats=True)
            )
          )
          (3): ConvDWSep2d(
            0.002 GMac, 0.009% MACs, 
            (0): Sequential(
              0.001 GMac, 0.005% MACs, 
              (0): Conv2d(0.001 GMac, 0.005% MACs, 168, 168, kernel_size=(3, 3), stride=(1, 1), padding=(1, 1), groups=7, bias=False)
              (1): BatchNorm2d(0.0 GMac, 0.000% MACs, 168, eps=1e-05, momentum=0.1, affine=True, track_running_stats=True)
              (2): ReLU(0.0 GMac, 0.000% MACs, )
            )
            (1): Sequential(
              0.001 GMac, 0.004% MACs, 
              (0): Conv2d(0.001 GMac, 0.004% MACs, 168, 168, kernel_size=(1, 1), stride=(1, 1), bias=False)
              (1): BatchNorm2d(0.0 GMac, 0.000% MACs, 168, eps=1e-05, momentum=0.1, affine=True, track_running_stats=True)
            )
          )
          (4): ConvDWSep2d(
            0.001 GMac, 0.002% MACs, 
            (0): Sequential(
              0.0 GMac, 0.001% MACs, 
              (0): Conv2d(0.0 GMac, 0.001% MACs, 168, 168, kernel_size=(3, 3), stride=(1, 1), padding=(1, 1), groups=7, bias=False)
              (1): BatchNorm2d(0.0 GMac, 0.000% MACs, 168, eps=1e-05, momentum=0.1, affine=True, track_running_stats=True)
              (2): ReLU(0.0 GMac, 0.000% MACs, )
            )
            (1): Sequential(
              0.0 GMac, 0.001% MACs, 
              (0): Conv2d(0.0 GMac, 0.001% MACs, 168, 168, kernel_size=(1, 1), stride=(1, 1), bias=False)
              (1): BatchNorm2d(0.0 GMac, 0.000% MACs, 168, eps=1e-05, momentum=0.1, affine=True, track_running_stats=True)
            )
          )
        )
        (down_acts): ModuleList(
          0.001 GMac, 0.002% MACs, 
          (0): ReLU(0.0 GMac, 0.002% MACs, )
          (1): ReLU(0.0 GMac, 0.000% MACs, )
          (2): ReLU(0.0 GMac, 0.000% MACs, )
          (3): ReLU(0.0 GMac, 0.000% MACs, )
          (4): ReLU(0.0 GMac, 0.000% MACs, )
…
      (1): BiFPNLiteBlock(
        1.007 GMac, 3.972% MACs, 
        (ups): ModuleList(
          0.0 GMac, 0.000% MACs, 
          (0): ResizeWith(0.0 GMac, 0.000% MACs, )
          (1): ResizeWith(0.0 GMac, 0.000% MACs, )
          (2): ResizeWith(0.0 GMac, 0.000% MACs, )
          (3): ResizeWith(0.0 GMac, 0.000% MACs, )
          (4): ResizeWith(0.0 GMac, 0.000% MACs, )
        )
        (up_convs): ModuleList(
          0.802 GMac, 3.163% MACs, 
          (0): ConvDWSep2d(
            0.602 GMac, 2.374% MACs, 
            (0): Sequential(
              0.339 GMac, 1.337% MACs, 
              (0): Conv2d(0.334 GMac, 1.318% MACs, 168, 168, kernel_size=(3, 3), stride=(1, 1), padding=(1, 1), groups=7, bias=False)
              (1): BatchNorm2d(0.003 GMac, 0.012% MACs, 168, eps=1e-05, momentum=0.1, affine=True, track_running_stats=True)
              (2): ReLU(0.002 GMac, 0.006% MACs, )
            )
            (1): Sequential(
              0.263 GMac, 1.038% MACs, 
              (0): Conv2d(0.26 GMac, 1.025% MACs, 168, 168, kernel_size=(1, 1), stride=(1, 1), bias=False)
              (1): BatchNorm2d(0.003 GMac, 0.012% MACs, 168, eps=1e-05, momentum=0.1, affine=True, track_running_stats=True)
            )
          )
          (1): ConvDWSep2d(
            0.151 GMac, 0.594% MACs, 
            (0): Sequential(
              0.085 GMac, 0.334% MACs, 
              (0): Conv2d(0.084 GMac, 0.330% MACs, 168, 168, kernel_size=(3, 3), stride=(1, 1), padding=(1, 1), groups=7, bias=False)
              (1): BatchNorm2d(0.001 GMac, 0.003% MACs, 168, eps=1e-05, momentum=0.1, affine=True, track_running_stats=True)
              (2): ReLU(0.0 GMac, 0.002% MACs, )
            )
            (1): Sequential(
              0.066 GMac, 0.259% MACs, 
              (0): Conv2d(0.065 GMac, 0.256% MACs, 168, 168, kernel_size=(1, 1), stride=(1, 1), bias=False)
              (1): BatchNorm2d(0.001 GMac, 0.003% MACs, 168, eps=1e-05, momentum=0.1, affine=True, track_running_stats=True)
            )
          )
          (2): ConvDWSep2d(
            0.038 GMac, 0.148% MACs, 
            (0): Sequential(
              0.021 GMac, 0.084% MACs, 
              (0): Conv2d(0.021 GMac, 0.082% MACs, 168, 168, kernel_size=(3, 3), stride=(1, 1), padding=(1, 1), groups=7, bias=False)
              (1): BatchNorm2d(0.0 GMac, 0.001% MACs, 168, eps=1e-05, momentum=0.1, affine=True, track_running_stats=True)
              (2): ReLU(0.0 GMac, 0.000% MACs, )
            )
            (1): Sequential(
              0.016 GMac, 0.065% MACs, 
              (0): Conv2d(0.016 GMac, 0.064% MACs, 168, 168, kernel_size=(1, 1), stride=(1, 1), bias=False)
              (1): BatchNorm2d(0.0 GMac, 0.001% MACs, 168, eps=1e-05, momentum=0.1, affine=True, track_running_stats=True)
            )
          )
          (3): ConvDWSep2d(
            0.009 GMac, 0.037% MACs, 
            (0): Sequential(
              0.005 GMac, 0.021% MACs, 
              (0): Conv2d(0.005 GMac, 0.021% MACs, 168, 168, kernel_size=(3, 3), stride=(1, 1), padding=(1, 1), groups=7, bias=False)
              (1): BatchNorm2d(0.0 GMac, 0.000% MACs, 168, eps=1e-05, momentum=0.1, affine=True, track_running_stats=True)
              (2): ReLU(0.0 GMac, 0.000% MACs, )
            )
            (1): Sequential(
              0.004 GMac, 0.016% MACs, 
              (0): Conv2d(0.004 GMac, 0.016% MACs, 168, 168, kernel_size=(1, 1), stride=(1, 1), bias=False)
              (1): BatchNorm2d(0.0 GMac, 0.000% MACs, 168, eps=1e-05, momentum=0.1, affine=True, track_running_stats=True)
            )
          )
          (4): ConvDWSep2d(
            0.002 GMac, 0.009% MACs, 
            (0): Sequential(
              0.001 GMac, 0.005% MACs, 
              (0): Conv2d(0.001 GMac, 0.005% MACs, 168, 168, kernel_size=(3, 3), stride=(1, 1), padding=(1, 1), groups=7, bias=False)
              (1): BatchNorm2d(0.0 GMac, 0.000% MACs, 168, eps=1e-05, momentum=0.1, affine=True, track_running_stats=True)
              (2): ReLU(0.0 GMac, 0.000% MACs, )
            )
            (1): Sequential(
              0.001 GMac, 0.004% MACs, 
              (0): Conv2d(0.001 GMac, 0.004% MACs, 168, 168, kernel_size=(1, 1), stride=(1, 1), bias=False)
              (1): BatchNorm2d(0.0 GMac, 0.000% MACs, 168, eps=1e-05, momentum=0.1, affine=True, track_running_stats=True)
            )
          )
        )
        (up_acts): ModuleList(
          0.002 GMac, 0.008% MACs, 
          (0): ReLU(0.002 GMac, 0.006% MACs, )
          (1): ReLU(0.0 GMac, 0.002% MACs, )
          (2): ReLU(0.0 GMac, 0.000% MACs, )
          (3): ReLU(0.0 GMac, 0.000% MACs, )
          (4): ReLU(0.0 GMac, 0.000% MACs, )
…
          0.0 GMac, 0.000% MACs, 
          (0): AddBlock(inplace=False, signed=True)
          (1): AddBlock(inplace=False, signed=True)
          (2): AddBlock(inplace=False, signed=True)
          (3): AddBlock(inplace=False, signed=True)
          (4): AddBlock(inplace=False, signed=True)
        )
      )
    )
    (extra_convs): ModuleList(0.0 GMac, 0.000% MACs, )
  )
  (bbox_head): SSDLiteHead(
    1.698 GMac, 6.693% MACs, 
    (reg_convs): ModuleList(
      0.489 GMac, 1.929% MACs, 
      (0): ConvDWSep2d(
        0.364 GMac, 1.435% MACs, 
        (0): Sequential(
          0.339 GMac, 1.337% MACs, 
          (0): Conv2d(0.334 GMac, 1.318% MACs, 168, 168, kernel_size=(3, 3), stride=(1, 1), padding=(1, 1), groups=7, bias=False)
          (1): BatchNorm2d(0.003 GMac, 0.012% MACs, 168, eps=1e-05, momentum=0.1, affine=True, track_running_stats=True)
          (2): ReLU(0.002 GMac, 0.006% MACs, )
        )
        (1): Sequential(
          0.025 GMac, 0.098% MACs, 
          (0): Conv2d(0.025 GMac, 0.098% MACs, 168, 16, kernel_size=(1, 1), stride=(1, 1))
        )
      )
      (1): ConvDWSep2d(
        0.094 GMac, 0.371% MACs, 
        (0): Sequential(
          0.085 GMac, 0.334% MACs, 
          (0): Conv2d(0.084 GMac, 0.330% MACs, 168, 168, kernel_size=(3, 3), stride=(1, 1), padding=(1, 1), groups=7, bias=False)
          (1): BatchNorm2d(0.001 GMac, 0.003% MACs, 168, eps=1e-05, momentum=0.1, affine=True, track_running_stats=True)
          (2): ReLU(0.0 GMac, 0.002% MACs, )
        )
        (1): Sequential(
          0.009 GMac, 0.037% MACs, 
          (0): Conv2d(0.009 GMac, 0.037% MACs, 168, 24, kernel_size=(1, 1), stride=(1, 1))
        )
      )
      (2): ConvDWSep2d(
        0.024 GMac, 0.093% MACs, 
        (0): Sequential(
          0.021 GMac, 0.084% MACs, 
          (0): Conv2d(0.021 GMac, 0.082% MACs, 168, 168, kernel_size=(3, 3), stride=(1, 1), padding=(1, 1), groups=7, bias=False)
          (1): BatchNorm2d(0.0 GMac, 0.001% MACs, 168, eps=1e-05, momentum=0.1, affine=True, track_running_stats=True)
          (2): ReLU(0.0 GMac, 0.000% MACs, )
        )
        (1): Sequential(
          0.002 GMac, 0.009% MACs, 
          (0): Conv2d(0.002 GMac, 0.009% MACs, 168, 24, kernel_size=(1, 1), stride=(1, 1))
        )
      )
      (3): ConvDWSep2d(
        0.006 GMac, 0.023% MACs, 
        (0): Sequential(
          0.005 GMac, 0.021% MACs, 
          (0): Conv2d(0.005 GMac, 0.021% MACs, 168, 168, kernel_size=(3, 3), stride=(1, 1), padding=(1, 1), groups=7, bias=False)
          (1): BatchNorm2d(0.0 GMac, 0.000% MACs, 168, eps=1e-05, momentum=0.1, affine=True, track_running_stats=True)
          (2): ReLU(0.0 GMac, 0.000% MACs, )
        )
        (1): Sequential(
          0.001 GMac, 0.002% MACs, 
          (0): Conv2d(0.001 GMac, 0.002% MACs, 168, 24, kernel_size=(1, 1), stride=(1, 1))
        )
      )
      (4): ConvDWSep2d(
        0.001 GMac, 0.006% MACs, 
        (0): Sequential(
          0.001 GMac, 0.005% MACs, 
          (0): Conv2d(0.001 GMac, 0.005% MACs, 168, 168, kernel_size=(3, 3), stride=(1, 1), padding=(1, 1), groups=7, bias=False)
          (1): BatchNorm2d(0.0 GMac, 0.000% MACs, 168, eps=1e-05, momentum=0.1, affine=True, track_running_stats=True)
          (2): ReLU(0.0 GMac, 0.000% MACs, )
        )
        (1): Sequential(
          0.0 GMac, 0.001% MACs, 
          (0): Conv2d(0.0 GMac, 0.001% MACs, 168, 24, kernel_size=(1, 1), stride=(1, 1))
        )
      )
      (5): ConvDWSep2d(
        0.0 GMac, 0.001% MACs, 
        (0): Sequential(
          0.0 GMac, 0.001% MACs, 
          (0): Conv2d(0.0 GMac, 0.001% MACs, 168, 168, kernel_size=(3, 3), stride=(1, 1), padding=(1, 1), groups=7, bias=False)
          (1): BatchNorm2d(0.0 GMac, 0.000% MACs, 168, eps=1e-05, momentum=0.1, affine=True, track_running_stats=True)
          (2): ReLU(0.0 GMac, 0.000% MACs, )
        )
        (1): Sequential(
          0.0 GMac, 0.000% MACs, 
          (0): Conv2d(0.0 GMac, 0.000% MACs, 168, 16, kernel_size=(1, 1), stride=(1, 1))
        )
      )
    )
    (cls_convs): ModuleList(
      1.208 GMac, 4.764% MACs, 
      (0): ConvDWSep2d(
        0.844 GMac, 3.326% MACs, 
        (0): Sequential(
          0.339 GMac, 1.337% MACs, 
          (0): Conv2d(0.334 GMac, 1.318% MACs, 168, 168, kernel_size=(3, 3), stride=(1, 1), padding=(1, 1), groups=7, bias=False)
          (1): BatchNorm2d(0.003 GMac, 0.012% MACs, 168, eps=1e-05, momentum=0.1, affine=True, track_running_stats=True)
          (2): ReLU(0.002 GMac, 0.006% MACs, )
        )
        (1): Sequential(
          0.505 GMac, 1.989% MACs, 
          (0): Conv2d(0.505 GMac, 1.989% MACs, 168, 324, kernel_size=(1, 1), stride=(1, 1))
        )
      )
      (1): ConvDWSep2d(
        0.274 GMac, 1.080% MACs, 
        (0): Sequential(
          0.085 GMac, 0.334% MACs, 
          (0): Conv2d(0.084 GMac, 0.330% MACs, 168, 168, kernel_size=(3, 3), stride=(1, 1), padding=(1, 1), groups=7, bias=False)
          (1): BatchNorm2d(0.001 GMac, 0.003% MACs, 168, eps=1e-05, momentum=0.1, affine=True, track_running_stats=True)
          (2): ReLU(0.0 GMac, 0.002% MACs, )
        )
        (1): Sequential(
          0.189 GMac, 0.746% MACs, 
          (0): Conv2d(0.189 GMac, 0.746% MACs, 168, 486, kernel_size=(1, 1), stride=(1, 1))
        )
      )
      (2): ConvDWSep2d(
        0.069 GMac, 0.270% MACs, 
        (0): Sequential(
          0.021 GMac, 0.084% MACs, 
          (0): Conv2d(0.021 GMac, 0.082% MACs, 168, 168, kernel_size=(3, 3), stride=(1, 1), padding=(1, 1), groups=7, bias=False)
          (1): BatchNorm2d(0.0 GMac, 0.001% MACs, 168, eps=1e-05, momentum=0.1, affine=True, track_running_stats=True)
          (2): ReLU(0.0 GMac, 0.000% MACs, )
        )
        (1): Sequential(
          0.047 GMac, 0.187% MACs, 
          (0): Conv2d(0.047 GMac, 0.187% MACs, 168, 486, kernel_size=(1, 1), stride=(1, 1))
        )
      )
      (3): ConvDWSep2d(
        0.017 GMac, 0.068% MACs, 
        (0): Sequential(
          0.005 GMac, 0.021% MACs, 
          (0): Conv2d(0.005 GMac, 0.021% MACs, 168, 168, kernel_size=(3, 3), stride=(1, 1), padding=(1, 1), groups=7, bias=False)
          (1): BatchNorm2d(0.0 GMac, 0.000% MACs, 168, eps=1e-05, momentum=0.1, affine=True, track_running_stats=True)
          (2): ReLU(0.0 GMac, 0.000% MACs, )
        )
        (1): Sequential(
          0.012 GMac, 0.047% MACs, 
          (0): Conv2d(0.012 GMac, 0.047% MACs, 168, 486, kernel_size=(1, 1), stride=(1, 1))
        )
      )
      (4): ConvDWSep2d(
        0.004 GMac, 0.017% MACs, 
        (0): Sequential(
          0.001 GMac, 0.005% MACs, 
          (0): Conv2d(0.001 GMac, 0.005% MACs, 168, 168, kernel_size=(3, 3), stride=(1, 1), padding=(1, 1), groups=7, bias=False)
          (1): BatchNorm2d(0.0 GMac, 0.000% MACs, 168, eps=1e-05, momentum=0.1, affine=True, track_running_stats=True)
          (2): ReLU(0.0 GMac, 0.000% MACs, )
        )
        (1): Sequential(
          0.003 GMac, 0.012% MACs, 
          (0): Conv2d(0.003 GMac, 0.012% MACs, 168, 486, kernel_size=(1, 1), stride=(1, 1))
        )
      )
      (5): ConvDWSep2d(
        0.001 GMac, 0.003% MACs, 
        (0): Sequential(
          0.0 GMac, 0.001% MACs, 
          (0): Conv2d(0.0 GMac, 0.001% MACs, 168, 168, kernel_size=(3, 3), stride=(1, 1), padding=(1, 1), groups=7, bias=False)
          (1): BatchNorm2d(0.0 GMac, 0.000% MACs, 168, eps=1e-05, momentum=0.1, affine=True, track_running_stats=True)
          (2): ReLU(0.0 GMac, 0.000% MACs, )
        )
        (1): Sequential(
          0.0 GMac, 0.002% MACs, 
          (0): Conv2d(0.0 GMac, 0.002% MACs, 168, 324, kernel_size=(1, 1), stride=(1, 1))
        )
      )
    )
  )
)
2020-10-26 09:34:57,293 - mmdet - INFO - 

2020-10-26 09:34:57,309 - mmdet - INFO - Compute   : 25.37 GMac
2020-10-26 09:34:57,309 - mmdet - INFO - Parameters: 12.19 M
2020-10-26 09:35:21,879 - mmdet - INFO - Start running, host: a0393608@udtensorlab1, work_dir: /home/a0393608/files/work/ti/bitbucket/jacinto-ai/pytorch-jacinto-ai-detection/work_dirs/ssd-lite_regnet_fpn_bgr
…
