…
            dict(type='Pad', size_divisor=32),
            dict(type='ImageToTensor', keys=['img']),
            dict(type='Collect', keys=['img'])
        ])
]
work_dir = './work_dirs/ssd-lite_regnet_fpn_bgr'
gpu_ids = range(0, 1)

2020-09-19 10:57:20,526 - mmdet - INFO - load model from: open-mmlab://regnetx_800mf
2020-09-19 10:57:24,509 - mmdet - WARNING - The model and loaded state dict do not match exactly

unexpected key in source state_dict: fc.weight, fc.bias

2020-09-19 10:57:25,207 - mmdet - INFO - SingleStageDetector(
  6.034 GMac, 100.000% MACs, 
  (backbone): RegNet(
    4.253 GMac, 70.487% MACs, 
    (conv1): Conv2d(0.057 GMac, 0.938% MACs, 3, 32, kernel_size=(3, 3), stride=(2, 2), padding=(1, 1), bias=False)
    (bn1): BatchNorm2d(0.004 GMac, 0.070% MACs, 32, eps=1e-05, momentum=0.1, affine=True, track_running_stats=True)
    (relu): ReLU(0.002 GMac, 0.035% MACs, inplace=True)
    (layer1): ResLayer(
      0.407 GMac, 6.743% MACs, 
      (0): Bottleneck(
        0.407 GMac, 6.743% MACs, 
        (conv1): Conv2d(0.134 GMac, 2.224% MACs, 32, 64, kernel_size=(1, 1), stride=(1, 1), bias=False)
        (bn1): BatchNorm2d(0.008 GMac, 0.139% MACs, 64, eps=1e-05, momentum=0.1, affine=True, track_running_stats=True)
        (conv2): Conv2d(0.151 GMac, 2.502% MACs, 64, 64, kernel_size=(3, 3), stride=(2, 2), padding=(1, 1), groups=4, bias=False)
        (bn2): BatchNorm2d(0.002 GMac, 0.035% MACs, 64, eps=1e-05, momentum=0.1, affine=True, track_running_stats=True)
        (conv3): Conv2d(0.067 GMac, 1.112% MACs, 64, 64, kernel_size=(1, 1), stride=(1, 1), bias=False)
        (bn3): BatchNorm2d(0.002 GMac, 0.035% MACs, 64, eps=1e-05, momentum=0.1, affine=True, track_running_stats=True)
        (relu1): ReLU(0.004 GMac, 0.070% MACs, inplace=True)
        (relu2): ReLU(0.001 GMac, 0.017% MACs, inplace=True)
        (relu3): ReLU(0.001 GMac, 0.017% MACs, inplace=True)
        (downsample): Sequential(
          0.036 GMac, 0.591% MACs, 
          (0): Conv2d(0.034 GMac, 0.556% MACs, 32, 64, kernel_size=(1, 1), stride=(2, 2), bias=False)
          (1): BatchNorm2d(0.002 GMac, 0.035% MACs, 64, eps=1e-05, momentum=0.1, affine=True, track_running_stats=True)
        )
        (add): AddBlock(inplace=False, signed=True)
      )
    )
    (layer2): ResLayer(
      0.75 GMac, 12.425% MACs, 
      (0): Bottleneck(
        0.321 GMac, 5.318% MACs, 
        (conv1): Conv2d(0.134 GMac, 2.224% MACs, 64, 128, kernel_size=(1, 1), stride=(1, 1), bias=False)
        (bn1): BatchNorm2d(0.004 GMac, 0.070% MACs, 128, eps=1e-05, momentum=0.1, affine=True, track_running_stats=True)
        (conv2): Conv2d(0.075 GMac, 1.251% MACs, 128, 128, kernel_size=(3, 3), stride=(2, 2), padding=(1, 1), groups=8, bias=False)
        (bn2): BatchNorm2d(0.001 GMac, 0.017% MACs, 128, eps=1e-05, momentum=0.1, affine=True, track_running_stats=True)
        (conv3): Conv2d(0.067 GMac, 1.112% MACs, 128, 128, kernel_size=(1, 1), stride=(1, 1), bias=False)
        (bn3): BatchNorm2d(0.001 GMac, 0.017% MACs, 128, eps=1e-05, momentum=0.1, affine=True, track_running_stats=True)
        (relu1): ReLU(0.002 GMac, 0.035% MACs, inplace=True)
        (relu2): ReLU(0.001 GMac, 0.009% MACs, inplace=True)
        (relu3): ReLU(0.001 GMac, 0.009% MACs, inplace=True)
        (downsample): Sequential(
          0.035 GMac, 0.573% MACs, 
          (0): Conv2d(0.034 GMac, 0.556% MACs, 64, 128, kernel_size=(1, 1), stride=(2, 2), bias=False)
          (1): BatchNorm2d(0.001 GMac, 0.017% MACs, 128, eps=1e-05, momentum=0.1, affine=True, track_running_stats=True)
        )
        (add): AddBlock(inplace=False, signed=True)
      )
      (1): Bottleneck(
        0.214 GMac, 3.554% MACs, 
        (conv1): Conv2d(0.067 GMac, 1.112% MACs, 128, 128, kernel_size=(1, 1), stride=(1, 1), bias=False)
        (bn1): BatchNorm2d(0.001 GMac, 0.017% MACs, 128, eps=1e-05, momentum=0.1, affine=True, track_running_stats=True)
        (conv2): Conv2d(0.075 GMac, 1.251% MACs, 128, 128, kernel_size=(3, 3), stride=(1, 1), padding=(1, 1), groups=8, bias=False)
        (bn2): BatchNorm2d(0.001 GMac, 0.017% MACs, 128, eps=1e-05, momentum=0.1, affine=True, track_running_stats=True)
        (conv3): Conv2d(0.067 GMac, 1.112% MACs, 128, 128, kernel_size=(1, 1), stride=(1, 1), bias=False)
        (bn3): BatchNorm2d(0.001 GMac, 0.017% MACs, 128, eps=1e-05, momentum=0.1, affine=True, track_running_stats=True)
        (relu1): ReLU(0.001 GMac, 0.009% MACs, inplace=True)
        (relu2): ReLU(0.001 GMac, 0.009% MACs, inplace=True)
        (relu3): ReLU(0.001 GMac, 0.009% MACs, inplace=True)
        (add): AddBlock(inplace=False, signed=True)
      )
      (2): Bottleneck(
        0.214 GMac, 3.554% MACs, 
        (conv1): Conv2d(0.067 GMac, 1.112% MACs, 128, 128, kernel_size=(1, 1), stride=(1, 1), bias=False)
        (bn1): BatchNorm2d(0.001 GMac, 0.017% MACs, 128, eps=1e-05, momentum=0.1, affine=True, track_running_stats=True)
        (conv2): Conv2d(0.075 GMac, 1.251% MACs, 128, 128, kernel_size=(3, 3), stride=(1, 1), padding=(1, 1), groups=8, bias=False)
        (bn2): BatchNorm2d(0.001 GMac, 0.017% MACs, 128, eps=1e-05, momentum=0.1, affine=True, track_running_stats=True)
        (conv3): Conv2d(0.067 GMac, 1.112% MACs, 128, 128, kernel_size=(1, 1), stride=(1, 1), bias=False)
        (bn3): BatchNorm2d(0.001 GMac, 0.017% MACs, 128, eps=1e-05, momentum=0.1, affine=True, track_running_stats=True)
        (relu1): ReLU(0.001 GMac, 0.009% MACs, inplace=True)
        (relu2): ReLU(0.001 GMac, 0.009% MACs, inplace=True)
        (relu3): ReLU(0.001 GMac, 0.009% MACs, inplace=True)
        (add): AddBlock(inplace=False, signed=True)
      )
    )
    (layer3): ResLayer(
      1.612 GMac, 26.715% MACs, 
      (0): Bottleneck(
        0.322 GMac, 5.337% MACs, 
        (conv1): Conv2d(0.151 GMac, 2.502% MACs, 128, 288, kernel_size=(1, 1), stride=(1, 1), bias=False)
        (bn1): BatchNorm2d(0.002 GMac, 0.039% MACs, 288, eps=1e-05, momentum=0.1, affine=True, track_running_stats=True)
        (conv2): Conv2d(0.042 GMac, 0.704% MACs, 288, 288, kernel_size=(3, 3), stride=(2, 2), padding=(1, 1), groups=18, bias=False)
        (bn2): BatchNorm2d(0.001 GMac, 0.010% MACs, 288, eps=1e-05, momentum=0.1, affine=True, track_running_stats=True)
        (conv3): Conv2d(0.085 GMac, 1.408% MACs, 288, 288, kernel_size=(1, 1), stride=(1, 1), bias=False)
        (bn3): BatchNorm2d(0.001 GMac, 0.010% MACs, 288, eps=1e-05, momentum=0.1, affine=True, track_running_stats=True)
        (relu1): ReLU(0.001 GMac, 0.020% MACs, inplace=True)
        (relu2): ReLU(0.0 GMac, 0.005% MACs, inplace=True)
        (relu3): ReLU(0.0 GMac, 0.005% MACs, inplace=True)
        (downsample): Sequential(
          0.038 GMac, 0.635% MACs, 
          (0): Conv2d(0.038 GMac, 0.626% MACs, 128, 288, kernel_size=(1, 1), stride=(2, 2), bias=False)
          (1): BatchNorm2d(0.001 GMac, 0.010% MACs, 288, eps=1e-05, momentum=0.1, affine=True, track_running_stats=True)
        )
        (add): AddBlock(inplace=False, signed=True)
      )
      (1): Bottleneck(
        0.215 GMac, 3.563% MACs, 
        (conv1): Conv2d(0.085 GMac, 1.408% MACs, 288, 288, kernel_size=(1, 1), stride=(1, 1), bias=False)
        (bn1): BatchNorm2d(0.001 GMac, 0.010% MACs, 288, eps=1e-05, momentum=0.1, affine=True, track_running_stats=True)
        (conv2): Conv2d(0.042 GMac, 0.704% MACs, 288, 288, kernel_size=(3, 3), stride=(1, 1), padding=(1, 1), groups=18, bias=False)
        (bn2): BatchNorm2d(0.001 GMac, 0.010% MACs, 288, eps=1e-05, momentum=0.1, affine=True, track_running_stats=True)
        (conv3): Conv2d(0.085 GMac, 1.408% MACs, 288, 288, kernel_size=(1, 1), stride=(1, 1), bias=False)
        (bn3): BatchNorm2d(0.001 GMac, 0.010% MACs, 288, eps=1e-05, momentum=0.1, affine=True, track_running_stats=True)
        (relu1): ReLU(0.0 GMac, 0.005% MACs, inplace=True)
        (relu2): ReLU(0.0 GMac, 0.005% MACs, inplace=True)
        (relu3): ReLU(0.0 GMac, 0.005% MACs, inplace=True)
        (add): AddBlock(inplace=False, signed=True)
      )
      (2): Bottleneck(
        0.215 GMac, 3.563% MACs, 
        (conv1): Conv2d(0.085 GMac, 1.408% MACs, 288, 288, kernel_size=(1, 1), stride=(1, 1), bias=False)
        (bn1): BatchNorm2d(0.001 GMac, 0.010% MACs, 288, eps=1e-05, momentum=0.1, affine=True, track_running_stats=True)
        (conv2): Conv2d(0.042 GMac, 0.704% MACs, 288, 288, kernel_size=(3, 3), stride=(1, 1), padding=(1, 1), groups=18, bias=False)
        (bn2): BatchNorm2d(0.001 GMac, 0.010% MACs, 288, eps=1e-05, momentum=0.1, affine=True, track_running_stats=True)
        (conv3): Conv2d(0.085 GMac, 1.408% MACs, 288, 288, kernel_size=(1, 1), stride=(1, 1), bias=False)
        (bn3): BatchNorm2d(0.001 GMac, 0.010% MACs, 288, eps=1e-05, momentum=0.1, affine=True, track_running_stats=True)
        (relu1): ReLU(0.0 GMac, 0.005% MACs, inplace=True)
        (relu2): ReLU(0.0 GMac, 0.005% MACs, inplace=True)
        (relu3): ReLU(0.0 GMac, 0.005% MACs, inplace=True)
        (add): AddBlock(inplace=False, signed=True)
      )
      (3): Bottleneck(
        0.215 GMac, 3.563% MACs, 
        (conv1): Conv2d(0.085 GMac, 1.408% MACs, 288, 288, kernel_size=(1, 1), stride=(1, 1), bias=False)
        (bn1): BatchNorm2d(0.001 GMac, 0.010% MACs, 288, eps=1e-05, momentum=0.1, affine=True, track_running_stats=True)
        (conv2): Conv2d(0.042 GMac, 0.704% MACs, 288, 288, kernel_size=(3, 3), stride=(1, 1), padding=(1, 1), groups=18, bias=False)
        (bn2): BatchNorm2d(0.001 GMac, 0.010% MACs, 288, eps=1e-05, momentum=0.1, affine=True, track_running_stats=True)
        (conv3): Conv2d(0.085 GMac, 1.408% MACs, 288, 288, kernel_size=(1, 1), stride=(1, 1), bias=False)
        (bn3): BatchNorm2d(0.001 GMac, 0.010% MACs, 288, eps=1e-05, momentum=0.1, affine=True, track_running_stats=True)
        (relu1): ReLU(0.0 GMac, 0.005% MACs, inplace=True)
        (relu2): ReLU(0.0 GMac, 0.005% MACs, inplace=True)
        (relu3): ReLU(0.0 GMac, 0.005% MACs, inplace=True)
        (add): AddBlock(inplace=False, signed=True)
      )
      (4): Bottleneck(
        0.215 GMac, 3.563% MACs, 
        (conv1): Conv2d(0.085 GMac, 1.408% MACs, 288, 288, kernel_size=(1, 1), stride=(1, 1), bias=False)
        (bn1): BatchNorm2d(0.001 GMac, 0.010% MACs, 288, eps=1e-05, momentum=0.1, affine=True, track_running_stats=True)
        (conv2): Conv2d(0.042 GMac, 0.704% MACs, 288, 288, kernel_size=(3, 3), stride=(1, 1), padding=(1, 1), groups=18, bias=False)
        (bn2): BatchNorm2d(0.001 GMac, 0.010% MACs, 288, eps=1e-05, momentum=0.1, affine=True, track_running_stats=True)
        (conv3): Conv2d(0.085 GMac, 1.408% MACs, 288, 288, kernel_size=(1, 1), stride=(1, 1), bias=False)
        (bn3): BatchNorm2d(0.001 GMac, 0.010% MACs, 288, eps=1e-05, momentum=0.1, affine=True, track_running_stats=True)
        (relu1): ReLU(0.0 GMac, 0.005% MACs, inplace=True)
        (relu2): ReLU(0.0 GMac, 0.005% MACs, inplace=True)
        (relu3): ReLU(0.0 GMac, 0.005% MACs, inplace=True)
        (add): AddBlock(inplace=False, signed=True)
      )
      (5): Bottleneck(
        0.215 GMac, 3.563% MACs, 
        (conv1): Conv2d(0.085 GMac, 1.408% MACs, 288, 288, kernel_size=(1, 1), stride=(1, 1), bias=False)
        (bn1): BatchNorm2d(0.001 GMac, 0.010% MACs, 288, eps=1e-05, momentum=0.1, affine=True, track_running_stats=True)
        (conv2): Conv2d(0.042 GMac, 0.704% MACs, 288, 288, kernel_size=(3, 3), stride=(1, 1), padding=(1, 1), groups=18, bias=False)
        (bn2): BatchNorm2d(0.001 GMac, 0.010% MACs, 288, eps=1e-05, momentum=0.1, affine=True, track_running_stats=True)
        (conv3): Conv2d(0.085 GMac, 1.408% MACs, 288, 288, kernel_size=(1, 1), stride=(1, 1), bias=False)
        (bn3): BatchNorm2d(0.001 GMac, 0.010% MACs, 288, eps=1e-05, momentum=0.1, affine=True, track_running_stats=True)
        (relu1): ReLU(0.0 GMac, 0.005% MACs, inplace=True)
        (relu2): ReLU(0.0 GMac, 0.005% MACs, inplace=True)
        (relu3): ReLU(0.0 GMac, 0.005% MACs, inplace=True)
        (add): AddBlock(inplace=False, signed=True)
      )
      (6): Bottleneck(
        0.215 GMac, 3.563% MACs, 
        (conv1): Conv2d(0.085 GMac, 1.408% MACs, 288, 288, kernel_size=(1, 1), stride=(1, 1), bias=False)
        (bn1): BatchNorm2d(0.001 GMac, 0.010% MACs, 288, eps=1e-05, momentum=0.1, affine=True, track_running_stats=True)
        (conv2): Conv2d(0.042 GMac, 0.704% MACs, 288, 288, kernel_size=(3, 3), stride=(1, 1), padding=(1, 1), groups=18, bias=False)
        (bn2): BatchNorm2d(0.001 GMac, 0.010% MACs, 288, eps=1e-05, momentum=0.1, affine=True, track_running_stats=True)
        (conv3): Conv2d(0.085 GMac, 1.408% MACs, 288, 288, kernel_size=(1, 1), stride=(1, 1), bias=False)
        (bn3): BatchNorm2d(0.001 GMac, 0.010% MACs, 288, eps=1e-05, momentum=0.1, affine=True, track_running_stats=True)
        (relu1): ReLU(0.0 GMac, 0.005% MACs, inplace=True)
        (relu2): ReLU(0.0 GMac, 0.005% MACs, inplace=True)
        (relu3): ReLU(0.0 GMac, 0.005% MACs, inplace=True)
        (add): AddBlock(inplace=False, signed=True)
      )
    )
    (layer4): ResLayer(
      1.422 GMac, 23.561% MACs, 
      (0): Bottleneck(
        0.392 GMac, 6.489% MACs, 
        (conv1): Conv2d(0.198 GMac, 3.284% MACs, 288, 672, kernel_size=(1, 1), stride=(1, 1), bias=False)
        (bn1): BatchNorm2d(0.001 GMac, 0.023% MACs, 672, eps=1e-05, momentum=0.1, affine=True, track_running_stats=True)
        (conv2): Conv2d(0.025 GMac, 0.411% MACs, 672, 672, kernel_size=(3, 3), stride=(2, 2), padding=(1, 1), groups=42, bias=False)
        (bn2): BatchNorm2d(0.0 GMac, 0.006% MACs, 672, eps=1e-05, momentum=0.1, affine=True, track_running_stats=True)
        (conv3): Conv2d(0.116 GMac, 1.916% MACs, 672, 672, kernel_size=(1, 1), stride=(1, 1), bias=False)
        (bn3): BatchNorm2d(0.0 GMac, 0.006% MACs, 672, eps=1e-05, momentum=0.1, affine=True, track_running_stats=True)
        (relu1): ReLU(0.001 GMac, 0.011% MACs, inplace=True)
        (relu2): ReLU(0.0 GMac, 0.003% MACs, inplace=True)
        (relu3): ReLU(0.0 GMac, 0.003% MACs, inplace=True)
        (downsample): Sequential(
          0.05 GMac, 0.827% MACs, 
          (0): Conv2d(0.05 GMac, 0.821% MACs, 288, 672, kernel_size=(1, 1), stride=(2, 2), bias=False)
          (1): BatchNorm2d(0.0 GMac, 0.006% MACs, 672, eps=1e-05, momentum=0.1, affine=True, track_running_stats=True)
        )
        (add): AddBlock(inplace=False, signed=True)
      )
      (1): Bottleneck(
        0.258 GMac, 4.268% MACs, 
        (conv1): Conv2d(0.116 GMac, 1.916% MACs, 672, 672, kernel_size=(1, 1), stride=(1, 1), bias=False)
        (bn1): BatchNorm2d(0.0 GMac, 0.006% MACs, 672, eps=1e-05, momentum=0.1, affine=True, track_running_stats=True)
        (conv2): Conv2d(0.025 GMac, 0.411% MACs, 672, 672, kernel_size=(3, 3), stride=(1, 1), padding=(1, 1), groups=42, bias=False)
        (bn2): BatchNorm2d(0.0 GMac, 0.006% MACs, 672, eps=1e-05, momentum=0.1, affine=True, track_running_stats=True)
        (conv3): Conv2d(0.116 GMac, 1.916% MACs, 672, 672, kernel_size=(1, 1), stride=(1, 1), bias=False)
        (bn3): BatchNorm2d(0.0 GMac, 0.006% MACs, 672, eps=1e-05, momentum=0.1, affine=True, track_running_stats=True)
        (relu1): ReLU(0.0 GMac, 0.003% MACs, inplace=True)
        (relu2): ReLU(0.0 GMac, 0.003% MACs, inplace=True)
        (relu3): ReLU(0.0 GMac, 0.003% MACs, inplace=True)
        (add): AddBlock(inplace=False, signed=True)
      )
      (2): Bottleneck(
        0.258 GMac, 4.268% MACs, 
        (conv1): Conv2d(0.116 GMac, 1.916% MACs, 672, 672, kernel_size=(1, 1), stride=(1, 1), bias=False)
        (bn1): BatchNorm2d(0.0 GMac, 0.006% MACs, 672, eps=1e-05, momentum=0.1, affine=True, track_running_stats=True)
        (conv2): Conv2d(0.025 GMac, 0.411% MACs, 672, 672, kernel_size=(3, 3), stride=(1, 1), padding=(1, 1), groups=42, bias=False)
        (bn2): BatchNorm2d(0.0 GMac, 0.006% MACs, 672, eps=1e-05, momentum=0.1, affine=True, track_running_stats=True)
        (conv3): Conv2d(0.116 GMac, 1.916% MACs, 672, 672, kernel_size=(1, 1), stride=(1, 1), bias=False)
        (bn3): BatchNorm2d(0.0 GMac, 0.006% MACs, 672, eps=1e-05, momentum=0.1, affine=True, track_running_stats=True)
        (relu1): ReLU(0.0 GMac, 0.003% MACs, inplace=True)
        (relu2): ReLU(0.0 GMac, 0.003% MACs, inplace=True)
        (relu3): ReLU(0.0 GMac, 0.003% MACs, inplace=True)
        (add): AddBlock(inplace=False, signed=True)
      )
      (3): Bottleneck(
        0.258 GMac, 4.268% MACs, 
        (conv1): Conv2d(0.116 GMac, 1.916% MACs, 672, 672, kernel_size=(1, 1), stride=(1, 1), bias=False)
        (bn1): BatchNorm2d(0.0 GMac, 0.006% MACs, 672, eps=1e-05, momentum=0.1, affine=True, track_running_stats=True)
        (conv2): Conv2d(0.025 GMac, 0.411% MACs, 672, 672, kernel_size=(3, 3), stride=(1, 1), padding=(1, 1), groups=42, bias=False)
        (bn2): BatchNorm2d(0.0 GMac, 0.006% MACs, 672, eps=1e-05, momentum=0.1, affine=True, track_running_stats=True)
        (conv3): Conv2d(0.116 GMac, 1.916% MACs, 672, 672, kernel_size=(1, 1), stride=(1, 1), bias=False)
        (bn3): BatchNorm2d(0.0 GMac, 0.006% MACs, 672, eps=1e-05, momentum=0.1, affine=True, track_running_stats=True)
        (relu1): ReLU(0.0 GMac, 0.003% MACs, inplace=True)
        (relu2): ReLU(0.0 GMac, 0.003% MACs, inplace=True)
        (relu3): ReLU(0.0 GMac, 0.003% MACs, inplace=True)
        (add): AddBlock(inplace=False, signed=True)
      )
      (4): Bottleneck(
        0.258 GMac, 4.268% MACs, 
        (conv1): Conv2d(0.116 GMac, 1.916% MACs, 672, 672, kernel_size=(1, 1), stride=(1, 1), bias=False)
        (bn1): BatchNorm2d(0.0 GMac, 0.006% MACs, 672, eps=1e-05, momentum=0.1, affine=True, track_running_stats=True)
        (conv2): Conv2d(0.025 GMac, 0.411% MACs, 672, 672, kernel_size=(3, 3), stride=(1, 1), padding=(1, 1), groups=42, bias=False)
        (bn2): BatchNorm2d(0.0 GMac, 0.006% MACs, 672, eps=1e-05, momentum=0.1, affine=True, track_running_stats=True)
        (conv3): Conv2d(0.116 GMac, 1.916% MACs, 672, 672, kernel_size=(1, 1), stride=(1, 1), bias=False)
        (bn3): BatchNorm2d(0.0 GMac, 0.006% MACs, 672, eps=1e-05, momentum=0.1, affine=True, track_running_stats=True)
        (relu1): ReLU(0.0 GMac, 0.003% MACs, inplace=True)
        (relu2): ReLU(0.0 GMac, 0.003% MACs, inplace=True)
        (relu3): ReLU(0.0 GMac, 0.003% MACs, inplace=True)
        (add): AddBlock(inplace=False, signed=True)
      )
    )
  )
  (neck): FPNLite(
    0.833 GMac, 13.811% MACs, 
    (lateral_convs): ModuleList(
      0.257 GMac, 4.251% MACs, 
      (0): ConvNormAct2d(
        0.136 GMac, 2.259% MACs, 
        (0): Conv2d(0.134 GMac, 2.224% MACs, 128, 256, kernel_size=(1, 1), stride=(1, 1), bias=False)
        (1): BatchNorm2d(0.002 GMac, 0.035% MACs, 256, eps=1e-05, momentum=0.1, affine=True, track_running_stats=True)
      )
      (1): ConvNormAct2d(
        0.076 GMac, 1.260% MACs, 
        (0): Conv2d(0.075 GMac, 1.251% MACs, 288, 256, kernel_size=(1, 1), stride=(1, 1), bias=False)
        (1): BatchNorm2d(0.001 GMac, 0.009% MACs, 256, eps=1e-05, momentum=0.1, affine=True, track_running_stats=True)
      )
      (2): ConvNormAct2d(
        0.044 GMac, 0.732% MACs, 
        (0): Conv2d(0.044 GMac, 0.730% MACs, 672, 256, kernel_size=(1, 1), stride=(1, 1), bias=False)
        (1): BatchNorm2d(0.0 GMac, 0.002% MACs, 256, eps=1e-05, momentum=0.1, affine=True, track_running_stats=True)
      )
    )
    (fpn_convs): ModuleList(
      0.577 GMac, 9.560% MACs, 
      (0): ConvDWSep2d(
        0.425 GMac, 7.038% MACs, 
        (0): Sequential(
          0.154 GMac, 2.555% MACs, 
          (0): Conv2d(0.151 GMac, 2.502% MACs, 256, 256, kernel_size=(3, 3), stride=(1, 1), padding=(1, 1), groups=16, bias=False)
          (1): BatchNorm2d(0.002 GMac, 0.035% MACs, 256, eps=1e-05, momentum=0.1, affine=True, track_running_stats=True)
          (2): ReLU(0.001 GMac, 0.017% MACs, )
        )
        (1): Sequential(
          0.271 GMac, 4.484% MACs, 
          (0): Conv2d(0.268 GMac, 4.449% MACs, 256, 256, kernel_size=(1, 1), stride=(1, 1), bias=False)
          (1): BatchNorm2d(0.002 GMac, 0.035% MACs, 256, eps=1e-05, momentum=0.1, affine=True, track_running_stats=True)
        )
      )
      (1): ConvDWSep2d(
        0.106 GMac, 1.760% MACs, 
        (0): Sequential(
          0.039 GMac, 0.639% MACs, 
          (0): Conv2d(0.038 GMac, 0.626% MACs, 256, 256, kernel_size=(3, 3), stride=(1, 1), padding=(1, 1), groups=16, bias=False)
          (1): BatchNorm2d(0.001 GMac, 0.009% MACs, 256, eps=1e-05, momentum=0.1, affine=True, track_running_stats=True)
          (2): ReLU(0.0 GMac, 0.004% MACs, )
        )
        (1): Sequential(
          0.068 GMac, 1.121% MACs, 
          (0): Conv2d(0.067 GMac, 1.112% MACs, 256, 256, kernel_size=(1, 1), stride=(1, 1), bias=False)
          (1): BatchNorm2d(0.001 GMac, 0.009% MACs, 256, eps=1e-05, momentum=0.1, affine=True, track_running_stats=True)
        )
      )
      (2): ConvDWSep2d(
        0.027 GMac, 0.440% MACs, 
        (0): Sequential(
          0.01 GMac, 0.160% MACs, 
          (0): Conv2d(0.009 GMac, 0.156% MACs, 256, 256, kernel_size=(3, 3), stride=(1, 1), padding=(1, 1), groups=16, bias=False)
          (1): BatchNorm2d(0.0 GMac, 0.002% MACs, 256, eps=1e-05, momentum=0.1, affine=True, track_running_stats=True)
          (2): ReLU(0.0 GMac, 0.001% MACs, )
        )
        (1): Sequential(
          0.017 GMac, 0.280% MACs, 
          (0): Conv2d(0.017 GMac, 0.278% MACs, 256, 256, kernel_size=(1, 1), stride=(1, 1), bias=False)
          (1): BatchNorm2d(0.0 GMac, 0.002% MACs, 256, eps=1e-05, momentum=0.1, affine=True, track_running_stats=True)
        )
      )
      (3): ConvDWSep2d(
        0.017 GMac, 0.288% MACs, 
        (0): Sequential(
          0.006 GMac, 0.105% MACs, 
          (0): Conv2d(0.006 GMac, 0.103% MACs, 672, 672, kernel_size=(3, 3), stride=(2, 2), padding=(1, 1), groups=42, bias=False)
          (1): BatchNorm2d(0.0 GMac, 0.001% MACs, 672, eps=1e-05, momentum=0.1, affine=True, track_running_stats=True)
          (2): ReLU(0.0 GMac, 0.001% MACs, )
        )
        (1): Sequential(
          0.011 GMac, 0.183% MACs, 
          (0): Conv2d(0.011 GMac, 0.182% MACs, 672, 256, kernel_size=(1, 1), stride=(1, 1), bias=False)
          (1): BatchNorm2d(0.0 GMac, 0.001% MACs, 256, eps=1e-05, momentum=0.1, affine=True, track_running_stats=True)
        )
      )
      (4): ConvDWSep2d(
        0.002 GMac, 0.027% MACs, 
        (0): Sequential(
          0.001 GMac, 0.010% MACs, 
          (0): Conv2d(0.001 GMac, 0.010% MACs, 256, 256, kernel_size=(3, 3), stride=(2, 2), padding=(1, 1), groups=16, bias=False)
          (1): BatchNorm2d(0.0 GMac, 0.000% MACs, 256, eps=1e-05, momentum=0.1, affine=True, track_running_stats=True)
          (2): ReLU(0.0 GMac, 0.000% MACs, )
        )
        (1): Sequential(
          0.001 GMac, 0.018% MACs, 
          (0): Conv2d(0.001 GMac, 0.017% MACs, 256, 256, kernel_size=(1, 1), stride=(1, 1), bias=False)
          (1): BatchNorm2d(0.0 GMac, 0.000% MACs, 256, eps=1e-05, momentum=0.1, affine=True, track_running_stats=True)
        )
      )
      (5): ConvDWSep2d(
        0.0 GMac, 0.007% MACs, 
        (0): Sequential(
          0.0 GMac, 0.002% MACs, 
          (0): Conv2d(0.0 GMac, 0.002% MACs, 256, 256, kernel_size=(3, 3), stride=(2, 2), padding=(1, 1), groups=16, bias=False)
          (1): BatchNorm2d(0.0 GMac, 0.000% MACs, 256, eps=1e-05, momentum=0.1, affine=True, track_running_stats=True)
          (2): ReLU(0.0 GMac, 0.000% MACs, )
        )
        (1): Sequential(
          0.0 GMac, 0.004% MACs, 
          (0): Conv2d(0.0 GMac, 0.004% MACs, 256, 256, kernel_size=(1, 1), stride=(1, 1), bias=False)
          (1): BatchNorm2d(0.0 GMac, 0.000% MACs, 256, eps=1e-05, momentum=0.1, affine=True, track_running_stats=True)
        )
      )
    )
    (adds): ModuleList(
      0.0 GMac, 0.000% MACs, 
      (0): AddBlock(inplace=False, signed=True)
      (1): AddBlock(inplace=False, signed=True)
      (2): AddBlock(inplace=False, signed=True)
    )
  )
  (bbox_head): SSDLiteHead(
    0.947 GMac, 15.702% MACs, 
    (reg_convs): ModuleList(
      0.231 GMac, 3.824% MACs, 
      (0): ConvDWSep2d(
        0.171 GMac, 2.834% MACs, 
        (0): Sequential(
          0.154 GMac, 2.555% MACs, 
          (0): Conv2d(0.151 GMac, 2.502% MACs, 256, 256, kernel_size=(3, 3), stride=(1, 1), padding=(1, 1), groups=16, bias=False)
          (1): BatchNorm2d(0.002 GMac, 0.035% MACs, 256, eps=1e-05, momentum=0.1, affine=True, track_running_stats=True)
          (2): ReLU(0.001 GMac, 0.017% MACs, )
        )
        (1): Sequential(
          0.017 GMac, 0.279% MACs, 
          (0): Conv2d(0.017 GMac, 0.279% MACs, 256, 16, kernel_size=(1, 1), stride=(1, 1))
        )
      )
      (1): ConvDWSep2d(
        0.045 GMac, 0.743% MACs, 
        (0): Sequential(
          0.039 GMac, 0.639% MACs, 
          (0): Conv2d(0.038 GMac, 0.626% MACs, 256, 256, kernel_size=(3, 3), stride=(1, 1), padding=(1, 1), groups=16, bias=False)
          (1): BatchNorm2d(0.001 GMac, 0.009% MACs, 256, eps=1e-05, momentum=0.1, affine=True, track_running_stats=True)
          (2): ReLU(0.0 GMac, 0.004% MACs, )
        )
        (1): Sequential(
          0.006 GMac, 0.105% MACs, 
          (0): Conv2d(0.006 GMac, 0.105% MACs, 256, 24, kernel_size=(1, 1), stride=(1, 1))
        )
      )
      (2): ConvDWSep2d(
        0.011 GMac, 0.186% MACs, 
        (0): Sequential(
          0.01 GMac, 0.160% MACs, 
          (0): Conv2d(0.009 GMac, 0.156% MACs, 256, 256, kernel_size=(3, 3), stride=(1, 1), padding=(1, 1), groups=16, bias=False)
          (1): BatchNorm2d(0.0 GMac, 0.002% MACs, 256, eps=1e-05, momentum=0.1, affine=True, track_running_stats=True)
          (2): ReLU(0.0 GMac, 0.001% MACs, )
        )
        (1): Sequential(
          0.002 GMac, 0.026% MACs, 
          (0): Conv2d(0.002 GMac, 0.026% MACs, 256, 24, kernel_size=(1, 1), stride=(1, 1))
        )
      )
      (3): ConvDWSep2d(
        0.003 GMac, 0.046% MACs, 
        (0): Sequential(
          0.002 GMac, 0.040% MACs, 
          (0): Conv2d(0.002 GMac, 0.039% MACs, 256, 256, kernel_size=(3, 3), stride=(1, 1), padding=(1, 1), groups=16, bias=False)
          (1): BatchNorm2d(0.0 GMac, 0.001% MACs, 256, eps=1e-05, momentum=0.1, affine=True, track_running_stats=True)
          (2): ReLU(0.0 GMac, 0.000% MACs, )
        )
        (1): Sequential(
          0.0 GMac, 0.007% MACs, 
          (0): Conv2d(0.0 GMac, 0.007% MACs, 256, 24, kernel_size=(1, 1), stride=(1, 1))
        )
      )
      (4): ConvDWSep2d(
        0.001 GMac, 0.012% MACs, 
        (0): Sequential(
          0.001 GMac, 0.010% MACs, 
          (0): Conv2d(0.001 GMac, 0.010% MACs, 256, 256, kernel_size=(3, 3), stride=(1, 1), padding=(1, 1), groups=16, bias=False)
          (1): BatchNorm2d(0.0 GMac, 0.000% MACs, 256, eps=1e-05, momentum=0.1, affine=True, track_running_stats=True)
          (2): ReLU(0.0 GMac, 0.000% MACs, )
        )
        (1): Sequential(
          0.0 GMac, 0.002% MACs, 
          (0): Conv2d(0.0 GMac, 0.002% MACs, 256, 24, kernel_size=(1, 1), stride=(1, 1))
        )
      )
      (5): ConvDWSep2d(
        0.0 GMac, 0.003% MACs, 
        (0): Sequential(
          0.0 GMac, 0.002% MACs, 
          (0): Conv2d(0.0 GMac, 0.002% MACs, 256, 256, kernel_size=(3, 3), stride=(1, 1), padding=(1, 1), groups=16, bias=False)
          (1): BatchNorm2d(0.0 GMac, 0.000% MACs, 256, eps=1e-05, momentum=0.1, affine=True, track_running_stats=True)
          (2): ReLU(0.0 GMac, 0.000% MACs, )
        )
        (1): Sequential(
          0.0 GMac, 0.000% MACs, 
          (0): Conv2d(0.0 GMac, 0.000% MACs, 256, 16, kernel_size=(1, 1), stride=(1, 1))
        )
      )
    )
    (cls_convs): ModuleList(
      0.717 GMac, 11.878% MACs, 
      (0): ConvDWSep2d(
        0.495 GMac, 8.207% MACs, 
        (0): Sequential(
          0.154 GMac, 2.555% MACs, 
          (0): Conv2d(0.151 GMac, 2.502% MACs, 256, 256, kernel_size=(3, 3), stride=(1, 1), padding=(1, 1), groups=16, bias=False)
          (1): BatchNorm2d(0.002 GMac, 0.035% MACs, 256, eps=1e-05, momentum=0.1, affine=True, track_running_stats=True)
          (2): ReLU(0.001 GMac, 0.017% MACs, )
        )
        (1): Sequential(
          0.341 GMac, 5.652% MACs, 
          (0): Conv2d(0.341 GMac, 5.652% MACs, 256, 324, kernel_size=(1, 1), stride=(1, 1))
        )
      )
      (1): ConvDWSep2d(
        0.166 GMac, 2.758% MACs, 
        (0): Sequential(
          0.039 GMac, 0.639% MACs, 
          (0): Conv2d(0.038 GMac, 0.626% MACs, 256, 256, kernel_size=(3, 3), stride=(1, 1), padding=(1, 1), groups=16, bias=False)
          (1): BatchNorm2d(0.001 GMac, 0.009% MACs, 256, eps=1e-05, momentum=0.1, affine=True, track_running_stats=True)
          (2): ReLU(0.0 GMac, 0.004% MACs, )
        )
        (1): Sequential(
          0.128 GMac, 2.120% MACs, 
          (0): Conv2d(0.128 GMac, 2.120% MACs, 256, 486, kernel_size=(1, 1), stride=(1, 1))
        )
      )
      (2): ConvDWSep2d(
        0.042 GMac, 0.690% MACs, 
        (0): Sequential(
          0.01 GMac, 0.160% MACs, 
          (0): Conv2d(0.009 GMac, 0.156% MACs, 256, 256, kernel_size=(3, 3), stride=(1, 1), padding=(1, 1), groups=16, bias=False)
          (1): BatchNorm2d(0.0 GMac, 0.002% MACs, 256, eps=1e-05, momentum=0.1, affine=True, track_running_stats=True)
          (2): ReLU(0.0 GMac, 0.001% MACs, )
        )
        (1): Sequential(
          0.032 GMac, 0.530% MACs, 
          (0): Conv2d(0.032 GMac, 0.530% MACs, 256, 486, kernel_size=(1, 1), stride=(1, 1))
        )
      )
      (3): ConvDWSep2d(
        0.01 GMac, 0.172% MACs, 
        (0): Sequential(
          0.002 GMac, 0.040% MACs, 
          (0): Conv2d(0.002 GMac, 0.039% MACs, 256, 256, kernel_size=(3, 3), stride=(1, 1), padding=(1, 1), groups=16, bias=False)
          (1): BatchNorm2d(0.0 GMac, 0.001% MACs, 256, eps=1e-05, momentum=0.1, affine=True, track_running_stats=True)
          (2): ReLU(0.0 GMac, 0.000% MACs, )
        )
        (1): Sequential(
          0.008 GMac, 0.132% MACs, 
          (0): Conv2d(0.008 GMac, 0.132% MACs, 256, 486, kernel_size=(1, 1), stride=(1, 1))
        )
      )
      (4): ConvDWSep2d(
        0.003 GMac, 0.043% MACs, 
        (0): Sequential(
          0.001 GMac, 0.010% MACs, 
          (0): Conv2d(0.001 GMac, 0.010% MACs, 256, 256, kernel_size=(3, 3), stride=(1, 1), padding=(1, 1), groups=16, bias=False)
          (1): BatchNorm2d(0.0 GMac, 0.000% MACs, 256, eps=1e-05, momentum=0.1, affine=True, track_running_stats=True)
          (2): ReLU(0.0 GMac, 0.000% MACs, )
        )
        (1): Sequential(
          0.002 GMac, 0.033% MACs, 
          (0): Conv2d(0.002 GMac, 0.033% MACs, 256, 486, kernel_size=(1, 1), stride=(1, 1))
        )
      )
      (5): ConvDWSep2d(
        0.0 GMac, 0.008% MACs, 
        (0): Sequential(
          0.0 GMac, 0.002% MACs, 
          (0): Conv2d(0.0 GMac, 0.002% MACs, 256, 256, kernel_size=(3, 3), stride=(1, 1), padding=(1, 1), groups=16, bias=False)
          (1): BatchNorm2d(0.0 GMac, 0.000% MACs, 256, eps=1e-05, momentum=0.1, affine=True, track_running_stats=True)
          (2): ReLU(0.0 GMac, 0.000% MACs, )
        )
        (1): Sequential(
          0.0 GMac, 0.006% MACs, 
          (0): Conv2d(0.0 GMac, 0.006% MACs, 256, 324, kernel_size=(1, 1), stride=(1, 1))
        )
      )
    )
  )
)
2020-09-19 10:57:25,210 - mmdet - INFO - 

2020-09-19 10:57:25,215 - mmdet - INFO - Compute   : 6.03 GMac
2020-09-19 10:57:25,215 - mmdet - INFO - Parameters: 8.8 M
2020-09-19 10:57:48,971 - mmdet - INFO - load checkpoint from ./work_dirs/20200908-180521_ssd-lite_regnet_fpn_bgr_512x512_epochs120_bs16x4_lr8e-2_(32.2%)/latest.pth
…
