…
            dict(type='ImageToTensor', keys=['img']),
            dict(type='Collect', keys=['img'])
        ])
]
work_dir = './work_dirs/ssd-lite_regnet_fpn_bgr'
gpu_ids = range(0, 1)

2020-10-10 19:54:35,536 - mmdet - INFO - load model from: ./checkpoints/RegNetX-200MF_dds_8gpu_converted-mmdet.pyth
2020-10-10 19:54:35,685 - mmdet - WARNING - The model and loaded state dict do not match exactly

unexpected key in source state_dict: fc.weight, fc.bias

2020-10-10 19:54:36,046 - mmdet - INFO - SingleStageDetector(
  0.615 GMac, 100.000% MACs, 
  (backbone): RegNet(
    0.418 GMac, 68.073% MACs, 
    (conv1): Conv2d(0.022 GMac, 3.599% MACs, 3, 32, kernel_size=(3, 3), stride=(2, 2), padding=(1, 1), bias=False)
    (bn1): BatchNorm2d(0.002 GMac, 0.267% MACs, 32, eps=1e-05, momentum=0.1, affine=True, track_running_stats=True)
    (relu): ReLU(0.001 GMac, 0.133% MACs, inplace=True)
    (layer1): ResLayer(
      0.042 GMac, 6.898% MACs, 
      (0): Bottleneck(
        0.042 GMac, 6.898% MACs, 
        (conv1): Conv2d(0.02 GMac, 3.199% MACs, 32, 24, kernel_size=(1, 1), stride=(1, 1), bias=False)
        (bn1): BatchNorm2d(0.001 GMac, 0.200% MACs, 24, eps=1e-05, momentum=0.1, affine=True, track_running_stats=True)
        (conv2): Conv2d(0.011 GMac, 1.800% MACs, 24, 24, kernel_size=(3, 3), stride=(2, 2), padding=(1, 1), groups=3, bias=False)
        (bn2): BatchNorm2d(0.0 GMac, 0.050% MACs, 24, eps=1e-05, momentum=0.1, affine=True, track_running_stats=True)
        (conv3): Conv2d(0.004 GMac, 0.600% MACs, 24, 24, kernel_size=(1, 1), stride=(1, 1), bias=False)
        (bn3): BatchNorm2d(0.0 GMac, 0.050% MACs, 24, eps=1e-05, momentum=0.1, affine=True, track_running_stats=True)
        (relu1): ReLU(0.001 GMac, 0.100% MACs, inplace=True)
        (relu2): ReLU(0.0 GMac, 0.025% MACs, inplace=True)
        (relu3): ReLU(0.0 GMac, 0.025% MACs, inplace=True)
        (downsample): Sequential(
          0.005 GMac, 0.850% MACs, 
          (0): Conv2d(0.005 GMac, 0.800% MACs, 32, 24, kernel_size=(1, 1), stride=(2, 2), bias=False)
          (1): BatchNorm2d(0.0 GMac, 0.050% MACs, 24, eps=1e-05, momentum=0.1, affine=True, track_running_stats=True)
        )
        (add): AddBlock(inplace=False, signed=True)
      )
    )
    (layer2): ResLayer(
      0.024 GMac, 3.907% MACs, 
      (0): Bottleneck(
        0.024 GMac, 3.907% MACs, 
        (conv1): Conv2d(0.009 GMac, 1.400% MACs, 24, 56, kernel_size=(1, 1), stride=(1, 1), bias=False)
        (bn1): BatchNorm2d(0.001 GMac, 0.117% MACs, 56, eps=1e-05, momentum=0.1, affine=True, track_running_stats=True)
        (conv2): Conv2d(0.006 GMac, 1.050% MACs, 56, 56, kernel_size=(3, 3), stride=(2, 2), padding=(1, 1), groups=7, bias=False)
        (bn2): BatchNorm2d(0.0 GMac, 0.029% MACs, 56, eps=1e-05, momentum=0.1, affine=True, track_running_stats=True)
        (conv3): Conv2d(0.005 GMac, 0.816% MACs, 56, 56, kernel_size=(1, 1), stride=(1, 1), bias=False)
        (bn3): BatchNorm2d(0.0 GMac, 0.029% MACs, 56, eps=1e-05, momentum=0.1, affine=True, track_running_stats=True)
        (relu1): ReLU(0.0 GMac, 0.058% MACs, inplace=True)
        (relu2): ReLU(0.0 GMac, 0.015% MACs, inplace=True)
        (relu3): ReLU(0.0 GMac, 0.015% MACs, inplace=True)
        (downsample): Sequential(
          0.002 GMac, 0.379% MACs, 
          (0): Conv2d(0.002 GMac, 0.350% MACs, 24, 56, kernel_size=(1, 1), stride=(2, 2), bias=False)
          (1): BatchNorm2d(0.0 GMac, 0.029% MACs, 56, eps=1e-05, momentum=0.1, affine=True, track_running_stats=True)
        )
        (add): AddBlock(inplace=False, signed=True)
      )
    )
    (layer3): ResLayer(
      0.102 GMac, 16.611% MACs, 
      (0): Bottleneck(
        0.032 GMac, 5.184% MACs, 
        (conv1): Conv2d(0.014 GMac, 2.216% MACs, 56, 152, kernel_size=(1, 1), stride=(1, 1), bias=False)
        (bn1): BatchNorm2d(0.0 GMac, 0.079% MACs, 152, eps=1e-05, momentum=0.1, affine=True, track_running_stats=True)
        (conv2): Conv2d(0.004 GMac, 0.712% MACs, 152, 152, kernel_size=(3, 3), stride=(2, 2), padding=(1, 1), groups=19, bias=False)
        (bn2): BatchNorm2d(0.0 GMac, 0.020% MACs, 152, eps=1e-05, momentum=0.1, affine=True, track_running_stats=True)
        (conv3): Conv2d(0.009 GMac, 1.504% MACs, 152, 152, kernel_size=(1, 1), stride=(1, 1), bias=False)
        (bn3): BatchNorm2d(0.0 GMac, 0.020% MACs, 152, eps=1e-05, momentum=0.1, affine=True, track_running_stats=True)
        (relu1): ReLU(0.0 GMac, 0.040% MACs, inplace=True)
        (relu2): ReLU(0.0 GMac, 0.010% MACs, inplace=True)
        (relu3): ReLU(0.0 GMac, 0.010% MACs, inplace=True)
        (downsample): Sequential(
          0.004 GMac, 0.574% MACs, 
          (0): Conv2d(0.003 GMac, 0.554% MACs, 56, 152, kernel_size=(1, 1), stride=(2, 2), bias=False)
          (1): BatchNorm2d(0.0 GMac, 0.020% MACs, 152, eps=1e-05, momentum=0.1, affine=True, track_running_stats=True)
        )
        (add): AddBlock(inplace=False, signed=True)
      )
      (1): Bottleneck(
        0.023 GMac, 3.809% MACs, 
        (conv1): Conv2d(0.009 GMac, 1.504% MACs, 152, 152, kernel_size=(1, 1), stride=(1, 1), bias=False)
        (bn1): BatchNorm2d(0.0 GMac, 0.020% MACs, 152, eps=1e-05, momentum=0.1, affine=True, track_running_stats=True)
        (conv2): Conv2d(0.004 GMac, 0.712% MACs, 152, 152, kernel_size=(3, 3), stride=(1, 1), padding=(1, 1), groups=19, bias=False)
        (bn2): BatchNorm2d(0.0 GMac, 0.020% MACs, 152, eps=1e-05, momentum=0.1, affine=True, track_running_stats=True)
        (conv3): Conv2d(0.009 GMac, 1.504% MACs, 152, 152, kernel_size=(1, 1), stride=(1, 1), bias=False)
        (bn3): BatchNorm2d(0.0 GMac, 0.020% MACs, 152, eps=1e-05, momentum=0.1, affine=True, track_running_stats=True)
        (relu1): ReLU(0.0 GMac, 0.010% MACs, inplace=True)
        (relu2): ReLU(0.0 GMac, 0.010% MACs, inplace=True)
        (relu3): ReLU(0.0 GMac, 0.010% MACs, inplace=True)
        (add): AddBlock(inplace=False, signed=True)
      )
      (2): Bottleneck(
        0.023 GMac, 3.809% MACs, 
        (conv1): Conv2d(0.009 GMac, 1.504% MACs, 152, 152, kernel_size=(1, 1), stride=(1, 1), bias=False)
        (bn1): BatchNorm2d(0.0 GMac, 0.020% MACs, 152, eps=1e-05, momentum=0.1, affine=True, track_running_stats=True)
        (conv2): Conv2d(0.004 GMac, 0.712% MACs, 152, 152, kernel_size=(3, 3), stride=(1, 1), padding=(1, 1), groups=19, bias=False)
        (bn2): BatchNorm2d(0.0 GMac, 0.020% MACs, 152, eps=1e-05, momentum=0.1, affine=True, track_running_stats=True)
        (conv3): Conv2d(0.009 GMac, 1.504% MACs, 152, 152, kernel_size=(1, 1), stride=(1, 1), bias=False)
        (bn3): BatchNorm2d(0.0 GMac, 0.020% MACs, 152, eps=1e-05, momentum=0.1, affine=True, track_running_stats=True)
        (relu1): ReLU(0.0 GMac, 0.010% MACs, inplace=True)
        (relu2): ReLU(0.0 GMac, 0.010% MACs, inplace=True)
        (relu3): ReLU(0.0 GMac, 0.010% MACs, inplace=True)
        (add): AddBlock(inplace=False, signed=True)
      )
      (3): Bottleneck(
        0.023 GMac, 3.809% MACs, 
        (conv1): Conv2d(0.009 GMac, 1.504% MACs, 152, 152, kernel_size=(1, 1), stride=(1, 1), bias=False)
        (bn1): BatchNorm2d(0.0 GMac, 0.020% MACs, 152, eps=1e-05, momentum=0.1, affine=True, track_running_stats=True)
        (conv2): Conv2d(0.004 GMac, 0.712% MACs, 152, 152, kernel_size=(3, 3), stride=(1, 1), padding=(1, 1), groups=19, bias=False)
        (bn2): BatchNorm2d(0.0 GMac, 0.020% MACs, 152, eps=1e-05, momentum=0.1, affine=True, track_running_stats=True)
        (conv3): Conv2d(0.009 GMac, 1.504% MACs, 152, 152, kernel_size=(1, 1), stride=(1, 1), bias=False)
        (bn3): BatchNorm2d(0.0 GMac, 0.020% MACs, 152, eps=1e-05, momentum=0.1, affine=True, track_running_stats=True)
        (relu1): ReLU(0.0 GMac, 0.010% MACs, inplace=True)
        (relu2): ReLU(0.0 GMac, 0.010% MACs, inplace=True)
        (relu3): ReLU(0.0 GMac, 0.010% MACs, inplace=True)
        (add): AddBlock(inplace=False, signed=True)
      )
    )
    (layer4): ResLayer(
      0.225 GMac, 36.658% MACs, 
      (0): Bottleneck(
        0.045 GMac, 7.305% MACs, 
        (conv1): Conv2d(0.022 GMac, 3.641% MACs, 152, 368, kernel_size=(1, 1), stride=(1, 1), bias=False)
        (bn1): BatchNorm2d(0.0 GMac, 0.048% MACs, 368, eps=1e-05, momentum=0.1, affine=True, track_running_stats=True)
        (conv2): Conv2d(0.003 GMac, 0.431% MACs, 368, 368, kernel_size=(3, 3), stride=(2, 2), padding=(1, 1), groups=46, bias=False)
        (bn2): BatchNorm2d(0.0 GMac, 0.012% MACs, 368, eps=1e-05, momentum=0.1, affine=True, track_running_stats=True)
        (conv3): Conv2d(0.014 GMac, 2.204% MACs, 368, 368, kernel_size=(1, 1), stride=(1, 1), bias=False)
        (bn3): BatchNorm2d(0.0 GMac, 0.012% MACs, 368, eps=1e-05, momentum=0.1, affine=True, track_running_stats=True)
        (relu1): ReLU(0.0 GMac, 0.024% MACs, inplace=True)
        (relu2): ReLU(0.0 GMac, 0.006% MACs, inplace=True)
        (relu3): ReLU(0.0 GMac, 0.006% MACs, inplace=True)
        (downsample): Sequential(
          0.006 GMac, 0.922% MACs, 
          (0): Conv2d(0.006 GMac, 0.910% MACs, 152, 368, kernel_size=(1, 1), stride=(2, 2), bias=False)
          (1): BatchNorm2d(0.0 GMac, 0.012% MACs, 368, eps=1e-05, momentum=0.1, affine=True, track_running_stats=True)
        )
        (add): AddBlock(inplace=False, signed=True)
      )
      (1): Bottleneck(
        0.03 GMac, 4.892% MACs, 
        (conv1): Conv2d(0.014 GMac, 2.204% MACs, 368, 368, kernel_size=(1, 1), stride=(1, 1), bias=False)
        (bn1): BatchNorm2d(0.0 GMac, 0.012% MACs, 368, eps=1e-05, momentum=0.1, affine=True, track_running_stats=True)
        (conv2): Conv2d(0.003 GMac, 0.431% MACs, 368, 368, kernel_size=(3, 3), stride=(1, 1), padding=(1, 1), groups=46, bias=False)
        (bn2): BatchNorm2d(0.0 GMac, 0.012% MACs, 368, eps=1e-05, momentum=0.1, affine=True, track_running_stats=True)
        (conv3): Conv2d(0.014 GMac, 2.204% MACs, 368, 368, kernel_size=(1, 1), stride=(1, 1), bias=False)
        (bn3): BatchNorm2d(0.0 GMac, 0.012% MACs, 368, eps=1e-05, momentum=0.1, affine=True, track_running_stats=True)
        (relu1): ReLU(0.0 GMac, 0.006% MACs, inplace=True)
        (relu2): ReLU(0.0 GMac, 0.006% MACs, inplace=True)
        (relu3): ReLU(0.0 GMac, 0.006% MACs, inplace=True)
        (add): AddBlock(inplace=False, signed=True)
      )
      (2): Bottleneck(
        0.03 GMac, 4.892% MACs, 
        (conv1): Conv2d(0.014 GMac, 2.204% MACs, 368, 368, kernel_size=(1, 1), stride=(1, 1), bias=False)
        (bn1): BatchNorm2d(0.0 GMac, 0.012% MACs, 368, eps=1e-05, momentum=0.1, affine=True, track_running_stats=True)
        (conv2): Conv2d(0.003 GMac, 0.431% MACs, 368, 368, kernel_size=(3, 3), stride=(1, 1), padding=(1, 1), groups=46, bias=False)
        (bn2): BatchNorm2d(0.0 GMac, 0.012% MACs, 368, eps=1e-05, momentum=0.1, affine=True, track_running_stats=True)
        (conv3): Conv2d(0.014 GMac, 2.204% MACs, 368, 368, kernel_size=(1, 1), stride=(1, 1), bias=False)
        (bn3): BatchNorm2d(0.0 GMac, 0.012% MACs, 368, eps=1e-05, momentum=0.1, affine=True, track_running_stats=True)
        (relu1): ReLU(0.0 GMac, 0.006% MACs, inplace=True)
        (relu2): ReLU(0.0 GMac, 0.006% MACs, inplace=True)
        (relu3): ReLU(0.0 GMac, 0.006% MACs, inplace=True)
        (add): AddBlock(inplace=False, signed=True)
      )
      (3): Bottleneck(
        0.03 GMac, 4.892% MACs, 
        (conv1): Conv2d(0.014 GMac, 2.204% MACs, 368, 368, kernel_size=(1, 1), stride=(1, 1), bias=False)
        (bn1): BatchNorm2d(0.0 GMac, 0.012% MACs, 368, eps=1e-05, momentum=0.1, affine=True, track_running_stats=True)
        (conv2): Conv2d(0.003 GMac, 0.431% MACs, 368, 368, kernel_size=(3, 3), stride=(1, 1), padding=(1, 1), groups=46, bias=False)
        (bn2): BatchNorm2d(0.0 GMac, 0.012% MACs, 368, eps=1e-05, momentum=0.1, affine=True, track_running_stats=True)
        (conv3): Conv2d(0.014 GMac, 2.204% MACs, 368, 368, kernel_size=(1, 1), stride=(1, 1), bias=False)
        (bn3): BatchNorm2d(0.0 GMac, 0.012% MACs, 368, eps=1e-05, momentum=0.1, affine=True, track_running_stats=True)
        (relu1): ReLU(0.0 GMac, 0.006% MACs, inplace=True)
        (relu2): ReLU(0.0 GMac, 0.006% MACs, inplace=True)
        (relu3): ReLU(0.0 GMac, 0.006% MACs, inplace=True)
        (add): AddBlock(inplace=False, signed=True)
      )
      (4): Bottleneck(
        0.03 GMac, 4.892% MACs, 
        (conv1): Conv2d(0.014 GMac, 2.204% MACs, 368, 368, kernel_size=(1, 1), stride=(1, 1), bias=False)
        (bn1): BatchNorm2d(0.0 GMac, 0.012% MACs, 368, eps=1e-05, momentum=0.1, affine=True, track_running_stats=True)
        (conv2): Conv2d(0.003 GMac, 0.431% MACs, 368, 368, kernel_size=(3, 3), stride=(1, 1), padding=(1, 1), groups=46, bias=False)
        (bn2): BatchNorm2d(0.0 GMac, 0.012% MACs, 368, eps=1e-05, momentum=0.1, affine=True, track_running_stats=True)
        (conv3): Conv2d(0.014 GMac, 2.204% MACs, 368, 368, kernel_size=(1, 1), stride=(1, 1), bias=False)
        (bn3): BatchNorm2d(0.0 GMac, 0.012% MACs, 368, eps=1e-05, momentum=0.1, affine=True, track_running_stats=True)
        (relu1): ReLU(0.0 GMac, 0.006% MACs, inplace=True)
        (relu2): ReLU(0.0 GMac, 0.006% MACs, inplace=True)
        (relu3): ReLU(0.0 GMac, 0.006% MACs, inplace=True)
        (add): AddBlock(inplace=False, signed=True)
      )
      (5): Bottleneck(
        0.03 GMac, 4.892% MACs, 
        (conv1): Conv2d(0.014 GMac, 2.204% MACs, 368, 368, kernel_size=(1, 1), stride=(1, 1), bias=False)
        (bn1): BatchNorm2d(0.0 GMac, 0.012% MACs, 368, eps=1e-05, momentum=0.1, affine=True, track_running_stats=True)
        (conv2): Conv2d(0.003 GMac, 0.431% MACs, 368, 368, kernel_size=(3, 3), stride=(1, 1), padding=(1, 1), groups=46, bias=False)
        (bn2): BatchNorm2d(0.0 GMac, 0.012% MACs, 368, eps=1e-05, momentum=0.1, affine=True, track_running_stats=True)
        (conv3): Conv2d(0.014 GMac, 2.204% MACs, 368, 368, kernel_size=(1, 1), stride=(1, 1), bias=False)
        (bn3): BatchNorm2d(0.0 GMac, 0.012% MACs, 368, eps=1e-05, momentum=0.1, affine=True, track_running_stats=True)
        (relu1): ReLU(0.0 GMac, 0.006% MACs, inplace=True)
        (relu2): ReLU(0.0 GMac, 0.006% MACs, inplace=True)
        (relu3): ReLU(0.0 GMac, 0.006% MACs, inplace=True)
        (add): AddBlock(inplace=False, signed=True)
      )
      (6): Bottleneck(
        0.03 GMac, 4.892% MACs, 
        (conv1): Conv2d(0.014 GMac, 2.204% MACs, 368, 368, kernel_size=(1, 1), stride=(1, 1), bias=False)
        (bn1): BatchNorm2d(0.0 GMac, 0.012% MACs, 368, eps=1e-05, momentum=0.1, affine=True, track_running_stats=True)
        (conv2): Conv2d(0.003 GMac, 0.431% MACs, 368, 368, kernel_size=(3, 3), stride=(1, 1), padding=(1, 1), groups=46, bias=False)
        (bn2): BatchNorm2d(0.0 GMac, 0.012% MACs, 368, eps=1e-05, momentum=0.1, affine=True, track_running_stats=True)
        (conv3): Conv2d(0.014 GMac, 2.204% MACs, 368, 368, kernel_size=(1, 1), stride=(1, 1), bias=False)
        (bn3): BatchNorm2d(0.0 GMac, 0.012% MACs, 368, eps=1e-05, momentum=0.1, affine=True, track_running_stats=True)
        (relu1): ReLU(0.0 GMac, 0.006% MACs, inplace=True)
        (relu2): ReLU(0.0 GMac, 0.006% MACs, inplace=True)
        (relu3): ReLU(0.0 GMac, 0.006% MACs, inplace=True)
        (add): AddBlock(inplace=False, signed=True)
      )
    )
  )
  (neck): FPNLite(
    0.068 GMac, 11.047% MACs, 
    (lateral_convs): ModuleList(
      0.021 GMac, 3.488% MACs, 
      (0): ConvNormAct2d(
        0.01 GMac, 1.691% MACs, 
        (0): Conv2d(0.01 GMac, 1.633% MACs, 56, 112, kernel_size=(1, 1), stride=(1, 1), bias=False)
        (1): BatchNorm2d(0.0 GMac, 0.058% MACs, 112, eps=1e-05, momentum=0.1, affine=True, track_running_stats=True)
      )
      (1): ConvNormAct2d(
        0.007 GMac, 1.123% MACs, 
        (0): Conv2d(0.007 GMac, 1.108% MACs, 152, 112, kernel_size=(1, 1), stride=(1, 1), bias=False)
        (1): BatchNorm2d(0.0 GMac, 0.015% MACs, 112, eps=1e-05, momentum=0.1, affine=True, track_running_stats=True)
      )
      (2): ConvNormAct2d(
        0.004 GMac, 0.674% MACs, 
        (0): Conv2d(0.004 GMac, 0.671% MACs, 368, 112, kernel_size=(1, 1), stride=(1, 1), bias=False)
        (1): BatchNorm2d(0.0 GMac, 0.004% MACs, 112, eps=1e-05, momentum=0.1, affine=True, track_running_stats=True)
      )
    )
    (fpn_convs): ModuleList(
      0.046 GMac, 7.559% MACs, 
      (0): ConvDWSep2d(
        0.034 GMac, 5.511% MACs, 
        (0): Sequential(
          0.013 GMac, 2.187% MACs, 
          (0): Conv2d(0.013 GMac, 2.099% MACs, 112, 112, kernel_size=(3, 3), stride=(1, 1), padding=(1, 1), groups=14, bias=False)
          (1): BatchNorm2d(0.0 GMac, 0.058% MACs, 112, eps=1e-05, momentum=0.1, affine=True, track_running_stats=True)
          (2): ReLU(0.0 GMac, 0.029% MACs, )
        )
        (1): Sequential(
          0.02 GMac, 3.324% MACs, 
          (0): Conv2d(0.02 GMac, 3.266% MACs, 112, 112, kernel_size=(1, 1), stride=(1, 1), bias=False)
          (1): BatchNorm2d(0.0 GMac, 0.058% MACs, 112, eps=1e-05, momentum=0.1, affine=True, track_running_stats=True)
        )
      )
      (1): ConvDWSep2d(
        0.008 GMac, 1.378% MACs, 
        (0): Sequential(
          0.003 GMac, 0.547% MACs, 
          (0): Conv2d(0.003 GMac, 0.525% MACs, 112, 112, kernel_size=(3, 3), stride=(1, 1), padding=(1, 1), groups=14, bias=False)
          (1): BatchNorm2d(0.0 GMac, 0.015% MACs, 112, eps=1e-05, momentum=0.1, affine=True, track_running_stats=True)
          (2): ReLU(0.0 GMac, 0.007% MACs, )
        )
        (1): Sequential(
          0.005 GMac, 0.831% MACs, 
          (0): Conv2d(0.005 GMac, 0.816% MACs, 112, 112, kernel_size=(1, 1), stride=(1, 1), bias=False)
          (1): BatchNorm2d(0.0 GMac, 0.015% MACs, 112, eps=1e-05, momentum=0.1, affine=True, track_running_stats=True)
        )
      )
      (2): ConvDWSep2d(
        0.002 GMac, 0.344% MACs, 
        (0): Sequential(
          0.001 GMac, 0.137% MACs, 
          (0): Conv2d(0.001 GMac, 0.131% MACs, 112, 112, kernel_size=(3, 3), stride=(1, 1), padding=(1, 1), groups=14, bias=False)
          (1): BatchNorm2d(0.0 GMac, 0.004% MACs, 112, eps=1e-05, momentum=0.1, affine=True, track_running_stats=True)
          (2): ReLU(0.0 GMac, 0.002% MACs, )
        )
        (1): Sequential(
          0.001 GMac, 0.208% MACs, 
          (0): Conv2d(0.001 GMac, 0.204% MACs, 112, 112, kernel_size=(1, 1), stride=(1, 1), bias=False)
          (1): BatchNorm2d(0.0 GMac, 0.004% MACs, 112, eps=1e-05, momentum=0.1, affine=True, track_running_stats=True)
        )
      )
      (3): ConvDWSep2d(
        0.002 GMac, 0.281% MACs, 
        (0): Sequential(
          0.001 GMac, 0.112% MACs, 
          (0): Conv2d(0.001 GMac, 0.108% MACs, 368, 368, kernel_size=(3, 3), stride=(2, 2), padding=(1, 1), groups=46, bias=False)
          (1): BatchNorm2d(0.0 GMac, 0.003% MACs, 368, eps=1e-05, momentum=0.1, affine=True, track_running_stats=True)
          (2): ReLU(0.0 GMac, 0.001% MACs, )
        )
        (1): Sequential(
          0.001 GMac, 0.169% MACs, 
          (0): Conv2d(0.001 GMac, 0.168% MACs, 368, 112, kernel_size=(1, 1), stride=(1, 1), bias=False)
          (1): BatchNorm2d(0.0 GMac, 0.001% MACs, 112, eps=1e-05, momentum=0.1, affine=True, track_running_stats=True)
        )
      )
      (4): ConvDWSep2d(
        0.0 GMac, 0.031% MACs, 
        (0): Sequential(
          0.0 GMac, 0.012% MACs, 
          (0): Conv2d(0.0 GMac, 0.012% MACs, 112, 112, kernel_size=(3, 3), stride=(2, 2), padding=(1, 1), groups=14, bias=False)
          (1): BatchNorm2d(0.0 GMac, 0.000% MACs, 112, eps=1e-05, momentum=0.1, affine=True, track_running_stats=True)
          (2): ReLU(0.0 GMac, 0.000% MACs, )
        )
        (1): Sequential(
          0.0 GMac, 0.019% MACs, 
          (0): Conv2d(0.0 GMac, 0.018% MACs, 112, 112, kernel_size=(1, 1), stride=(1, 1), bias=False)
          (1): BatchNorm2d(0.0 GMac, 0.000% MACs, 112, eps=1e-05, momentum=0.1, affine=True, track_running_stats=True)
        )
      )
      (5): ConvDWSep2d(
        0.0 GMac, 0.014% MACs, 
        (0): Sequential(
          0.0 GMac, 0.005% MACs, 
          (0): Conv2d(0.0 GMac, 0.005% MACs, 112, 112, kernel_size=(3, 3), stride=(2, 2), padding=(1, 1), groups=14, bias=False)
          (1): BatchNorm2d(0.0 GMac, 0.000% MACs, 112, eps=1e-05, momentum=0.1, affine=True, track_running_stats=True)
          (2): ReLU(0.0 GMac, 0.000% MACs, )
        )
        (1): Sequential(
          0.0 GMac, 0.008% MACs, 
          (0): Conv2d(0.0 GMac, 0.008% MACs, 112, 112, kernel_size=(1, 1), stride=(1, 1), bias=False)
          (1): BatchNorm2d(0.0 GMac, 0.000% MACs, 112, eps=1e-05, momentum=0.1, affine=True, track_running_stats=True)
        )
      )
    )
    (adds): ModuleList(
      0.0 GMac, 0.000% MACs, 
      (0): AddBlock(inplace=False, signed=True)
      (1): AddBlock(inplace=False, signed=True)
      (2): AddBlock(inplace=False, signed=True)
    )
  )
  (bbox_head): SSDLiteHead(
    0.128 GMac, 20.880% MACs, 
    (reg_convs): ModuleList(
      0.022 GMac, 3.630% MACs, 
      (0): ConvDWSep2d(
        0.016 GMac, 2.658% MACs, 
        (0): Sequential(
          0.013 GMac, 2.187% MACs, 
          (0): Conv2d(0.013 GMac, 2.099% MACs, 112, 112, kernel_size=(3, 3), stride=(1, 1), padding=(1, 1), groups=14, bias=False)
          (1): BatchNorm2d(0.0 GMac, 0.058% MACs, 112, eps=1e-05, momentum=0.1, affine=True, track_running_stats=True)
          (2): ReLU(0.0 GMac, 0.029% MACs, )
        )
        (1): Sequential(
          0.003 GMac, 0.471% MACs, 
          (0): Conv2d(0.003 GMac, 0.471% MACs, 112, 16, kernel_size=(1, 1), stride=(1, 1))
        )
      )
      (1): ConvDWSep2d(
        0.004 GMac, 0.723% MACs, 
        (0): Sequential(
          0.003 GMac, 0.547% MACs, 
          (0): Conv2d(0.003 GMac, 0.525% MACs, 112, 112, kernel_size=(3, 3), stride=(1, 1), padding=(1, 1), groups=14, bias=False)
          (1): BatchNorm2d(0.0 GMac, 0.015% MACs, 112, eps=1e-05, momentum=0.1, affine=True, track_running_stats=True)
          (2): ReLU(0.0 GMac, 0.007% MACs, )
        )
        (1): Sequential(
          0.001 GMac, 0.177% MACs, 
          (0): Conv2d(0.001 GMac, 0.177% MACs, 112, 24, kernel_size=(1, 1), stride=(1, 1))
        )
      )
      (2): ConvDWSep2d(
        0.001 GMac, 0.181% MACs, 
        (0): Sequential(
          0.001 GMac, 0.137% MACs, 
          (0): Conv2d(0.001 GMac, 0.131% MACs, 112, 112, kernel_size=(3, 3), stride=(1, 1), padding=(1, 1), groups=14, bias=False)
          (1): BatchNorm2d(0.0 GMac, 0.004% MACs, 112, eps=1e-05, momentum=0.1, affine=True, track_running_stats=True)
          (2): ReLU(0.0 GMac, 0.002% MACs, )
        )
        (1): Sequential(
          0.0 GMac, 0.044% MACs, 
          (0): Conv2d(0.0 GMac, 0.044% MACs, 112, 24, kernel_size=(1, 1), stride=(1, 1))
        )
      )
      (3): ConvDWSep2d(
        0.0 GMac, 0.045% MACs, 
        (0): Sequential(
          0.0 GMac, 0.034% MACs, 
          (0): Conv2d(0.0 GMac, 0.033% MACs, 112, 112, kernel_size=(3, 3), stride=(1, 1), padding=(1, 1), groups=14, bias=False)
          (1): BatchNorm2d(0.0 GMac, 0.001% MACs, 112, eps=1e-05, momentum=0.1, affine=True, track_running_stats=True)
          (2): ReLU(0.0 GMac, 0.000% MACs, )
        )
        (1): Sequential(
          0.0 GMac, 0.011% MACs, 
          (0): Conv2d(0.0 GMac, 0.011% MACs, 112, 24, kernel_size=(1, 1), stride=(1, 1))
        )
      )
      (4): ConvDWSep2d(
        0.0 GMac, 0.016% MACs, 
        (0): Sequential(
          0.0 GMac, 0.012% MACs, 
          (0): Conv2d(0.0 GMac, 0.012% MACs, 112, 112, kernel_size=(3, 3), stride=(1, 1), padding=(1, 1), groups=14, bias=False)
          (1): BatchNorm2d(0.0 GMac, 0.000% MACs, 112, eps=1e-05, momentum=0.1, affine=True, track_running_stats=True)
          (2): ReLU(0.0 GMac, 0.000% MACs, )
        )
        (1): Sequential(
          0.0 GMac, 0.004% MACs, 
          (0): Conv2d(0.0 GMac, 0.004% MACs, 112, 24, kernel_size=(1, 1), stride=(1, 1))
        )
      )
      (5): ConvDWSep2d(
        0.0 GMac, 0.007% MACs, 
        (0): Sequential(
          0.0 GMac, 0.005% MACs, 
          (0): Conv2d(0.0 GMac, 0.005% MACs, 112, 112, kernel_size=(3, 3), stride=(1, 1), padding=(1, 1), groups=14, bias=False)
          (1): BatchNorm2d(0.0 GMac, 0.000% MACs, 112, eps=1e-05, momentum=0.1, affine=True, track_running_stats=True)
          (2): ReLU(0.0 GMac, 0.000% MACs, )
        )
        (1): Sequential(
          0.0 GMac, 0.001% MACs, 
          (0): Conv2d(0.0 GMac, 0.001% MACs, 112, 16, kernel_size=(1, 1), stride=(1, 1))
        )
      )
    )
    (cls_convs): ModuleList(
      0.106 GMac, 17.250% MACs, 
      (0): ConvDWSep2d(
        0.072 GMac, 11.719% MACs, 
        (0): Sequential(
          0.013 GMac, 2.187% MACs, 
          (0): Conv2d(0.013 GMac, 2.099% MACs, 112, 112, kernel_size=(3, 3), stride=(1, 1), padding=(1, 1), groups=14, bias=False)
          (1): BatchNorm2d(0.0 GMac, 0.058% MACs, 112, eps=1e-05, momentum=0.1, affine=True, track_running_stats=True)
          (2): ReLU(0.0 GMac, 0.029% MACs, )
        )
        (1): Sequential(
          0.059 GMac, 9.532% MACs, 
          (0): Conv2d(0.059 GMac, 9.532% MACs, 112, 324, kernel_size=(1, 1), stride=(1, 1))
        )
      )
      (1): ConvDWSep2d(
        0.025 GMac, 4.121% MACs, 
        (0): Sequential(
          0.003 GMac, 0.547% MACs, 
          (0): Conv2d(0.003 GMac, 0.525% MACs, 112, 112, kernel_size=(3, 3), stride=(1, 1), padding=(1, 1), groups=14, bias=False)
          (1): BatchNorm2d(0.0 GMac, 0.015% MACs, 112, eps=1e-05, momentum=0.1, affine=True, track_running_stats=True)
          (2): ReLU(0.0 GMac, 0.007% MACs, )
        )
        (1): Sequential(
          0.022 GMac, 3.574% MACs, 
          (0): Conv2d(0.022 GMac, 3.574% MACs, 112, 486, kernel_size=(1, 1), stride=(1, 1))
        )
      )
      (2): ConvDWSep2d(
        0.006 GMac, 1.030% MACs, 
        (0): Sequential(
          0.001 GMac, 0.137% MACs, 
          (0): Conv2d(0.001 GMac, 0.131% MACs, 112, 112, kernel_size=(3, 3), stride=(1, 1), padding=(1, 1), groups=14, bias=False)
          (1): BatchNorm2d(0.0 GMac, 0.004% MACs, 112, eps=1e-05, momentum=0.1, affine=True, track_running_stats=True)
          (2): ReLU(0.0 GMac, 0.002% MACs, )
        )
        (1): Sequential(
          0.005 GMac, 0.894% MACs, 
          (0): Conv2d(0.005 GMac, 0.894% MACs, 112, 486, kernel_size=(1, 1), stride=(1, 1))
        )
      )
      (3): ConvDWSep2d(
        0.002 GMac, 0.258% MACs, 
        (0): Sequential(
          0.0 GMac, 0.034% MACs, 
          (0): Conv2d(0.0 GMac, 0.033% MACs, 112, 112, kernel_size=(3, 3), stride=(1, 1), padding=(1, 1), groups=14, bias=False)
          (1): BatchNorm2d(0.0 GMac, 0.001% MACs, 112, eps=1e-05, momentum=0.1, affine=True, track_running_stats=True)
          (2): ReLU(0.0 GMac, 0.000% MACs, )
        )
        (1): Sequential(
          0.001 GMac, 0.223% MACs, 
          (0): Conv2d(0.001 GMac, 0.223% MACs, 112, 486, kernel_size=(1, 1), stride=(1, 1))
        )
      )
      (4): ConvDWSep2d(
        0.001 GMac, 0.093% MACs, 
        (0): Sequential(
          0.0 GMac, 0.012% MACs, 
          (0): Conv2d(0.0 GMac, 0.012% MACs, 112, 112, kernel_size=(3, 3), stride=(1, 1), padding=(1, 1), groups=14, bias=False)
          (1): BatchNorm2d(0.0 GMac, 0.000% MACs, 112, eps=1e-05, momentum=0.1, affine=True, track_running_stats=True)
          (2): ReLU(0.0 GMac, 0.000% MACs, )
        )
        (1): Sequential(
          0.0 GMac, 0.080% MACs, 
          (0): Conv2d(0.0 GMac, 0.080% MACs, 112, 486, kernel_size=(1, 1), stride=(1, 1))
        )
      )
      (5): ConvDWSep2d(
        0.0 GMac, 0.029% MACs, 
        (0): Sequential(
          0.0 GMac, 0.005% MACs, 
          (0): Conv2d(0.0 GMac, 0.005% MACs, 112, 112, kernel_size=(3, 3), stride=(1, 1), padding=(1, 1), groups=14, bias=False)
          (1): BatchNorm2d(0.0 GMac, 0.000% MACs, 112, eps=1e-05, momentum=0.1, affine=True, track_running_stats=True)
          (2): ReLU(0.0 GMac, 0.000% MACs, )
        )
        (1): Sequential(
          0.0 GMac, 0.024% MACs, 
          (0): Conv2d(0.0 GMac, 0.024% MACs, 112, 324, kernel_size=(1, 1), stride=(1, 1))
        )
      )
    )
  )
)
2020-10-10 19:54:36,047 - mmdet - INFO - 

2020-10-10 19:54:36,051 - mmdet - INFO - Compute   : 0.61 GMac
2020-10-10 19:54:36,051 - mmdet - INFO - Parameters: 2.96 M
2020-10-10 19:55:06,856 - mmdet - INFO - Start running, host: a0393608@uda0393608, work_dir: /data/files/a0393608/files/work/ti/bitbucket/jacinto-ai/pytorch-jacinto-ai-detection/work_dirs/ssd-lite_regnet_fpn_bgr
…
