…
            dict(type='Pad', size_divisor=32),
            dict(type='ImageToTensor', keys=['img']),
            dict(type='Collect', keys=['img'])
        ])
]
work_dir = './work_dirs/yolov3-lite_regnet_bgr'
gpu_ids = range(0, 4)

2021-02-02 13:10:04,196 - mmdet - INFO - load model from: open-mmlab://regnetx_1.6gf
2021-02-02 13:10:04,255 - mmdet - WARNING - The model and loaded state dict do not match exactly

unexpected key in source state_dict: fc.weight, fc.bias

2021-02-02 13:10:04,893 - mmdet - INFO - YOLOV3(
  10.478 GMac, 100.000% MACs, 
  (backbone): RegNet(
    8.491 GMac, 81.039% MACs, 
    (conv1): Conv2d(0.057 GMac, 0.540% MACs, 3, 32, kernel_size=(3, 3), stride=(2, 2), padding=(1, 1), bias=False)
    (bn1): BatchNorm2d(0.004 GMac, 0.040% MACs, 32, eps=1e-05, momentum=0.1, affine=True, track_running_stats=True)
    (relu): ReLU(0.002 GMac, 0.020% MACs, inplace=True)
    (layer1): ResLayer(
      0.987 GMac, 9.423% MACs, 
      (0): Bottleneck(
        0.552 GMac, 5.269% MACs, 
        (conv1): Conv2d(0.151 GMac, 1.441% MACs, 32, 72, kernel_size=(1, 1), stride=(1, 1), bias=False)
        (bn1): BatchNorm2d(0.009 GMac, 0.090% MACs, 72, eps=1e-05, momentum=0.1, affine=True, track_running_stats=True)
        (conv2): Conv2d(0.255 GMac, 2.432% MACs, 72, 72, kernel_size=(3, 3), stride=(2, 2), padding=(1, 1), groups=3, bias=False)
        (bn2): BatchNorm2d(0.002 GMac, 0.023% MACs, 72, eps=1e-05, momentum=0.1, affine=True, track_running_stats=True)
        (conv3): Conv2d(0.085 GMac, 0.811% MACs, 72, 72, kernel_size=(1, 1), stride=(1, 1), bias=False)
        (bn3): BatchNorm2d(0.002 GMac, 0.023% MACs, 72, eps=1e-05, momentum=0.1, affine=True, track_running_stats=True)
        (relu1): ReLU(0.005 GMac, 0.045% MACs, inplace=True)
        (relu2): ReLU(0.001 GMac, 0.011% MACs, inplace=True)
        (relu3): ReLU(0.001 GMac, 0.011% MACs, inplace=True)
        (downsample): Sequential(
          0.04 GMac, 0.383% MACs, 
          (0): Conv2d(0.038 GMac, 0.360% MACs, 32, 72, kernel_size=(1, 1), stride=(2, 2), bias=False)
          (1): BatchNorm2d(0.002 GMac, 0.023% MACs, 72, eps=1e-05, momentum=0.1, affine=True, track_running_stats=True)
        )
        (add): AddBlock(inplace=False, signed=True)
      )
      (1): Bottleneck(
        0.435 GMac, 4.154% MACs, 
        (conv1): Conv2d(0.085 GMac, 0.811% MACs, 72, 72, kernel_size=(1, 1), stride=(1, 1), bias=False)
        (bn1): BatchNorm2d(0.002 GMac, 0.023% MACs, 72, eps=1e-05, momentum=0.1, affine=True, track_running_stats=True)
        (conv2): Conv2d(0.255 GMac, 2.432% MACs, 72, 72, kernel_size=(3, 3), stride=(1, 1), padding=(1, 1), groups=3, bias=False)
        (bn2): BatchNorm2d(0.002 GMac, 0.023% MACs, 72, eps=1e-05, momentum=0.1, affine=True, track_running_stats=True)
        (conv3): Conv2d(0.085 GMac, 0.811% MACs, 72, 72, kernel_size=(1, 1), stride=(1, 1), bias=False)
        (bn3): BatchNorm2d(0.002 GMac, 0.023% MACs, 72, eps=1e-05, momentum=0.1, affine=True, track_running_stats=True)
        (relu1): ReLU(0.001 GMac, 0.011% MACs, inplace=True)
        (relu2): ReLU(0.001 GMac, 0.011% MACs, inplace=True)
        (relu3): ReLU(0.001 GMac, 0.011% MACs, inplace=True)
        (add): AddBlock(inplace=False, signed=True)
      )
    )
    (layer2): ResLayer(
      1.684 GMac, 16.071% MACs, 
      (0): Bottleneck(
        0.526 GMac, 5.018% MACs, 
        (conv1): Conv2d(0.198 GMac, 1.891% MACs, 72, 168, kernel_size=(1, 1), stride=(1, 1), bias=False)
        (bn1): BatchNorm2d(0.006 GMac, 0.053% MACs, 168, eps=1e-05, momentum=0.1, affine=True, track_running_stats=True)
        (conv2): Conv2d(0.149 GMac, 1.419% MACs, 168, 168, kernel_size=(3, 3), stride=(2, 2), padding=(1, 1), groups=7, bias=False)
        (bn2): BatchNorm2d(0.001 GMac, 0.013% MACs, 168, eps=1e-05, momentum=0.1, affine=True, track_running_stats=True)
        (conv3): Conv2d(0.116 GMac, 1.103% MACs, 168, 168, kernel_size=(1, 1), stride=(1, 1), bias=False)
        (bn3): BatchNorm2d(0.001 GMac, 0.013% MACs, 168, eps=1e-05, momentum=0.1, affine=True, track_running_stats=True)
        (relu1): ReLU(0.003 GMac, 0.026% MACs, inplace=True)
        (relu2): ReLU(0.001 GMac, 0.007% MACs, inplace=True)
        (relu3): ReLU(0.001 GMac, 0.007% MACs, inplace=True)
        (downsample): Sequential(
          0.051 GMac, 0.486% MACs, 
          (0): Conv2d(0.05 GMac, 0.473% MACs, 72, 168, kernel_size=(1, 1), stride=(2, 2), bias=False)
          (1): BatchNorm2d(0.001 GMac, 0.013% MACs, 168, eps=1e-05, momentum=0.1, affine=True, track_running_stats=True)
        )
        (add): AddBlock(inplace=False, signed=True)
      )
      (1): Bottleneck(
        0.386 GMac, 3.684% MACs, 
        (conv1): Conv2d(0.116 GMac, 1.103% MACs, 168, 168, kernel_size=(1, 1), stride=(1, 1), bias=False)
        (bn1): BatchNorm2d(0.001 GMac, 0.013% MACs, 168, eps=1e-05, momentum=0.1, affine=True, track_running_stats=True)
        (conv2): Conv2d(0.149 GMac, 1.419% MACs, 168, 168, kernel_size=(3, 3), stride=(1, 1), padding=(1, 1), groups=7, bias=False)
        (bn2): BatchNorm2d(0.001 GMac, 0.013% MACs, 168, eps=1e-05, momentum=0.1, affine=True, track_running_stats=True)
        (conv3): Conv2d(0.116 GMac, 1.103% MACs, 168, 168, kernel_size=(1, 1), stride=(1, 1), bias=False)
        (bn3): BatchNorm2d(0.001 GMac, 0.013% MACs, 168, eps=1e-05, momentum=0.1, affine=True, track_running_stats=True)
        (relu1): ReLU(0.001 GMac, 0.007% MACs, inplace=True)
        (relu2): ReLU(0.001 GMac, 0.007% MACs, inplace=True)
        (relu3): ReLU(0.001 GMac, 0.007% MACs, inplace=True)
        (add): AddBlock(inplace=False, signed=True)
      )
      (2): Bottleneck(
        0.386 GMac, 3.684% MACs, 
        (conv1): Conv2d(0.116 GMac, 1.103% MACs, 168, 168, kernel_size=(1, 1), stride=(1, 1), bias=False)
        (bn1): BatchNorm2d(0.001 GMac, 0.013% MACs, 168, eps=1e-05, momentum=0.1, affine=True, track_running_stats=True)
        (conv2): Conv2d(0.149 GMac, 1.419% MACs, 168, 168, kernel_size=(3, 3), stride=(1, 1), padding=(1, 1), groups=7, bias=False)
        (bn2): BatchNorm2d(0.001 GMac, 0.013% MACs, 168, eps=1e-05, momentum=0.1, affine=True, track_running_stats=True)
        (conv3): Conv2d(0.116 GMac, 1.103% MACs, 168, 168, kernel_size=(1, 1), stride=(1, 1), bias=False)
        (bn3): BatchNorm2d(0.001 GMac, 0.013% MACs, 168, eps=1e-05, momentum=0.1, affine=True, track_running_stats=True)
        (relu1): ReLU(0.001 GMac, 0.007% MACs, inplace=True)
        (relu2): ReLU(0.001 GMac, 0.007% MACs, inplace=True)
        (relu3): ReLU(0.001 GMac, 0.007% MACs, inplace=True)
        (add): AddBlock(inplace=False, signed=True)
      )
      (3): Bottleneck(
        0.386 GMac, 3.684% MACs, 
        (conv1): Conv2d(0.116 GMac, 1.103% MACs, 168, 168, kernel_size=(1, 1), stride=(1, 1), bias=False)
        (bn1): BatchNorm2d(0.001 GMac, 0.013% MACs, 168, eps=1e-05, momentum=0.1, affine=True, track_running_stats=True)
        (conv2): Conv2d(0.149 GMac, 1.419% MACs, 168, 168, kernel_size=(3, 3), stride=(1, 1), padding=(1, 1), groups=7, bias=False)
        (bn2): BatchNorm2d(0.001 GMac, 0.013% MACs, 168, eps=1e-05, momentum=0.1, affine=True, track_running_stats=True)
        (conv3): Conv2d(0.116 GMac, 1.103% MACs, 168, 168, kernel_size=(1, 1), stride=(1, 1), bias=False)
        (bn3): BatchNorm2d(0.001 GMac, 0.013% MACs, 168, eps=1e-05, momentum=0.1, affine=True, track_running_stats=True)
        (relu1): ReLU(0.001 GMac, 0.007% MACs, inplace=True)
        (relu2): ReLU(0.001 GMac, 0.007% MACs, inplace=True)
        (relu3): ReLU(0.001 GMac, 0.007% MACs, inplace=True)
        (add): AddBlock(inplace=False, signed=True)
      )
    )
    (layer3): ResLayer(
      4.534 GMac, 43.275% MACs, 
      (0): Bottleneck(
        0.62 GMac, 5.917% MACs, 
        (conv1): Conv2d(0.281 GMac, 2.680% MACs, 168, 408, kernel_size=(1, 1), stride=(1, 1), bias=False)
        (bn1): BatchNorm2d(0.003 GMac, 0.032% MACs, 408, eps=1e-05, momentum=0.1, affine=True, track_running_stats=True)
        (conv2): Conv2d(0.09 GMac, 0.861% MACs, 408, 408, kernel_size=(3, 3), stride=(2, 2), padding=(1, 1), groups=17, bias=False)
        (bn2): BatchNorm2d(0.001 GMac, 0.008% MACs, 408, eps=1e-05, momentum=0.1, affine=True, track_running_stats=True)
        (conv3): Conv2d(0.17 GMac, 1.627% MACs, 408, 408, kernel_size=(1, 1), stride=(1, 1), bias=False)
        (bn3): BatchNorm2d(0.001 GMac, 0.008% MACs, 408, eps=1e-05, momentum=0.1, affine=True, track_running_stats=True)
        (relu1): ReLU(0.002 GMac, 0.016% MACs, inplace=True)
        (relu2): ReLU(0.0 GMac, 0.004% MACs, inplace=True)
        (relu3): ReLU(0.0 GMac, 0.004% MACs, inplace=True)
        (downsample): Sequential(
          0.071 GMac, 0.678% MACs, 
          (0): Conv2d(0.07 GMac, 0.670% MACs, 168, 408, kernel_size=(1, 1), stride=(2, 2), bias=False)
          (1): BatchNorm2d(0.001 GMac, 0.008% MACs, 408, eps=1e-05, momentum=0.1, affine=True, track_running_stats=True)
        )
        (add): AddBlock(inplace=False, signed=True)
      )
      (1): Bottleneck(
        0.435 GMac, 4.151% MACs, 
        (conv1): Conv2d(0.17 GMac, 1.627% MACs, 408, 408, kernel_size=(1, 1), stride=(1, 1), bias=False)
        (bn1): BatchNorm2d(0.001 GMac, 0.008% MACs, 408, eps=1e-05, momentum=0.1, affine=True, track_running_stats=True)
        (conv2): Conv2d(0.09 GMac, 0.861% MACs, 408, 408, kernel_size=(3, 3), stride=(1, 1), padding=(1, 1), groups=17, bias=False)
        (bn2): BatchNorm2d(0.001 GMac, 0.008% MACs, 408, eps=1e-05, momentum=0.1, affine=True, track_running_stats=True)
        (conv3): Conv2d(0.17 GMac, 1.627% MACs, 408, 408, kernel_size=(1, 1), stride=(1, 1), bias=False)
        (bn3): BatchNorm2d(0.001 GMac, 0.008% MACs, 408, eps=1e-05, momentum=0.1, affine=True, track_running_stats=True)
        (relu1): ReLU(0.0 GMac, 0.004% MACs, inplace=True)
        (relu2): ReLU(0.0 GMac, 0.004% MACs, inplace=True)
        (relu3): ReLU(0.0 GMac, 0.004% MACs, inplace=True)
        (add): AddBlock(inplace=False, signed=True)
      )
      (2): Bottleneck(
        0.435 GMac, 4.151% MACs, 
        (conv1): Conv2d(0.17 GMac, 1.627% MACs, 408, 408, kernel_size=(1, 1), stride=(1, 1), bias=False)
        (bn1): BatchNorm2d(0.001 GMac, 0.008% MACs, 408, eps=1e-05, momentum=0.1, affine=True, track_running_stats=True)
        (conv2): Conv2d(0.09 GMac, 0.861% MACs, 408, 408, kernel_size=(3, 3), stride=(1, 1), padding=(1, 1), groups=17, bias=False)
        (bn2): BatchNorm2d(0.001 GMac, 0.008% MACs, 408, eps=1e-05, momentum=0.1, affine=True, track_running_stats=True)
        (conv3): Conv2d(0.17 GMac, 1.627% MACs, 408, 408, kernel_size=(1, 1), stride=(1, 1), bias=False)
        (bn3): BatchNorm2d(0.001 GMac, 0.008% MACs, 408, eps=1e-05, momentum=0.1, affine=True, track_running_stats=True)
        (relu1): ReLU(0.0 GMac, 0.004% MACs, inplace=True)
        (relu2): ReLU(0.0 GMac, 0.004% MACs, inplace=True)
        (relu3): ReLU(0.0 GMac, 0.004% MACs, inplace=True)
        (add): AddBlock(inplace=False, signed=True)
      )
      (3): Bottleneck(
        0.435 GMac, 4.151% MACs, 
        (conv1): Conv2d(0.17 GMac, 1.627% MACs, 408, 408, kernel_size=(1, 1), stride=(1, 1), bias=False)
        (bn1): BatchNorm2d(0.001 GMac, 0.008% MACs, 408, eps=1e-05, momentum=0.1, affine=True, track_running_stats=True)
        (conv2): Conv2d(0.09 GMac, 0.861% MACs, 408, 408, kernel_size=(3, 3), stride=(1, 1), padding=(1, 1), groups=17, bias=False)
        (bn2): BatchNorm2d(0.001 GMac, 0.008% MACs, 408, eps=1e-05, momentum=0.1, affine=True, track_running_stats=True)
        (conv3): Conv2d(0.17 GMac, 1.627% MACs, 408, 408, kernel_size=(1, 1), stride=(1, 1), bias=False)
        (bn3): BatchNorm2d(0.001 GMac, 0.008% MACs, 408, eps=1e-05, momentum=0.1, affine=True, track_running_stats=True)
        (relu1): ReLU(0.0 GMac, 0.004% MACs, inplace=True)
        (relu2): ReLU(0.0 GMac, 0.004% MACs, inplace=True)
        (relu3): ReLU(0.0 GMac, 0.004% MACs, inplace=True)
        (add): AddBlock(inplace=False, signed=True)
      )
      (4): Bottleneck(
        0.435 GMac, 4.151% MACs, 
        (conv1): Conv2d(0.17 GMac, 1.627% MACs, 408, 408, kernel_size=(1, 1), stride=(1, 1), bias=False)
        (bn1): BatchNorm2d(0.001 GMac, 0.008% MACs, 408, eps=1e-05, momentum=0.1, affine=True, track_running_stats=True)
        (conv2): Conv2d(0.09 GMac, 0.861% MACs, 408, 408, kernel_size=(3, 3), stride=(1, 1), padding=(1, 1), groups=17, bias=False)
        (bn2): BatchNorm2d(0.001 GMac, 0.008% MACs, 408, eps=1e-05, momentum=0.1, affine=True, track_running_stats=True)
        (conv3): Conv2d(0.17 GMac, 1.627% MACs, 408, 408, kernel_size=(1, 1), stride=(1, 1), bias=False)
        (bn3): BatchNorm2d(0.001 GMac, 0.008% MACs, 408, eps=1e-05, momentum=0.1, affine=True, track_running_stats=True)
        (relu1): ReLU(0.0 GMac, 0.004% MACs, inplace=True)
        (relu2): ReLU(0.0 GMac, 0.004% MACs, inplace=True)
        (relu3): ReLU(0.0 GMac, 0.004% MACs, inplace=True)
        (add): AddBlock(inplace=False, signed=True)
      )
      (5): Bottleneck(
        0.435 GMac, 4.151% MACs, 
        (conv1): Conv2d(0.17 GMac, 1.627% MACs, 408, 408, kernel_size=(1, 1), stride=(1, 1), bias=False)
        (bn1): BatchNorm2d(0.001 GMac, 0.008% MACs, 408, eps=1e-05, momentum=0.1, affine=True, track_running_stats=True)
        (conv2): Conv2d(0.09 GMac, 0.861% MACs, 408, 408, kernel_size=(3, 3), stride=(1, 1), padding=(1, 1), groups=17, bias=False)
        (bn2): BatchNorm2d(0.001 GMac, 0.008% MACs, 408, eps=1e-05, momentum=0.1, affine=True, track_running_stats=True)
        (conv3): Conv2d(0.17 GMac, 1.627% MACs, 408, 408, kernel_size=(1, 1), stride=(1, 1), bias=False)
        (bn3): BatchNorm2d(0.001 GMac, 0.008% MACs, 408, eps=1e-05, momentum=0.1, affine=True, track_running_stats=True)
        (relu1): ReLU(0.0 GMac, 0.004% MACs, inplace=True)
        (relu2): ReLU(0.0 GMac, 0.004% MACs, inplace=True)
        (relu3): ReLU(0.0 GMac, 0.004% MACs, inplace=True)
        (add): AddBlock(inplace=False, signed=True)
      )
      (6): Bottleneck(
        0.435 GMac, 4.151% MACs, 
        (conv1): Conv2d(0.17 GMac, 1.627% MACs, 408, 408, kernel_size=(1, 1), stride=(1, 1), bias=False)
        (bn1): BatchNorm2d(0.001 GMac, 0.008% MACs, 408, eps=1e-05, momentum=0.1, affine=True, track_running_stats=True)
        (conv2): Conv2d(0.09 GMac, 0.861% MACs, 408, 408, kernel_size=(3, 3), stride=(1, 1), padding=(1, 1), groups=17, bias=False)
        (bn2): BatchNorm2d(0.001 GMac, 0.008% MACs, 408, eps=1e-05, momentum=0.1, affine=True, track_running_stats=True)
        (conv3): Conv2d(0.17 GMac, 1.627% MACs, 408, 408, kernel_size=(1, 1), stride=(1, 1), bias=False)
        (bn3): BatchNorm2d(0.001 GMac, 0.008% MACs, 408, eps=1e-05, momentum=0.1, affine=True, track_running_stats=True)
        (relu1): ReLU(0.0 GMac, 0.004% MACs, inplace=True)
        (relu2): ReLU(0.0 GMac, 0.004% MACs, inplace=True)
        (relu3): ReLU(0.0 GMac, 0.004% MACs, inplace=True)
        (add): AddBlock(inplace=False, signed=True)
      )
      (7): Bottleneck(
        0.435 GMac, 4.151% MACs, 
        (conv1): Conv2d(0.17 GMac, 1.627% MACs, 408, 408, kernel_size=(1, 1), stride=(1, 1), bias=False)
        (bn1): BatchNorm2d(0.001 GMac, 0.008% MACs, 408, eps=1e-05, momentum=0.1, affine=True, track_running_stats=True)
        (conv2): Conv2d(0.09 GMac, 0.861% MACs, 408, 408, kernel_size=(3, 3), stride=(1, 1), padding=(1, 1), groups=17, bias=False)
        (bn2): BatchNorm2d(0.001 GMac, 0.008% MACs, 408, eps=1e-05, momentum=0.1, affine=True, track_running_stats=True)
        (conv3): Conv2d(0.17 GMac, 1.627% MACs, 408, 408, kernel_size=(1, 1), stride=(1, 1), bias=False)
        (bn3): BatchNorm2d(0.001 GMac, 0.008% MACs, 408, eps=1e-05, momentum=0.1, affine=True, track_running_stats=True)
        (relu1): ReLU(0.0 GMac, 0.004% MACs, inplace=True)
        (relu2): ReLU(0.0 GMac, 0.004% MACs, inplace=True)
        (relu3): ReLU(0.0 GMac, 0.004% MACs, inplace=True)
        (add): AddBlock(inplace=False, signed=True)
      )
      (8): Bottleneck(
        0.435 GMac, 4.151% MACs, 
        (conv1): Conv2d(0.17 GMac, 1.627% MACs, 408, 408, kernel_size=(1, 1), stride=(1, 1), bias=False)
        (bn1): BatchNorm2d(0.001 GMac, 0.008% MACs, 408, eps=1e-05, momentum=0.1, affine=True, track_running_stats=True)
        (conv2): Conv2d(0.09 GMac, 0.861% MACs, 408, 408, kernel_size=(3, 3), stride=(1, 1), padding=(1, 1), groups=17, bias=False)
        (bn2): BatchNorm2d(0.001 GMac, 0.008% MACs, 408, eps=1e-05, momentum=0.1, affine=True, track_running_stats=True)
        (conv3): Conv2d(0.17 GMac, 1.627% MACs, 408, 408, kernel_size=(1, 1), stride=(1, 1), bias=False)
        (bn3): BatchNorm2d(0.001 GMac, 0.008% MACs, 408, eps=1e-05, momentum=0.1, affine=True, track_running_stats=True)
        (relu1): ReLU(0.0 GMac, 0.004% MACs, inplace=True)
        (relu2): ReLU(0.0 GMac, 0.004% MACs, inplace=True)
        (relu3): ReLU(0.0 GMac, 0.004% MACs, inplace=True)
        (add): AddBlock(inplace=False, signed=True)
      )
      (9): Bottleneck(
        0.435 GMac, 4.151% MACs, 
        (conv1): Conv2d(0.17 GMac, 1.627% MACs, 408, 408, kernel_size=(1, 1), stride=(1, 1), bias=False)
        (bn1): BatchNorm2d(0.001 GMac, 0.008% MACs, 408, eps=1e-05, momentum=0.1, affine=True, track_running_stats=True)
        (conv2): Conv2d(0.09 GMac, 0.861% MACs, 408, 408, kernel_size=(3, 3), stride=(1, 1), padding=(1, 1), groups=17, bias=False)
        (bn2): BatchNorm2d(0.001 GMac, 0.008% MACs, 408, eps=1e-05, momentum=0.1, affine=True, track_running_stats=True)
        (conv3): Conv2d(0.17 GMac, 1.627% MACs, 408, 408, kernel_size=(1, 1), stride=(1, 1), bias=False)
        (bn3): BatchNorm2d(0.001 GMac, 0.008% MACs, 408, eps=1e-05, momentum=0.1, affine=True, track_running_stats=True)
        (relu1): ReLU(0.0 GMac, 0.004% MACs, inplace=True)
        (relu2): ReLU(0.0 GMac, 0.004% MACs, inplace=True)
        (relu3): ReLU(0.0 GMac, 0.004% MACs, inplace=True)
        (add): AddBlock(inplace=False, signed=True)
      )
    )
    (layer4): ResLayer(
      1.223 GMac, 11.669% MACs, 
      (0): Bottleneck(
        0.744 GMac, 7.104% MACs, 
        (conv1): Conv2d(0.381 GMac, 3.636% MACs, 408, 912, kernel_size=(1, 1), stride=(1, 1), bias=False)
        (bn1): BatchNorm2d(0.002 GMac, 0.018% MACs, 912, eps=1e-05, momentum=0.1, affine=True, track_running_stats=True)
        (conv2): Conv2d(0.05 GMac, 0.481% MACs, 912, 912, kernel_size=(3, 3), stride=(2, 2), padding=(1, 1), groups=38, bias=False)
        (bn2): BatchNorm2d(0.0 GMac, 0.004% MACs, 912, eps=1e-05, momentum=0.1, affine=True, track_running_stats=True)
        (conv3): Conv2d(0.213 GMac, 2.032% MACs, 912, 912, kernel_size=(1, 1), stride=(1, 1), bias=False)
        (bn3): BatchNorm2d(0.0 GMac, 0.004% MACs, 912, eps=1e-05, momentum=0.1, affine=True, track_running_stats=True)
        (relu1): ReLU(0.001 GMac, 0.009% MACs, inplace=True)
        (relu2): ReLU(0.0 GMac, 0.002% MACs, inplace=True)
        (relu3): ReLU(0.0 GMac, 0.002% MACs, inplace=True)
        (downsample): Sequential(
          0.096 GMac, 0.914% MACs, 
          (0): Conv2d(0.095 GMac, 0.909% MACs, 408, 912, kernel_size=(1, 1), stride=(2, 2), bias=False)
          (1): BatchNorm2d(0.0 GMac, 0.004% MACs, 912, eps=1e-05, momentum=0.1, affine=True, track_running_stats=True)
        )
        (add): AddBlock(inplace=False, signed=True)
      )
      (1): Bottleneck(
        0.478 GMac, 4.566% MACs, 
        (conv1): Conv2d(0.213 GMac, 2.032% MACs, 912, 912, kernel_size=(1, 1), stride=(1, 1), bias=False)
        (bn1): BatchNorm2d(0.0 GMac, 0.004% MACs, 912, eps=1e-05, momentum=0.1, affine=True, track_running_stats=True)
        (conv2): Conv2d(0.05 GMac, 0.481% MACs, 912, 912, kernel_size=(3, 3), stride=(1, 1), padding=(1, 1), groups=38, bias=False)
        (bn2): BatchNorm2d(0.0 GMac, 0.004% MACs, 912, eps=1e-05, momentum=0.1, affine=True, track_running_stats=True)
        (conv3): Conv2d(0.213 GMac, 2.032% MACs, 912, 912, kernel_size=(1, 1), stride=(1, 1), bias=False)
        (bn3): BatchNorm2d(0.0 GMac, 0.004% MACs, 912, eps=1e-05, momentum=0.1, affine=True, track_running_stats=True)
        (relu1): ReLU(0.0 GMac, 0.002% MACs, inplace=True)
        (relu2): ReLU(0.0 GMac, 0.002% MACs, inplace=True)
        (relu3): ReLU(0.0 GMac, 0.002% MACs, inplace=True)
        (add): AddBlock(inplace=False, signed=True)
      )
    )
  )
  (neck): YOLOV3LiteNeck(
    1.3 GMac, 12.404% MACs, 
    (detect1): DetectionLiteBlock(
      0.484 GMac, 4.620% MACs, 
      (conv1): ConvNormAct2d(
        0.096 GMac, 0.912% MACs, 
        (0): Conv2d(0.095 GMac, 0.909% MACs, 912, 408, kernel_size=(1, 1), stride=(1, 1), bias=False)
        (1): BatchNorm2d(0.0 GMac, 0.002% MACs, 408, eps=1e-05, momentum=0.1, affine=True, track_running_stats=True)
        (2): ReLU(0.0 GMac, 0.001% MACs, )
      )
      (conv2): ConvDWSep2d(
        0.109 GMac, 1.038% MACs, 
        (0): Sequential(
          0.023 GMac, 0.218% MACs, 
          (0): Conv2d(0.023 GMac, 0.215% MACs, 408, 408, kernel_size=(3, 3), stride=(1, 1), padding=(1, 1), groups=17, bias=False)
          (1): BatchNorm2d(0.0 GMac, 0.002% MACs, 408, eps=1e-05, momentum=0.1, affine=True, track_running_stats=True)
          (2): ReLU(0.0 GMac, 0.001% MACs, )
        )
        (1): Sequential(
          0.086 GMac, 0.819% MACs, 
          (0): Conv2d(0.085 GMac, 0.813% MACs, 408, 816, kernel_size=(1, 1), stride=(1, 1), bias=False)
          (1): BatchNorm2d(0.0 GMac, 0.004% MACs, 816, eps=1e-05, momentum=0.1, affine=True, track_running_stats=True)
          (2): ReLU(0.0 GMac, 0.002% MACs, )
        )
      )
      (conv3): ConvNormAct2d(
        0.086 GMac, 0.816% MACs, 
        (0): Conv2d(0.085 GMac, 0.813% MACs, 816, 408, kernel_size=(1, 1), stride=(1, 1), bias=False)
        (1): BatchNorm2d(0.0 GMac, 0.002% MACs, 408, eps=1e-05, momentum=0.1, affine=True, track_running_stats=True)
        (2): ReLU(0.0 GMac, 0.001% MACs, )
      )
      (conv4): ConvDWSep2d(
        0.109 GMac, 1.038% MACs, 
        (0): Sequential(
          0.023 GMac, 0.218% MACs, 
          (0): Conv2d(0.023 GMac, 0.215% MACs, 408, 408, kernel_size=(3, 3), stride=(1, 1), padding=(1, 1), groups=17, bias=False)
          (1): BatchNorm2d(0.0 GMac, 0.002% MACs, 408, eps=1e-05, momentum=0.1, affine=True, track_running_stats=True)
          (2): ReLU(0.0 GMac, 0.001% MACs, )
        )
        (1): Sequential(
          0.086 GMac, 0.819% MACs, 
          (0): Conv2d(0.085 GMac, 0.813% MACs, 408, 816, kernel_size=(1, 1), stride=(1, 1), bias=False)
          (1): BatchNorm2d(0.0 GMac, 0.004% MACs, 816, eps=1e-05, momentum=0.1, affine=True, track_running_stats=True)
          (2): ReLU(0.0 GMac, 0.002% MACs, )
        )
      )
      (conv5): ConvNormAct2d(
        0.086 GMac, 0.816% MACs, 
        (0): Conv2d(0.085 GMac, 0.813% MACs, 816, 408, kernel_size=(1, 1), stride=(1, 1), bias=False)
        (1): BatchNorm2d(0.0 GMac, 0.002% MACs, 408, eps=1e-05, momentum=0.1, affine=True, track_running_stats=True)
        (2): ReLU(0.0 GMac, 0.001% MACs, )
      )
    )
    (conv1): ConvNormAct2d(
      0.018 GMac, 0.169% MACs, 
      (0): Conv2d(0.018 GMac, 0.167% MACs, 408, 168, kernel_size=(1, 1), stride=(1, 1), bias=False)
      (1): BatchNorm2d(0.0 GMac, 0.001% MACs, 168, eps=1e-05, momentum=0.1, affine=True, track_running_stats=True)
      (2): ReLU(0.0 GMac, 0.000% MACs, )
    )
    (detect2): DetectionLiteBlock(
      0.409 GMac, 3.906% MACs, 
      (conv1): ConvNormAct2d(
        0.1 GMac, 0.951% MACs, 
        (0): Conv2d(0.099 GMac, 0.946% MACs, 576, 168, kernel_size=(1, 1), stride=(1, 1), bias=False)
        (1): BatchNorm2d(0.0 GMac, 0.003% MACs, 168, eps=1e-05, momentum=0.1, affine=True, track_running_stats=True)
        (2): ReLU(0.0 GMac, 0.002% MACs, )
      )
      (conv2): ConvDWSep2d(
        0.097 GMac, 0.921% MACs, 
        (0): Sequential(
          0.038 GMac, 0.360% MACs, 
          (0): Conv2d(0.037 GMac, 0.355% MACs, 168, 168, kernel_size=(3, 3), stride=(1, 1), padding=(1, 1), groups=7, bias=False)
          (1): BatchNorm2d(0.0 GMac, 0.003% MACs, 168, eps=1e-05, momentum=0.1, affine=True, track_running_stats=True)
          (2): ReLU(0.0 GMac, 0.002% MACs, )
        )
        (1): Sequential(
          0.059 GMac, 0.562% MACs, 
          (0): Conv2d(0.058 GMac, 0.552% MACs, 168, 336, kernel_size=(1, 1), stride=(1, 1), bias=False)
          (1): BatchNorm2d(0.001 GMac, 0.007% MACs, 336, eps=1e-05, momentum=0.1, affine=True, track_running_stats=True)
          (2): ReLU(0.0 GMac, 0.003% MACs, )
        )
      )
      (conv3): ConvNormAct2d(
        0.058 GMac, 0.557% MACs, 
        (0): Conv2d(0.058 GMac, 0.552% MACs, 336, 168, kernel_size=(1, 1), stride=(1, 1), bias=False)
        (1): BatchNorm2d(0.0 GMac, 0.003% MACs, 168, eps=1e-05, momentum=0.1, affine=True, track_running_stats=True)
        (2): ReLU(0.0 GMac, 0.002% MACs, )
      )
      (conv4): ConvDWSep2d(
        0.097 GMac, 0.921% MACs, 
        (0): Sequential(
          0.038 GMac, 0.360% MACs, 
          (0): Conv2d(0.037 GMac, 0.355% MACs, 168, 168, kernel_size=(3, 3), stride=(1, 1), padding=(1, 1), groups=7, bias=False)
          (1): BatchNorm2d(0.0 GMac, 0.003% MACs, 168, eps=1e-05, momentum=0.1, affine=True, track_running_stats=True)
          (2): ReLU(0.0 GMac, 0.002% MACs, )
        )
        (1): Sequential(
          0.059 GMac, 0.562% MACs, 
          (0): Conv2d(0.058 GMac, 0.552% MACs, 168, 336, kernel_size=(1, 1), stride=(1, 1), bias=False)
          (1): BatchNorm2d(0.001 GMac, 0.007% MACs, 336, eps=1e-05, momentum=0.1, affine=True, track_running_stats=True)
          (2): ReLU(0.0 GMac, 0.003% MACs, )
        )
      )
      (conv5): ConvNormAct2d(
        0.058 GMac, 0.557% MACs, 
        (0): Conv2d(0.058 GMac, 0.552% MACs, 336, 168, kernel_size=(1, 1), stride=(1, 1), bias=False)
        (1): BatchNorm2d(0.0 GMac, 0.003% MACs, 168, eps=1e-05, momentum=0.1, affine=True, track_running_stats=True)
        (2): ReLU(0.0 GMac, 0.002% MACs, )
      )
    )
    (conv2): ConvNormAct2d(
      0.013 GMac, 0.120% MACs, 
      (0): Conv2d(0.012 GMac, 0.118% MACs, 168, 72, kernel_size=(1, 1), stride=(1, 1), bias=False)
      (1): BatchNorm2d(0.0 GMac, 0.001% MACs, 72, eps=1e-05, momentum=0.1, affine=True, track_running_stats=True)
      (2): ReLU(0.0 GMac, 0.001% MACs, )
    )
    (detect3): DetectionLiteBlock(
      0.376 GMac, 3.589% MACs, 
      (conv1): ConvNormAct2d(
        0.072 GMac, 0.684% MACs, 
        (0): Conv2d(0.071 GMac, 0.676% MACs, 240, 72, kernel_size=(1, 1), stride=(1, 1), bias=False)
        (1): BatchNorm2d(0.001 GMac, 0.006% MACs, 72, eps=1e-05, momentum=0.1, affine=True, track_running_stats=True)
        (2): ReLU(0.0 GMac, 0.003% MACs, )
      )
      (conv2): ConvDWSep2d(
        0.109 GMac, 1.039% MACs, 
        (0): Sequential(
          0.065 GMac, 0.616% MACs, 
          (0): Conv2d(0.064 GMac, 0.608% MACs, 72, 72, kernel_size=(3, 3), stride=(1, 1), padding=(1, 1), groups=3, bias=False)
          (1): BatchNorm2d(0.001 GMac, 0.006% MACs, 72, eps=1e-05, momentum=0.1, affine=True, track_running_stats=True)
          (2): ReLU(0.0 GMac, 0.003% MACs, )
        )
        (1): Sequential(
          0.044 GMac, 0.422% MACs, 
          (0): Conv2d(0.042 GMac, 0.405% MACs, 72, 144, kernel_size=(1, 1), stride=(1, 1), bias=False)
          (1): BatchNorm2d(0.001 GMac, 0.011% MACs, 144, eps=1e-05, momentum=0.1, affine=True, track_running_stats=True)
          (2): ReLU(0.001 GMac, 0.006% MACs, )
        )
      )
      (conv3): ConvNormAct2d(
        0.043 GMac, 0.414% MACs, 
        (0): Conv2d(0.042 GMac, 0.405% MACs, 144, 72, kernel_size=(1, 1), stride=(1, 1), bias=False)
        (1): BatchNorm2d(0.001 GMac, 0.006% MACs, 72, eps=1e-05, momentum=0.1, affine=True, track_running_stats=True)
        (2): ReLU(0.0 GMac, 0.003% MACs, )
      )
      (conv4): ConvDWSep2d(
        0.109 GMac, 1.039% MACs, 
        (0): Sequential(
          0.065 GMac, 0.616% MACs, 
          (0): Conv2d(0.064 GMac, 0.608% MACs, 72, 72, kernel_size=(3, 3), stride=(1, 1), padding=(1, 1), groups=3, bias=False)
          (1): BatchNorm2d(0.001 GMac, 0.006% MACs, 72, eps=1e-05, momentum=0.1, affine=True, track_running_stats=True)
          (2): ReLU(0.0 GMac, 0.003% MACs, )
        )
        (1): Sequential(
          0.044 GMac, 0.422% MACs, 
          (0): Conv2d(0.042 GMac, 0.405% MACs, 72, 144, kernel_size=(1, 1), stride=(1, 1), bias=False)
          (1): BatchNorm2d(0.001 GMac, 0.011% MACs, 144, eps=1e-05, momentum=0.1, affine=True, track_running_stats=True)
          (2): ReLU(0.001 GMac, 0.006% MACs, )
        )
      )
      (conv5): ConvNormAct2d(
        0.043 GMac, 0.414% MACs, 
        (0): Conv2d(0.042 GMac, 0.405% MACs, 144, 72, kernel_size=(1, 1), stride=(1, 1), bias=False)
        (1): BatchNorm2d(0.001 GMac, 0.006% MACs, 72, eps=1e-05, momentum=0.1, affine=True, track_running_stats=True)
        (2): ReLU(0.0 GMac, 0.003% MACs, )
      )
    )
  )
  (bbox_head): YOLOV3LiteHead(
    0.687 GMac, 6.557% MACs, 
    (loss_cls): CrossEntropyLoss(0.0 GMac, 0.000% MACs, )
    (loss_conf): CrossEntropyLoss(0.0 GMac, 0.000% MACs, )
    (loss_xy): CrossEntropyLoss(0.0 GMac, 0.000% MACs, )
    (loss_wh): MSELoss(0.0 GMac, 0.000% MACs, )
    (convs_bridge): ModuleList(
      0.344 GMac, 3.284% MACs, 
      (0): ConvDWSep2d(
        0.119 GMac, 1.134% MACs, 
        (0): Sequential(
          0.023 GMac, 0.218% MACs, 
          (0): Conv2d(0.023 GMac, 0.215% MACs, 408, 408, kernel_size=(3, 3), stride=(1, 1), padding=(1, 1), groups=17, bias=False)
          (1): BatchNorm2d(0.0 GMac, 0.002% MACs, 408, eps=1e-05, momentum=0.1, affine=True, track_running_stats=True)
          (2): ReLU(0.0 GMac, 0.001% MACs, )
        )
        (1): Sequential(
          0.096 GMac, 0.916% MACs, 
          (0): Conv2d(0.095 GMac, 0.909% MACs, 408, 912, kernel_size=(1, 1), stride=(1, 1), bias=False)
          (1): BatchNorm2d(0.0 GMac, 0.004% MACs, 912, eps=1e-05, momentum=0.1, affine=True, track_running_stats=True)
          (2): ReLU(0.0 GMac, 0.002% MACs, )
        )
      )
      (1): ConvDWSep2d(
        0.109 GMac, 1.041% MACs, 
        (0): Sequential(
          0.038 GMac, 0.360% MACs, 
          (0): Conv2d(0.037 GMac, 0.355% MACs, 168, 168, kernel_size=(3, 3), stride=(1, 1), padding=(1, 1), groups=7, bias=False)
          (1): BatchNorm2d(0.0 GMac, 0.003% MACs, 168, eps=1e-05, momentum=0.1, affine=True, track_running_stats=True)
          (2): ReLU(0.0 GMac, 0.002% MACs, )
        )
        (1): Sequential(
          0.071 GMac, 0.682% MACs, 
          (0): Conv2d(0.07 GMac, 0.670% MACs, 168, 408, kernel_size=(1, 1), stride=(1, 1), bias=False)
          (1): BatchNorm2d(0.001 GMac, 0.008% MACs, 408, eps=1e-05, momentum=0.1, affine=True, track_running_stats=True)
          (2): ReLU(0.0 GMac, 0.004% MACs, )
        )
      )
      (2): ConvDWSep2d(
        0.116 GMac, 1.109% MACs, 
        (0): Sequential(
          0.065 GMac, 0.616% MACs, 
          (0): Conv2d(0.064 GMac, 0.608% MACs, 72, 72, kernel_size=(3, 3), stride=(1, 1), padding=(1, 1), groups=3, bias=False)
          (1): BatchNorm2d(0.001 GMac, 0.006% MACs, 72, eps=1e-05, momentum=0.1, affine=True, track_running_stats=True)
          (2): ReLU(0.0 GMac, 0.003% MACs, )
        )
        (1): Sequential(
          0.052 GMac, 0.493% MACs, 
          (0): Conv2d(0.05 GMac, 0.473% MACs, 72, 168, kernel_size=(1, 1), stride=(1, 1), bias=False)
          (1): BatchNorm2d(0.001 GMac, 0.013% MACs, 168, eps=1e-05, momentum=0.1, affine=True, track_running_stats=True)
          (2): ReLU(0.001 GMac, 0.007% MACs, )
        )
      )
    )
    (convs_pred): ModuleList(
      0.343 GMac, 3.273% MACs, 
      (0): Conv2d(0.06 GMac, 0.569% MACs, 912, 255, kernel_size=(1, 1), stride=(1, 1))
      (1): Conv2d(0.107 GMac, 1.019% MACs, 408, 255, kernel_size=(1, 1), stride=(1, 1))
      (2): Conv2d(0.177 GMac, 1.685% MACs, 168, 255, kernel_size=(1, 1), stride=(1, 1))
    )
  )
)
2021-02-02 13:10:04,895 - mmdet - INFO - 

2021-02-02 13:10:04,901 - mmdet - INFO - Compute   : 10.48 GMac
2021-02-02 13:10:04,901 - mmdet - INFO - Parameters: 11.71 M
2021-02-02 13:10:21,416 - mmdet - INFO - Start running, host: a0393608@uda0393608, work_dir: /data/files/a0393608/files/work/ti/bitbucket/jacinto-ai/pytorch-mmdetection/work_dirs/yolov3-lite_regnet_bgr
…
