…
                mean=[0, 0, 0],
                std=[255.0, 255.0, 255.0],
                to_rgb=True),
            dict(type='Pad', size_divisor=32),
            dict(type='ImageToTensor', keys=['img']),
            dict(type='Collect', keys=['img'])
        ])
]
work_dir = './work_dirs/yolov3_d53_relu'
gpu_ids = range(0, 4)

2021-01-17 00:41:21,594 - mmdet - INFO - load model from: open-mmlab://darknet53
2021-01-17 00:41:24,036 - mmdet - INFO - YOLOV3(
  33.048 GMac, 100.000% MACs, 
  (backbone): Darknet(
    24.614 GMac, 74.480% MACs, 
    (conv1): ConvModule(
      0.166 GMac, 0.503% MACs, 
      (conv): Conv2d(0.15 GMac, 0.452% MACs, 3, 32, kernel_size=(3, 3), stride=(1, 1), padding=(1, 1), bias=False)
      (bn): BatchNorm2d(0.011 GMac, 0.034% MACs, 32, eps=1e-05, momentum=0.1, affine=True, track_running_stats=True)
      (activate): ReLU(0.006 GMac, 0.017% MACs, inplace=True)
    )
    (conv_res_block1): Sequential(
      1.704 GMac, 5.157% MACs, 
      (conv): ConvModule(
        0.806 GMac, 2.438% MACs, 
        (conv): Conv2d(0.797 GMac, 2.413% MACs, 32, 64, kernel_size=(3, 3), stride=(2, 2), padding=(1, 1), bias=False)
        (bn): BatchNorm2d(0.006 GMac, 0.017% MACs, 64, eps=1e-05, momentum=0.1, affine=True, track_running_stats=True)
        (activate): ReLU(0.003 GMac, 0.008% MACs, inplace=True)
      )
      (res0): ResBlock(
        0.899 GMac, 2.719% MACs, 
        (conv1): ConvModule(
          0.093 GMac, 0.281% MACs, 
          (conv): Conv2d(0.089 GMac, 0.268% MACs, 64, 32, kernel_size=(1, 1), stride=(1, 1), bias=False)
          (bn): BatchNorm2d(0.003 GMac, 0.008% MACs, 32, eps=1e-05, momentum=0.1, affine=True, track_running_stats=True)
          (activate): ReLU(0.001 GMac, 0.004% MACs, inplace=True)
        )
        (conv2): ConvModule(
          0.806 GMac, 2.438% MACs, 
          (conv): Conv2d(0.797 GMac, 2.413% MACs, 32, 64, kernel_size=(3, 3), stride=(1, 1), padding=(1, 1), bias=False)
          (bn): BatchNorm2d(0.006 GMac, 0.017% MACs, 64, eps=1e-05, momentum=0.1, affine=True, track_running_stats=True)
          (activate): ReLU(0.003 GMac, 0.008% MACs, inplace=True)
        )
      )
    )
    (conv_res_block2): Sequential(
      2.586 GMac, 7.825% MACs, 
      (conv): ConvModule(
        0.802 GMac, 2.426% MACs, 
        (conv): Conv2d(0.797 GMac, 2.413% MACs, 64, 128, kernel_size=(3, 3), stride=(2, 2), padding=(1, 1), bias=False)
        (bn): BatchNorm2d(0.003 GMac, 0.008% MACs, 128, eps=1e-05, momentum=0.1, affine=True, track_running_stats=True)
        (activate): ReLU(0.001 GMac, 0.004% MACs, inplace=True)
      )
      (res0): ResBlock(
        0.892 GMac, 2.700% MACs, 
        (conv1): ConvModule(
          0.091 GMac, 0.274% MACs, 
          (conv): Conv2d(0.089 GMac, 0.268% MACs, 128, 64, kernel_size=(1, 1), stride=(1, 1), bias=False)
          (bn): BatchNorm2d(0.001 GMac, 0.004% MACs, 64, eps=1e-05, momentum=0.1, affine=True, track_running_stats=True)
          (activate): ReLU(0.001 GMac, 0.002% MACs, inplace=True)
        )
        (conv2): ConvModule(
          0.802 GMac, 2.426% MACs, 
          (conv): Conv2d(0.797 GMac, 2.413% MACs, 64, 128, kernel_size=(3, 3), stride=(1, 1), padding=(1, 1), bias=False)
          (bn): BatchNorm2d(0.003 GMac, 0.008% MACs, 128, eps=1e-05, momentum=0.1, affine=True, track_running_stats=True)
          (activate): ReLU(0.001 GMac, 0.004% MACs, inplace=True)
        )
      )
      (res1): ResBlock(
        0.892 GMac, 2.700% MACs, 
        (conv1): ConvModule(
          0.091 GMac, 0.274% MACs, 
          (conv): Conv2d(0.089 GMac, 0.268% MACs, 128, 64, kernel_size=(1, 1), stride=(1, 1), bias=False)
          (bn): BatchNorm2d(0.001 GMac, 0.004% MACs, 64, eps=1e-05, momentum=0.1, affine=True, track_running_stats=True)
          (activate): ReLU(0.001 GMac, 0.002% MACs, inplace=True)
        )
        (conv2): ConvModule(
          0.802 GMac, 2.426% MACs, 
          (conv): Conv2d(0.797 GMac, 2.413% MACs, 64, 128, kernel_size=(3, 3), stride=(1, 1), padding=(1, 1), bias=False)
          (bn): BatchNorm2d(0.003 GMac, 0.008% MACs, 128, eps=1e-05, momentum=0.1, affine=True, track_running_stats=True)
          (activate): ReLU(0.001 GMac, 0.004% MACs, inplace=True)
        )
      )
    )
    (conv_res_block3): Sequential(
      7.913 GMac, 23.944% MACs, 
      (conv): ConvModule(
        0.8 GMac, 2.419% MACs, 
        (conv): Conv2d(0.797 GMac, 2.413% MACs, 128, 256, kernel_size=(3, 3), stride=(2, 2), padding=(1, 1), bias=False)
        (bn): BatchNorm2d(0.001 GMac, 0.004% MACs, 256, eps=1e-05, momentum=0.1, affine=True, track_running_stats=True)
        (activate): ReLU(0.001 GMac, 0.002% MACs, inplace=True)
      )
      (res0): ResBlock(
        0.889 GMac, 2.691% MACs, 
        (conv1): ConvModule(
          0.09 GMac, 0.271% MACs, 
          (conv): Conv2d(0.089 GMac, 0.268% MACs, 256, 128, kernel_size=(1, 1), stride=(1, 1), bias=False)
          (bn): BatchNorm2d(0.001 GMac, 0.002% MACs, 128, eps=1e-05, momentum=0.1, affine=True, track_running_stats=True)
          (activate): ReLU(0.0 GMac, 0.001% MACs, inplace=True)
        )
        (conv2): ConvModule(
          0.8 GMac, 2.419% MACs, 
          (conv): Conv2d(0.797 GMac, 2.413% MACs, 128, 256, kernel_size=(3, 3), stride=(1, 1), padding=(1, 1), bias=False)
          (bn): BatchNorm2d(0.001 GMac, 0.004% MACs, 256, eps=1e-05, momentum=0.1, affine=True, track_running_stats=True)
          (activate): ReLU(0.001 GMac, 0.002% MACs, inplace=True)
        )
      )
      (res1): ResBlock(
        0.889 GMac, 2.691% MACs, 
        (conv1): ConvModule(
          0.09 GMac, 0.271% MACs, 
          (conv): Conv2d(0.089 GMac, 0.268% MACs, 256, 128, kernel_size=(1, 1), stride=(1, 1), bias=False)
          (bn): BatchNorm2d(0.001 GMac, 0.002% MACs, 128, eps=1e-05, momentum=0.1, affine=True, track_running_stats=True)
          (activate): ReLU(0.0 GMac, 0.001% MACs, inplace=True)
        )
        (conv2): ConvModule(
          0.8 GMac, 2.419% MACs, 
          (conv): Conv2d(0.797 GMac, 2.413% MACs, 128, 256, kernel_size=(3, 3), stride=(1, 1), padding=(1, 1), bias=False)
          (bn): BatchNorm2d(0.001 GMac, 0.004% MACs, 256, eps=1e-05, momentum=0.1, affine=True, track_running_stats=True)
          (activate): ReLU(0.001 GMac, 0.002% MACs, inplace=True)
        )
      )
      (res2): ResBlock(
        0.889 GMac, 2.691% MACs, 
        (conv1): ConvModule(
          0.09 GMac, 0.271% MACs, 
          (conv): Conv2d(0.089 GMac, 0.268% MACs, 256, 128, kernel_size=(1, 1), stride=(1, 1), bias=False)
          (bn): BatchNorm2d(0.001 GMac, 0.002% MACs, 128, eps=1e-05, momentum=0.1, affine=True, track_running_stats=True)
          (activate): ReLU(0.0 GMac, 0.001% MACs, inplace=True)
        )
        (conv2): ConvModule(
          0.8 GMac, 2.419% MACs, 
          (conv): Conv2d(0.797 GMac, 2.413% MACs, 128, 256, kernel_size=(3, 3), stride=(1, 1), padding=(1, 1), bias=False)
          (bn): BatchNorm2d(0.001 GMac, 0.004% MACs, 256, eps=1e-05, momentum=0.1, affine=True, track_running_stats=True)
          (activate): ReLU(0.001 GMac, 0.002% MACs, inplace=True)
        )
      )
      (res3): ResBlock(
        0.889 GMac, 2.691% MACs, 
        (conv1): ConvModule(
          0.09 GMac, 0.271% MACs, 
          (conv): Conv2d(0.089 GMac, 0.268% MACs, 256, 128, kernel_size=(1, 1), stride=(1, 1), bias=False)
          (bn): BatchNorm2d(0.001 GMac, 0.002% MACs, 128, eps=1e-05, momentum=0.1, affine=True, track_running_stats=True)
          (activate): ReLU(0.0 GMac, 0.001% MACs, inplace=True)
        )
        (conv2): ConvModule(
          0.8 GMac, 2.419% MACs, 
          (conv): Conv2d(0.797 GMac, 2.413% MACs, 128, 256, kernel_size=(3, 3), stride=(1, 1), padding=(1, 1), bias=False)
          (bn): BatchNorm2d(0.001 GMac, 0.004% MACs, 256, eps=1e-05, momentum=0.1, affine=True, track_running_stats=True)
          (activate): ReLU(0.001 GMac, 0.002% MACs, inplace=True)
        )
      )
      (res4): ResBlock(
        0.889 GMac, 2.691% MACs, 
        (conv1): ConvModule(
          0.09 GMac, 0.271% MACs, 
          (conv): Conv2d(0.089 GMac, 0.268% MACs, 256, 128, kernel_size=(1, 1), stride=(1, 1), bias=False)
          (bn): BatchNorm2d(0.001 GMac, 0.002% MACs, 128, eps=1e-05, momentum=0.1, affine=True, track_running_stats=True)
          (activate): ReLU(0.0 GMac, 0.001% MACs, inplace=True)
        )
        (conv2): ConvModule(
          0.8 GMac, 2.419% MACs, 
          (conv): Conv2d(0.797 GMac, 2.413% MACs, 128, 256, kernel_size=(3, 3), stride=(1, 1), padding=(1, 1), bias=False)
          (bn): BatchNorm2d(0.001 GMac, 0.004% MACs, 256, eps=1e-05, momentum=0.1, affine=True, track_running_stats=True)
          (activate): ReLU(0.001 GMac, 0.002% MACs, inplace=True)
        )
      )
      (res5): ResBlock(
        0.889 GMac, 2.691% MACs, 
        (conv1): ConvModule(
          0.09 GMac, 0.271% MACs, 
          (conv): Conv2d(0.089 GMac, 0.268% MACs, 256, 128, kernel_size=(1, 1), stride=(1, 1), bias=False)
          (bn): BatchNorm2d(0.001 GMac, 0.002% MACs, 128, eps=1e-05, momentum=0.1, affine=True, track_running_stats=True)
          (activate): ReLU(0.0 GMac, 0.001% MACs, inplace=True)
        )
        (conv2): ConvModule(
          0.8 GMac, 2.419% MACs, 
          (conv): Conv2d(0.797 GMac, 2.413% MACs, 128, 256, kernel_size=(3, 3), stride=(1, 1), padding=(1, 1), bias=False)
          (bn): BatchNorm2d(0.001 GMac, 0.004% MACs, 256, eps=1e-05, momentum=0.1, affine=True, track_running_stats=True)
          (activate): ReLU(0.001 GMac, 0.002% MACs, inplace=True)
        )
      )
      (res6): ResBlock(
        0.889 GMac, 2.691% MACs, 
        (conv1): ConvModule(
          0.09 GMac, 0.271% MACs, 
          (conv): Conv2d(0.089 GMac, 0.268% MACs, 256, 128, kernel_size=(1, 1), stride=(1, 1), bias=False)
          (bn): BatchNorm2d(0.001 GMac, 0.002% MACs, 128, eps=1e-05, momentum=0.1, affine=True, track_running_stats=True)
          (activate): ReLU(0.0 GMac, 0.001% MACs, inplace=True)
        )
        (conv2): ConvModule(
          0.8 GMac, 2.419% MACs, 
          (conv): Conv2d(0.797 GMac, 2.413% MACs, 128, 256, kernel_size=(3, 3), stride=(1, 1), padding=(1, 1), bias=False)
          (bn): BatchNorm2d(0.001 GMac, 0.004% MACs, 256, eps=1e-05, momentum=0.1, affine=True, track_running_stats=True)
          (activate): ReLU(0.001 GMac, 0.002% MACs, inplace=True)
        )
      )
      (res7): ResBlock(
        0.889 GMac, 2.691% MACs, 
        (conv1): ConvModule(
          0.09 GMac, 0.271% MACs, 
          (conv): Conv2d(0.089 GMac, 0.268% MACs, 256, 128, kernel_size=(1, 1), stride=(1, 1), bias=False)
          (bn): BatchNorm2d(0.001 GMac, 0.002% MACs, 128, eps=1e-05, momentum=0.1, affine=True, track_running_stats=True)
          (activate): ReLU(0.0 GMac, 0.001% MACs, inplace=True)
        )
        (conv2): ConvModule(
          0.8 GMac, 2.419% MACs, 
          (conv): Conv2d(0.797 GMac, 2.413% MACs, 128, 256, kernel_size=(3, 3), stride=(1, 1), padding=(1, 1), bias=False)
          (bn): BatchNorm2d(0.001 GMac, 0.004% MACs, 256, eps=1e-05, momentum=0.1, affine=True, track_running_stats=True)
          (activate): ReLU(0.001 GMac, 0.002% MACs, inplace=True)
        )
      )
    )
    (conv_res_block4): Sequential(
      7.899 GMac, 23.903% MACs, 
      (conv): ConvModule(
        0.798 GMac, 2.416% MACs, 
        (conv): Conv2d(0.797 GMac, 2.413% MACs, 256, 512, kernel_size=(3, 3), stride=(2, 2), padding=(1, 1), bias=False)
        (bn): BatchNorm2d(0.001 GMac, 0.002% MACs, 512, eps=1e-05, momentum=0.1, affine=True, track_running_stats=True)
        (activate): ReLU(0.0 GMac, 0.001% MACs, inplace=True)
      )
      (res0): ResBlock(
        0.888 GMac, 2.686% MACs, 
        (conv1): ConvModule(
          0.089 GMac, 0.270% MACs, 
          (conv): Conv2d(0.089 GMac, 0.268% MACs, 512, 256, kernel_size=(1, 1), stride=(1, 1), bias=False)
          (bn): BatchNorm2d(0.0 GMac, 0.001% MACs, 256, eps=1e-05, momentum=0.1, affine=True, track_running_stats=True)
          (activate): ReLU(0.0 GMac, 0.001% MACs, inplace=True)
        )
        (conv2): ConvModule(
          0.798 GMac, 2.416% MACs, 
          (conv): Conv2d(0.797 GMac, 2.413% MACs, 256, 512, kernel_size=(3, 3), stride=(1, 1), padding=(1, 1), bias=False)
          (bn): BatchNorm2d(0.001 GMac, 0.002% MACs, 512, eps=1e-05, momentum=0.1, affine=True, track_running_stats=True)
          (activate): ReLU(0.0 GMac, 0.001% MACs, inplace=True)
        )
      )
      (res1): ResBlock(
        0.888 GMac, 2.686% MACs, 
        (conv1): ConvModule(
          0.089 GMac, 0.270% MACs, 
          (conv): Conv2d(0.089 GMac, 0.268% MACs, 512, 256, kernel_size=(1, 1), stride=(1, 1), bias=False)
          (bn): BatchNorm2d(0.0 GMac, 0.001% MACs, 256, eps=1e-05, momentum=0.1, affine=True, track_running_stats=True)
          (activate): ReLU(0.0 GMac, 0.001% MACs, inplace=True)
        )
        (conv2): ConvModule(
          0.798 GMac, 2.416% MACs, 
          (conv): Conv2d(0.797 GMac, 2.413% MACs, 256, 512, kernel_size=(3, 3), stride=(1, 1), padding=(1, 1), bias=False)
          (bn): BatchNorm2d(0.001 GMac, 0.002% MACs, 512, eps=1e-05, momentum=0.1, affine=True, track_running_stats=True)
          (activate): ReLU(0.0 GMac, 0.001% MACs, inplace=True)
        )
      )
      (res2): ResBlock(
        0.888 GMac, 2.686% MACs, 
        (conv1): ConvModule(
          0.089 GMac, 0.270% MACs, 
          (conv): Conv2d(0.089 GMac, 0.268% MACs, 512, 256, kernel_size=(1, 1), stride=(1, 1), bias=False)
          (bn): BatchNorm2d(0.0 GMac, 0.001% MACs, 256, eps=1e-05, momentum=0.1, affine=True, track_running_stats=True)
          (activate): ReLU(0.0 GMac, 0.001% MACs, inplace=True)
        )
        (conv2): ConvModule(
          0.798 GMac, 2.416% MACs, 
          (conv): Conv2d(0.797 GMac, 2.413% MACs, 256, 512, kernel_size=(3, 3), stride=(1, 1), padding=(1, 1), bias=False)
          (bn): BatchNorm2d(0.001 GMac, 0.002% MACs, 512, eps=1e-05, momentum=0.1, affine=True, track_running_stats=True)
          (activate): ReLU(0.0 GMac, 0.001% MACs, inplace=True)
        )
      )
      (res3): ResBlock(
        0.888 GMac, 2.686% MACs, 
        (conv1): ConvModule(
          0.089 GMac, 0.270% MACs, 
          (conv): Conv2d(0.089 GMac, 0.268% MACs, 512, 256, kernel_size=(1, 1), stride=(1, 1), bias=False)
          (bn): BatchNorm2d(0.0 GMac, 0.001% MACs, 256, eps=1e-05, momentum=0.1, affine=True, track_running_stats=True)
          (activate): ReLU(0.0 GMac, 0.001% MACs, inplace=True)
        )
        (conv2): ConvModule(
          0.798 GMac, 2.416% MACs, 
          (conv): Conv2d(0.797 GMac, 2.413% MACs, 256, 512, kernel_size=(3, 3), stride=(1, 1), padding=(1, 1), bias=False)
          (bn): BatchNorm2d(0.001 GMac, 0.002% MACs, 512, eps=1e-05, momentum=0.1, affine=True, track_running_stats=True)
          (activate): ReLU(0.0 GMac, 0.001% MACs, inplace=True)
        )
      )
      (res4): ResBlock(
        0.888 GMac, 2.686% MACs, 
        (conv1): ConvModule(
          0.089 GMac, 0.270% MACs, 
          (conv): Conv2d(0.089 GMac, 0.268% MACs, 512, 256, kernel_size=(1, 1), stride=(1, 1), bias=False)
          (bn): BatchNorm2d(0.0 GMac, 0.001% MACs, 256, eps=1e-05, momentum=0.1, affine=True, track_running_stats=True)
          (activate): ReLU(0.0 GMac, 0.001% MACs, inplace=True)
        )
        (conv2): ConvModule(
          0.798 GMac, 2.416% MACs, 
          (conv): Conv2d(0.797 GMac, 2.413% MACs, 256, 512, kernel_size=(3, 3), stride=(1, 1), padding=(1, 1), bias=False)
          (bn): BatchNorm2d(0.001 GMac, 0.002% MACs, 512, eps=1e-05, momentum=0.1, affine=True, track_running_stats=True)
          (activate): ReLU(0.0 GMac, 0.001% MACs, inplace=True)
        )
      )
      (res5): ResBlock(
        0.888 GMac, 2.686% MACs, 
        (conv1): ConvModule(
          0.089 GMac, 0.270% MACs, 
          (conv): Conv2d(0.089 GMac, 0.268% MACs, 512, 256, kernel_size=(1, 1), stride=(1, 1), bias=False)
          (bn): BatchNorm2d(0.0 GMac, 0.001% MACs, 256, eps=1e-05, momentum=0.1, affine=True, track_running_stats=True)
          (activate): ReLU(0.0 GMac, 0.001% MACs, inplace=True)
        )
        (conv2): ConvModule(
          0.798 GMac, 2.416% MACs, 
          (conv): Conv2d(0.797 GMac, 2.413% MACs, 256, 512, kernel_size=(3, 3), stride=(1, 1), padding=(1, 1), bias=False)
          (bn): BatchNorm2d(0.001 GMac, 0.002% MACs, 512, eps=1e-05, momentum=0.1, affine=True, track_running_stats=True)
          (activate): ReLU(0.0 GMac, 0.001% MACs, inplace=True)
        )
      )
      (res6): ResBlock(
        0.888 GMac, 2.686% MACs, 
        (conv1): ConvModule(
          0.089 GMac, 0.270% MACs, 
          (conv): Conv2d(0.089 GMac, 0.268% MACs, 512, 256, kernel_size=(1, 1), stride=(1, 1), bias=False)
          (bn): BatchNorm2d(0.0 GMac, 0.001% MACs, 256, eps=1e-05, momentum=0.1, affine=True, track_running_stats=True)
          (activate): ReLU(0.0 GMac, 0.001% MACs, inplace=True)
        )
        (conv2): ConvModule(
          0.798 GMac, 2.416% MACs, 
          (conv): Conv2d(0.797 GMac, 2.413% MACs, 256, 512, kernel_size=(3, 3), stride=(1, 1), padding=(1, 1), bias=False)
          (bn): BatchNorm2d(0.001 GMac, 0.002% MACs, 512, eps=1e-05, momentum=0.1, affine=True, track_running_stats=True)
          (activate): ReLU(0.0 GMac, 0.001% MACs, inplace=True)
        )
      )
      (res7): ResBlock(
        0.888 GMac, 2.686% MACs, 
        (conv1): ConvModule(
          0.089 GMac, 0.270% MACs, 
          (conv): Conv2d(0.089 GMac, 0.268% MACs, 512, 256, kernel_size=(1, 1), stride=(1, 1), bias=False)
          (bn): BatchNorm2d(0.0 GMac, 0.001% MACs, 256, eps=1e-05, momentum=0.1, affine=True, track_running_stats=True)
          (activate): ReLU(0.0 GMac, 0.001% MACs, inplace=True)
        )
        (conv2): ConvModule(
          0.798 GMac, 2.416% MACs, 
          (conv): Conv2d(0.797 GMac, 2.413% MACs, 256, 512, kernel_size=(3, 3), stride=(1, 1), padding=(1, 1), bias=False)
          (bn): BatchNorm2d(0.001 GMac, 0.002% MACs, 512, eps=1e-05, momentum=0.1, affine=True, track_running_stats=True)
          (activate): ReLU(0.0 GMac, 0.001% MACs, inplace=True)
        )
      )
    )
    (conv_res_block5): Sequential(
      4.345 GMac, 13.148% MACs, 
      (conv): ConvModule(
        0.798 GMac, 2.415% MACs, 
        (conv): Conv2d(0.797 GMac, 2.413% MACs, 512, 1024, kernel_size=(3, 3), stride=(2, 2), padding=(1, 1), bias=False)
        (bn): BatchNorm2d(0.0 GMac, 0.001% MACs, 1024, eps=1e-05, momentum=0.1, affine=True, track_running_stats=True)
        (activate): ReLU(0.0 GMac, 0.001% MACs, inplace=True)
      )
      (res0): ResBlock(
        0.887 GMac, 2.683% MACs, 
        (conv1): ConvModule(
          0.089 GMac, 0.269% MACs, 
          (conv): Conv2d(0.089 GMac, 0.268% MACs, 1024, 512, kernel_size=(1, 1), stride=(1, 1), bias=False)
          (bn): BatchNorm2d(0.0 GMac, 0.001% MACs, 512, eps=1e-05, momentum=0.1, affine=True, track_running_stats=True)
          (activate): ReLU(0.0 GMac, 0.000% MACs, inplace=True)
        )
        (conv2): ConvModule(
          0.798 GMac, 2.415% MACs, 
          (conv): Conv2d(0.797 GMac, 2.413% MACs, 512, 1024, kernel_size=(3, 3), stride=(1, 1), padding=(1, 1), bias=False)
          (bn): BatchNorm2d(0.0 GMac, 0.001% MACs, 1024, eps=1e-05, momentum=0.1, affine=True, track_running_stats=True)
          (activate): ReLU(0.0 GMac, 0.001% MACs, inplace=True)
        )
      )
      (res1): ResBlock(
        0.887 GMac, 2.683% MACs, 
        (conv1): ConvModule(
          0.089 GMac, 0.269% MACs, 
          (conv): Conv2d(0.089 GMac, 0.268% MACs, 1024, 512, kernel_size=(1, 1), stride=(1, 1), bias=False)
          (bn): BatchNorm2d(0.0 GMac, 0.001% MACs, 512, eps=1e-05, momentum=0.1, affine=True, track_running_stats=True)
          (activate): ReLU(0.0 GMac, 0.000% MACs, inplace=True)
        )
        (conv2): ConvModule(
          0.798 GMac, 2.415% MACs, 
          (conv): Conv2d(0.797 GMac, 2.413% MACs, 512, 1024, kernel_size=(3, 3), stride=(1, 1), padding=(1, 1), bias=False)
          (bn): BatchNorm2d(0.0 GMac, 0.001% MACs, 1024, eps=1e-05, momentum=0.1, affine=True, track_running_stats=True)
          (activate): ReLU(0.0 GMac, 0.001% MACs, inplace=True)
        )
      )
      (res2): ResBlock(
        0.887 GMac, 2.683% MACs, 
        (conv1): ConvModule(
          0.089 GMac, 0.269% MACs, 
          (conv): Conv2d(0.089 GMac, 0.268% MACs, 1024, 512, kernel_size=(1, 1), stride=(1, 1), bias=False)
          (bn): BatchNorm2d(0.0 GMac, 0.001% MACs, 512, eps=1e-05, momentum=0.1, affine=True, track_running_stats=True)
          (activate): ReLU(0.0 GMac, 0.000% MACs, inplace=True)
        )
        (conv2): ConvModule(
          0.798 GMac, 2.415% MACs, 
          (conv): Conv2d(0.797 GMac, 2.413% MACs, 512, 1024, kernel_size=(3, 3), stride=(1, 1), padding=(1, 1), bias=False)
          (bn): BatchNorm2d(0.0 GMac, 0.001% MACs, 1024, eps=1e-05, momentum=0.1, affine=True, track_running_stats=True)
          (activate): ReLU(0.0 GMac, 0.001% MACs, inplace=True)
        )
      )
      (res3): ResBlock(
        0.887 GMac, 2.683% MACs, 
        (conv1): ConvModule(
          0.089 GMac, 0.269% MACs, 
          (conv): Conv2d(0.089 GMac, 0.268% MACs, 1024, 512, kernel_size=(1, 1), stride=(1, 1), bias=False)
          (bn): BatchNorm2d(0.0 GMac, 0.001% MACs, 512, eps=1e-05, momentum=0.1, affine=True, track_running_stats=True)
          (activate): ReLU(0.0 GMac, 0.000% MACs, inplace=True)
        )
        (conv2): ConvModule(
          0.798 GMac, 2.415% MACs, 
          (conv): Conv2d(0.797 GMac, 2.413% MACs, 512, 1024, kernel_size=(3, 3), stride=(1, 1), padding=(1, 1), bias=False)
          (bn): BatchNorm2d(0.0 GMac, 0.001% MACs, 1024, eps=1e-05, momentum=0.1, affine=True, track_running_stats=True)
          (activate): ReLU(0.0 GMac, 0.001% MACs, inplace=True)
        )
      )
    )
  )
  (neck): YOLOV3Neck(
    5.728 GMac, 17.333% MACs, 
    (detect1): DetectionBlock(
      1.863 GMac, 5.636% MACs, 
      (conv1): ConvModule(
        0.089 GMac, 0.269% MACs, 
        (conv): Conv2d(0.089 GMac, 0.268% MACs, 1024, 512, kernel_size=(1, 1), stride=(1, 1), bias=False)
        (bn): BatchNorm2d(0.0 GMac, 0.001% MACs, 512, eps=1e-05, momentum=0.1, affine=True, track_running_stats=True)
        (activate): ReLU(0.0 GMac, 0.000% MACs, inplace=True)
      )
      (conv2): ConvModule(
        0.798 GMac, 2.415% MACs, 
        (conv): Conv2d(0.797 GMac, 2.413% MACs, 512, 1024, kernel_size=(3, 3), stride=(1, 1), padding=(1, 1), bias=False)
        (bn): BatchNorm2d(0.0 GMac, 0.001% MACs, 1024, eps=1e-05, momentum=0.1, affine=True, track_running_stats=True)
        (activate): ReLU(0.0 GMac, 0.001% MACs, inplace=True)
      )
      (conv3): ConvModule(
        0.089 GMac, 0.269% MACs, 
        (conv): Conv2d(0.089 GMac, 0.268% MACs, 1024, 512, kernel_size=(1, 1), stride=(1, 1), bias=False)
        (bn): BatchNorm2d(0.0 GMac, 0.001% MACs, 512, eps=1e-05, momentum=0.1, affine=True, track_running_stats=True)
        (activate): ReLU(0.0 GMac, 0.000% MACs, inplace=True)
      )
      (conv4): ConvModule(
        0.798 GMac, 2.415% MACs, 
        (conv): Conv2d(0.797 GMac, 2.413% MACs, 512, 1024, kernel_size=(3, 3), stride=(1, 1), padding=(1, 1), bias=False)
        (bn): BatchNorm2d(0.0 GMac, 0.001% MACs, 1024, eps=1e-05, momentum=0.1, affine=True, track_running_stats=True)
        (activate): ReLU(0.0 GMac, 0.001% MACs, inplace=True)
      )
      (conv5): ConvModule(
        0.089 GMac, 0.269% MACs, 
        (conv): Conv2d(0.089 GMac, 0.268% MACs, 1024, 512, kernel_size=(1, 1), stride=(1, 1), bias=False)
        (bn): BatchNorm2d(0.0 GMac, 0.001% MACs, 512, eps=1e-05, momentum=0.1, affine=True, track_running_stats=True)
        (activate): ReLU(0.0 GMac, 0.000% MACs, inplace=True)
      )
    )
    (conv1): ConvModule(
      0.022 GMac, 0.067% MACs, 
      (conv): Conv2d(0.022 GMac, 0.067% MACs, 512, 256, kernel_size=(1, 1), stride=(1, 1), bias=False)
      (bn): BatchNorm2d(0.0 GMac, 0.000% MACs, 256, eps=1e-05, momentum=0.1, affine=True, track_running_stats=True)
      (activate): ReLU(0.0 GMac, 0.000% MACs, inplace=True)
    )
    (detect2): DetectionBlock(
      1.909 GMac, 5.775% MACs, 
      (conv1): ConvModule(
        0.133 GMac, 0.404% MACs, 
        (conv): Conv2d(0.133 GMac, 0.402% MACs, 768, 256, kernel_size=(1, 1), stride=(1, 1), bias=False)
        (bn): BatchNorm2d(0.0 GMac, 0.001% MACs, 256, eps=1e-05, momentum=0.1, affine=True, track_running_stats=True)
        (activate): ReLU(0.0 GMac, 0.001% MACs, inplace=True)
      )
      (conv2): ConvModule(
        0.798 GMac, 2.416% MACs, 
        (conv): Conv2d(0.797 GMac, 2.413% MACs, 256, 512, kernel_size=(3, 3), stride=(1, 1), padding=(1, 1), bias=False)
        (bn): BatchNorm2d(0.001 GMac, 0.002% MACs, 512, eps=1e-05, momentum=0.1, affine=True, track_running_stats=True)
        (activate): ReLU(0.0 GMac, 0.001% MACs, inplace=True)
      )
      (conv3): ConvModule(
        0.089 GMac, 0.270% MACs, 
        (conv): Conv2d(0.089 GMac, 0.268% MACs, 512, 256, kernel_size=(1, 1), stride=(1, 1), bias=False)
        (bn): BatchNorm2d(0.0 GMac, 0.001% MACs, 256, eps=1e-05, momentum=0.1, affine=True, track_running_stats=True)
        (activate): ReLU(0.0 GMac, 0.001% MACs, inplace=True)
      )
      (conv4): ConvModule(
        0.798 GMac, 2.416% MACs, 
        (conv): Conv2d(0.797 GMac, 2.413% MACs, 256, 512, kernel_size=(3, 3), stride=(1, 1), padding=(1, 1), bias=False)
        (bn): BatchNorm2d(0.001 GMac, 0.002% MACs, 512, eps=1e-05, momentum=0.1, affine=True, track_running_stats=True)
        (activate): ReLU(0.0 GMac, 0.001% MACs, inplace=True)
      )
      (conv5): ConvModule(
        0.089 GMac, 0.270% MACs, 
        (conv): Conv2d(0.089 GMac, 0.268% MACs, 512, 256, kernel_size=(1, 1), stride=(1, 1), bias=False)
        (bn): BatchNorm2d(0.0 GMac, 0.001% MACs, 256, eps=1e-05, momentum=0.1, affine=True, track_running_stats=True)
        (activate): ReLU(0.0 GMac, 0.001% MACs, inplace=True)
      )
    )
    (conv2): ConvModule(
      0.022 GMac, 0.068% MACs, 
      (conv): Conv2d(0.022 GMac, 0.067% MACs, 256, 128, kernel_size=(1, 1), stride=(1, 1), bias=False)
      (bn): BatchNorm2d(0.0 GMac, 0.001% MACs, 128, eps=1e-05, momentum=0.1, affine=True, track_running_stats=True)
      (activate): ReLU(0.0 GMac, 0.000% MACs, inplace=True)
    )
    (detect3): DetectionBlock(
      1.912 GMac, 5.786% MACs, 
      (conv1): ConvModule(
        0.134 GMac, 0.405% MACs, 
        (conv): Conv2d(0.133 GMac, 0.402% MACs, 384, 128, kernel_size=(1, 1), stride=(1, 1), bias=False)
        (bn): BatchNorm2d(0.001 GMac, 0.002% MACs, 128, eps=1e-05, momentum=0.1, affine=True, track_running_stats=True)
        (activate): ReLU(0.0 GMac, 0.001% MACs, inplace=True)
      )
      (conv2): ConvModule(
        0.8 GMac, 2.419% MACs, 
        (conv): Conv2d(0.797 GMac, 2.413% MACs, 128, 256, kernel_size=(3, 3), stride=(1, 1), padding=(1, 1), bias=False)
        (bn): BatchNorm2d(0.001 GMac, 0.004% MACs, 256, eps=1e-05, momentum=0.1, affine=True, track_running_stats=True)
        (activate): ReLU(0.001 GMac, 0.002% MACs, inplace=True)
      )
      (conv3): ConvModule(
        0.09 GMac, 0.271% MACs, 
        (conv): Conv2d(0.089 GMac, 0.268% MACs, 256, 128, kernel_size=(1, 1), stride=(1, 1), bias=False)
        (bn): BatchNorm2d(0.001 GMac, 0.002% MACs, 128, eps=1e-05, momentum=0.1, affine=True, track_running_stats=True)
        (activate): ReLU(0.0 GMac, 0.001% MACs, inplace=True)
      )
      (conv4): ConvModule(
        0.8 GMac, 2.419% MACs, 
        (conv): Conv2d(0.797 GMac, 2.413% MACs, 128, 256, kernel_size=(3, 3), stride=(1, 1), padding=(1, 1), bias=False)
        (bn): BatchNorm2d(0.001 GMac, 0.004% MACs, 256, eps=1e-05, momentum=0.1, affine=True, track_running_stats=True)
        (activate): ReLU(0.001 GMac, 0.002% MACs, inplace=True)
      )
      (conv5): ConvModule(
        0.09 GMac, 0.271% MACs, 
        (conv): Conv2d(0.089 GMac, 0.268% MACs, 256, 128, kernel_size=(1, 1), stride=(1, 1), bias=False)
        (bn): BatchNorm2d(0.001 GMac, 0.002% MACs, 128, eps=1e-05, momentum=0.1, affine=True, track_running_stats=True)
        (activate): ReLU(0.0 GMac, 0.001% MACs, inplace=True)
      )
    )
  )
  (bbox_head): YOLOV3Head(
    2.706 GMac, 8.187% MACs, 
    (loss_cls): CrossEntropyLoss(0.0 GMac, 0.000% MACs, )
    (loss_conf): CrossEntropyLoss(0.0 GMac, 0.000% MACs, )
    (loss_xy): CrossEntropyLoss(0.0 GMac, 0.000% MACs, )
    (loss_wh): MSELoss(0.0 GMac, 0.000% MACs, )
    (convs_bridge): ModuleList(
      2.396 GMac, 7.250% MACs, 
      (0): ConvModule(
        0.798 GMac, 2.415% MACs, 
        (conv): Conv2d(0.797 GMac, 2.413% MACs, 512, 1024, kernel_size=(3, 3), stride=(1, 1), padding=(1, 1), bias=False)
        (bn): BatchNorm2d(0.0 GMac, 0.001% MACs, 1024, eps=1e-05, momentum=0.1, affine=True, track_running_stats=True)
        (activate): ReLU(0.0 GMac, 0.001% MACs, inplace=True)
      )
      (1): ConvModule(
        0.798 GMac, 2.416% MACs, 
        (conv): Conv2d(0.797 GMac, 2.413% MACs, 256, 512, kernel_size=(3, 3), stride=(1, 1), padding=(1, 1), bias=False)
        (bn): BatchNorm2d(0.001 GMac, 0.002% MACs, 512, eps=1e-05, momentum=0.1, affine=True, track_running_stats=True)
        (activate): ReLU(0.0 GMac, 0.001% MACs, inplace=True)
      )
      (2): ConvModule(
        0.8 GMac, 2.419% MACs, 
        (conv): Conv2d(0.797 GMac, 2.413% MACs, 128, 256, kernel_size=(3, 3), stride=(1, 1), padding=(1, 1), bias=False)
        (bn): BatchNorm2d(0.001 GMac, 0.004% MACs, 256, eps=1e-05, momentum=0.1, affine=True, track_running_stats=True)
        (activate): ReLU(0.001 GMac, 0.002% MACs, inplace=True)
      )
    )
    (convs_pred): ModuleList(
      0.31 GMac, 0.937% MACs, 
      (0): Conv2d(0.044 GMac, 0.134% MACs, 1024, 255, kernel_size=(1, 1), stride=(1, 1))
      (1): Conv2d(0.088 GMac, 0.268% MACs, 512, 255, kernel_size=(1, 1), stride=(1, 1))
      (2): Conv2d(0.177 GMac, 0.536% MACs, 256, 255, kernel_size=(1, 1), stride=(1, 1))
    )
  )
)
2021-01-17 00:41:24,038 - mmdet - INFO - 

2021-01-17 00:41:24,042 - mmdet - INFO - Compute   : 33.05 GMac
2021-01-17 00:41:24,042 - mmdet - INFO - Parameters: 61.95 M
2021-01-17 00:41:40,274 - mmdet - INFO - load checkpoint from http://download.openmmlab.com/mmdetection/v2.0/yolo/yolov3_d53_mstrain-416_273e_coco/yolov3_d53_mstrain-416_273e_coco-2b60fcd9.pth
…
