…
│    │    └─ModuleList: 3-3                             --                        --
├─SSDLiteHead: 1                                        --                        --
│    └─SSDLiteClassificationHead: 2                     --                        --
│    │    └─ModuleList: 3-4                             --                        --
│    └─SSDLiteRegressionHead: 2                         --                        --
│    │    └─ModuleList: 3-5                             --                        --
├─GeneralizedRCNNTransform: 1-1                         --                        --
├─BackboneWithFPN: 1-2                                  [1, 256, 2, 2]            --
│    └─IntermediateLayerGetter: 2-1                     [1, 1280, 16, 16]         --
│    │    └─ConvNormActivation: 3-6                     [1, 32, 256, 256]         --
│    │    │    └─Conv2d: 4-1                            [1, 32, 256, 256]         864
│    │    │    └─BatchNorm2d: 4-2                       [1, 32, 256, 256]         64
│    │    │    └─ReLU: 4-3                              [1, 32, 256, 256]         --
│    │    └─InvertedResidual: 3-7                       [1, 16, 256, 256]         --
│    │    │    └─Sequential: 4-4                        [1, 16, 256, 256]         --
│    │    │    │    └─ConvNormActivation: 5-1           [1, 32, 256, 256]         --
│    │    │    │    │    └─Conv2d: 6-1                  [1, 32, 256, 256]         288
│    │    │    │    │    └─BatchNorm2d: 6-2             [1, 32, 256, 256]         64
│    │    │    │    │    └─ReLU: 6-3                    [1, 32, 256, 256]         --
│    │    │    │    └─Conv2d: 5-2                       [1, 16, 256, 256]         512
│    │    │    │    └─BatchNorm2d: 5-3                  [1, 16, 256, 256]         32
│    │    └─InvertedResidual: 3-8                       [1, 24, 128, 128]         --
│    │    │    └─Sequential: 4-5                        [1, 24, 128, 128]         --
│    │    │    │    └─ConvNormActivation: 5-4           [1, 96, 256, 256]         --
│    │    │    │    │    └─Conv2d: 6-4                  [1, 96, 256, 256]         1,536
│    │    │    │    │    └─BatchNorm2d: 6-5             [1, 96, 256, 256]         192
│    │    │    │    │    └─ReLU: 6-6                    [1, 96, 256, 256]         --
│    │    │    │    └─ConvNormActivation: 5-5           [1, 96, 128, 128]         --
│    │    │    │    │    └─Conv2d: 6-7                  [1, 96, 128, 128]         864
│    │    │    │    │    └─BatchNorm2d: 6-8             [1, 96, 128, 128]         192
│    │    │    │    │    └─ReLU: 6-9                    [1, 96, 128, 128]         --
│    │    │    │    └─Conv2d: 5-6                       [1, 24, 128, 128]         2,304
│    │    │    │    └─BatchNorm2d: 5-7                  [1, 24, 128, 128]         48
│    │    └─InvertedResidual: 3-9                       [1, 24, 128, 128]         --
│    │    │    └─Sequential: 4-6                        [1, 24, 128, 128]         --
│    │    │    │    └─ConvNormActivation: 5-8           [1, 144, 128, 128]        --
│    │    │    │    │    └─Conv2d: 6-10                 [1, 144, 128, 128]        3,456
│    │    │    │    │    └─BatchNorm2d: 6-11            [1, 144, 128, 128]        288
│    │    │    │    │    └─ReLU: 6-12                   [1, 144, 128, 128]        --
│    │    │    │    └─ConvNormActivation: 5-9           [1, 144, 128, 128]        --
│    │    │    │    │    └─Conv2d: 6-13                 [1, 144, 128, 128]        1,296
│    │    │    │    │    └─BatchNorm2d: 6-14            [1, 144, 128, 128]        288
│    │    │    │    │    └─ReLU: 6-15                   [1, 144, 128, 128]        --
│    │    │    │    └─Conv2d: 5-10                      [1, 24, 128, 128]         3,456
│    │    │    │    └─BatchNorm2d: 5-11                 [1, 24, 128, 128]         48
│    │    │    └─AddBlock: 4-7                          [1, 24, 128, 128]         --
│    │    └─InvertedResidual: 3-10                      [1, 32, 64, 64]           --
│    │    │    └─Sequential: 4-8                        [1, 32, 64, 64]           --
│    │    │    │    └─ConvNormActivation: 5-12          [1, 144, 128, 128]        --
│    │    │    │    │    └─Conv2d: 6-16                 [1, 144, 128, 128]        3,456
│    │    │    │    │    └─BatchNorm2d: 6-17            [1, 144, 128, 128]        288
│    │    │    │    │    └─ReLU: 6-18                   [1, 144, 128, 128]        --
│    │    │    │    └─ConvNormActivation: 5-13          [1, 144, 64, 64]          --
│    │    │    │    │    └─Conv2d: 6-19                 [1, 144, 64, 64]          1,296
│    │    │    │    │    └─BatchNorm2d: 6-20            [1, 144, 64, 64]          288
│    │    │    │    │    └─ReLU: 6-21                   [1, 144, 64, 64]          --
│    │    │    │    └─Conv2d: 5-14                      [1, 32, 64, 64]           4,608
│    │    │    │    └─BatchNorm2d: 5-15                 [1, 32, 64, 64]           64
│    │    └─InvertedResidual: 3-11                      [1, 32, 64, 64]           --
│    │    │    └─Sequential: 4-9                        [1, 32, 64, 64]           --
│    │    │    │    └─ConvNormActivation: 5-16          [1, 192, 64, 64]          --
│    │    │    │    │    └─Conv2d: 6-22                 [1, 192, 64, 64]          6,144
│    │    │    │    │    └─BatchNorm2d: 6-23            [1, 192, 64, 64]          384
│    │    │    │    │    └─ReLU: 6-24                   [1, 192, 64, 64]          --
│    │    │    │    └─ConvNormActivation: 5-17          [1, 192, 64, 64]          --
│    │    │    │    │    └─Conv2d: 6-25                 [1, 192, 64, 64]          1,728
│    │    │    │    │    └─BatchNorm2d: 6-26            [1, 192, 64, 64]          384
│    │    │    │    │    └─ReLU: 6-27                   [1, 192, 64, 64]          --
│    │    │    │    └─Conv2d: 5-18                      [1, 32, 64, 64]           6,144
│    │    │    │    └─BatchNorm2d: 5-19                 [1, 32, 64, 64]           64
│    │    │    └─AddBlock: 4-10                         [1, 32, 64, 64]           --
│    │    └─InvertedResidual: 3-12                      [1, 32, 64, 64]           --
│    │    │    └─Sequential: 4-11                       [1, 32, 64, 64]           --
│    │    │    │    └─ConvNormActivation: 5-20          [1, 192, 64, 64]          --
│    │    │    │    │    └─Conv2d: 6-28                 [1, 192, 64, 64]          6,144
│    │    │    │    │    └─BatchNorm2d: 6-29            [1, 192, 64, 64]          384
│    │    │    │    │    └─ReLU: 6-30                   [1, 192, 64, 64]          --
│    │    │    │    └─ConvNormActivation: 5-21          [1, 192, 64, 64]          --
│    │    │    │    │    └─Conv2d: 6-31                 [1, 192, 64, 64]          1,728
│    │    │    │    │    └─BatchNorm2d: 6-32            [1, 192, 64, 64]          384
│    │    │    │    │    └─ReLU: 6-33                   [1, 192, 64, 64]          --
│    │    │    │    └─Conv2d: 5-22                      [1, 32, 64, 64]           6,144
│    │    │    │    └─BatchNorm2d: 5-23                 [1, 32, 64, 64]           64
│    │    │    └─AddBlock: 4-12                         [1, 32, 64, 64]           --
│    │    └─InvertedResidual: 3-13                      [1, 64, 32, 32]           --
│    │    │    └─Sequential: 4-13                       [1, 64, 32, 32]           --
│    │    │    │    └─ConvNormActivation: 5-24          [1, 192, 64, 64]          --
│    │    │    │    │    └─Conv2d: 6-34                 [1, 192, 64, 64]          6,144
│    │    │    │    │    └─BatchNorm2d: 6-35            [1, 192, 64, 64]          384
│    │    │    │    │    └─ReLU: 6-36                   [1, 192, 64, 64]          --
│    │    │    │    └─ConvNormActivation: 5-25          [1, 192, 32, 32]          --
│    │    │    │    │    └─Conv2d: 6-37                 [1, 192, 32, 32]          1,728
│    │    │    │    │    └─BatchNorm2d: 6-38            [1, 192, 32, 32]          384
│    │    │    │    │    └─ReLU: 6-39                   [1, 192, 32, 32]          --
│    │    │    │    └─Conv2d: 5-26                      [1, 64, 32, 32]           12,288
│    │    │    │    └─BatchNorm2d: 5-27                 [1, 64, 32, 32]           128
│    │    └─InvertedResidual: 3-14                      [1, 64, 32, 32]           --
│    │    │    └─Sequential: 4-14                       [1, 64, 32, 32]           --
│    │    │    │    └─ConvNormActivation: 5-28          [1, 384, 32, 32]          --
│    │    │    │    │    └─Conv2d: 6-40                 [1, 384, 32, 32]          24,576
│    │    │    │    │    └─BatchNorm2d: 6-41            [1, 384, 32, 32]          768
│    │    │    │    │    └─ReLU: 6-42                   [1, 384, 32, 32]          --
│    │    │    │    └─ConvNormActivation: 5-29          [1, 384, 32, 32]          --
│    │    │    │    │    └─Conv2d: 6-43                 [1, 384, 32, 32]          3,456
│    │    │    │    │    └─BatchNorm2d: 6-44            [1, 384, 32, 32]          768
│    │    │    │    │    └─ReLU: 6-45                   [1, 384, 32, 32]          --
│    │    │    │    └─Conv2d: 5-30                      [1, 64, 32, 32]           24,576
│    │    │    │    └─BatchNorm2d: 5-31                 [1, 64, 32, 32]           128
│    │    │    └─AddBlock: 4-15                         [1, 64, 32, 32]           --
│    │    └─InvertedResidual: 3-15                      [1, 64, 32, 32]           --
│    │    │    └─Sequential: 4-16                       [1, 64, 32, 32]           --
│    │    │    │    └─ConvNormActivation: 5-32          [1, 384, 32, 32]          --
│    │    │    │    │    └─Conv2d: 6-46                 [1, 384, 32, 32]          24,576
│    │    │    │    │    └─BatchNorm2d: 6-47            [1, 384, 32, 32]          768
│    │    │    │    │    └─ReLU: 6-48                   [1, 384, 32, 32]          --
│    │    │    │    └─ConvNormActivation: 5-33          [1, 384, 32, 32]          --
│    │    │    │    │    └─Conv2d: 6-49                 [1, 384, 32, 32]          3,456
│    │    │    │    │    └─BatchNorm2d: 6-50            [1, 384, 32, 32]          768
│    │    │    │    │    └─ReLU: 6-51                   [1, 384, 32, 32]          --
│    │    │    │    └─Conv2d: 5-34                      [1, 64, 32, 32]           24,576
│    │    │    │    └─BatchNorm2d: 5-35                 [1, 64, 32, 32]           128
│    │    │    └─AddBlock: 4-17                         [1, 64, 32, 32]           --
│    │    └─InvertedResidual: 3-16                      [1, 64, 32, 32]           --
│    │    │    └─Sequential: 4-18                       [1, 64, 32, 32]           --
│    │    │    │    └─ConvNormActivation: 5-36          [1, 384, 32, 32]          --
│    │    │    │    │    └─Conv2d: 6-52                 [1, 384, 32, 32]          24,576
│    │    │    │    │    └─BatchNorm2d: 6-53            [1, 384, 32, 32]          768
│    │    │    │    │    └─ReLU: 6-54                   [1, 384, 32, 32]          --
│    │    │    │    └─ConvNormActivation: 5-37          [1, 384, 32, 32]          --
│    │    │    │    │    └─Conv2d: 6-55                 [1, 384, 32, 32]          3,456
│    │    │    │    │    └─BatchNorm2d: 6-56            [1, 384, 32, 32]          768
│    │    │    │    │    └─ReLU: 6-57                   [1, 384, 32, 32]          --
│    │    │    │    └─Conv2d: 5-38                      [1, 64, 32, 32]           24,576
│    │    │    │    └─BatchNorm2d: 5-39                 [1, 64, 32, 32]           128
│    │    │    └─AddBlock: 4-19                         [1, 64, 32, 32]           --
│    │    └─InvertedResidual: 3-17                      [1, 96, 32, 32]           --
│    │    │    └─Sequential: 4-20                       [1, 96, 32, 32]           --
│    │    │    │    └─ConvNormActivation: 5-40          [1, 384, 32, 32]          --
│    │    │    │    │    └─Conv2d: 6-58                 [1, 384, 32, 32]          24,576
│    │    │    │    │    └─BatchNorm2d: 6-59            [1, 384, 32, 32]          768
│    │    │    │    │    └─ReLU: 6-60                   [1, 384, 32, 32]          --
│    │    │    │    └─ConvNormActivation: 5-41          [1, 384, 32, 32]          --
│    │    │    │    │    └─Conv2d: 6-61                 [1, 384, 32, 32]          3,456
│    │    │    │    │    └─BatchNorm2d: 6-62            [1, 384, 32, 32]          768
│    │    │    │    │    └─ReLU: 6-63                   [1, 384, 32, 32]          --
│    │    │    │    └─Conv2d: 5-42                      [1, 96, 32, 32]           36,864
│    │    │    │    └─BatchNorm2d: 5-43                 [1, 96, 32, 32]           192
│    │    └─InvertedResidual: 3-18                      [1, 96, 32, 32]           --
│    │    │    └─Sequential: 4-21                       [1, 96, 32, 32]           --
│    │    │    │    └─ConvNormActivation: 5-44          [1, 576, 32, 32]          --
│    │    │    │    │    └─Conv2d: 6-64                 [1, 576, 32, 32]          55,296
│    │    │    │    │    └─BatchNorm2d: 6-65            [1, 576, 32, 32]          1,152
│    │    │    │    │    └─ReLU: 6-66                   [1, 576, 32, 32]          --
│    │    │    │    └─ConvNormActivation: 5-45          [1, 576, 32, 32]          --
│    │    │    │    │    └─Conv2d: 6-67                 [1, 576, 32, 32]          5,184
│    │    │    │    │    └─BatchNorm2d: 6-68            [1, 576, 32, 32]          1,152
│    │    │    │    │    └─ReLU: 6-69                   [1, 576, 32, 32]          --
│    │    │    │    └─Conv2d: 5-46                      [1, 96, 32, 32]           55,296
│    │    │    │    └─BatchNorm2d: 5-47                 [1, 96, 32, 32]           192
│    │    │    └─AddBlock: 4-22                         [1, 96, 32, 32]           --
│    │    └─InvertedResidual: 3-19                      [1, 96, 32, 32]           --
│    │    │    └─Sequential: 4-23                       [1, 96, 32, 32]           --
│    │    │    │    └─ConvNormActivation: 5-48          [1, 576, 32, 32]          --
│    │    │    │    │    └─Conv2d: 6-70                 [1, 576, 32, 32]          55,296
│    │    │    │    │    └─BatchNorm2d: 6-71            [1, 576, 32, 32]          1,152
│    │    │    │    │    └─ReLU: 6-72                   [1, 576, 32, 32]          --
│    │    │    │    └─ConvNormActivation: 5-49          [1, 576, 32, 32]          --
│    │    │    │    │    └─Conv2d: 6-73                 [1, 576, 32, 32]          5,184
│    │    │    │    │    └─BatchNorm2d: 6-74            [1, 576, 32, 32]          1,152
│    │    │    │    │    └─ReLU: 6-75                   [1, 576, 32, 32]          --
│    │    │    │    └─Conv2d: 5-50                      [1, 96, 32, 32]           55,296
│    │    │    │    └─BatchNorm2d: 5-51                 [1, 96, 32, 32]           192
│    │    │    └─AddBlock: 4-24                         [1, 96, 32, 32]           --
│    │    └─InvertedResidual: 3-20                      [1, 160, 16, 16]          --
│    │    │    └─Sequential: 4-25                       [1, 160, 16, 16]          --
│    │    │    │    └─ConvNormActivation: 5-52          [1, 576, 32, 32]          --
│    │    │    │    │    └─Conv2d: 6-76                 [1, 576, 32, 32]          55,296
│    │    │    │    │    └─BatchNorm2d: 6-77            [1, 576, 32, 32]          1,152
│    │    │    │    │    └─ReLU: 6-78                   [1, 576, 32, 32]          --
│    │    │    │    └─ConvNormActivation: 5-53          [1, 576, 16, 16]          --
│    │    │    │    │    └─Conv2d: 6-79                 [1, 576, 16, 16]          5,184
│    │    │    │    │    └─BatchNorm2d: 6-80            [1, 576, 16, 16]          1,152
│    │    │    │    │    └─ReLU: 6-81                   [1, 576, 16, 16]          --
│    │    │    │    └─Conv2d: 5-54                      [1, 160, 16, 16]          92,160
│    │    │    │    └─BatchNorm2d: 5-55                 [1, 160, 16, 16]          320
│    │    └─InvertedResidual: 3-21                      [1, 160, 16, 16]          --
│    │    │    └─Sequential: 4-26                       [1, 160, 16, 16]          --
│    │    │    │    └─ConvNormActivation: 5-56          [1, 960, 16, 16]          --
│    │    │    │    │    └─Conv2d: 6-82                 [1, 960, 16, 16]          153,600
│    │    │    │    │    └─BatchNorm2d: 6-83            [1, 960, 16, 16]          1,920
│    │    │    │    │    └─ReLU: 6-84                   [1, 960, 16, 16]          --
│    │    │    │    └─ConvNormActivation: 5-57          [1, 960, 16, 16]          --
│    │    │    │    │    └─Conv2d: 6-85                 [1, 960, 16, 16]          8,640
│    │    │    │    │    └─BatchNorm2d: 6-86            [1, 960, 16, 16]          1,920
│    │    │    │    │    └─ReLU: 6-87                   [1, 960, 16, 16]          --
│    │    │    │    └─Conv2d: 5-58                      [1, 160, 16, 16]          153,600
│    │    │    │    └─BatchNorm2d: 5-59                 [1, 160, 16, 16]          320
│    │    │    └─AddBlock: 4-27                         [1, 160, 16, 16]          --
│    │    └─InvertedResidual: 3-22                      [1, 160, 16, 16]          --
│    │    │    └─Sequential: 4-28                       [1, 160, 16, 16]          --
│    │    │    │    └─ConvNormActivation: 5-60          [1, 960, 16, 16]          --
│    │    │    │    │    └─Conv2d: 6-88                 [1, 960, 16, 16]          153,600
│    │    │    │    │    └─BatchNorm2d: 6-89            [1, 960, 16, 16]          1,920
│    │    │    │    │    └─ReLU: 6-90                   [1, 960, 16, 16]          --
│    │    │    │    └─ConvNormActivation: 5-61          [1, 960, 16, 16]          --
│    │    │    │    │    └─Conv2d: 6-91                 [1, 960, 16, 16]          8,640
│    │    │    │    │    └─BatchNorm2d: 6-92            [1, 960, 16, 16]          1,920
│    │    │    │    │    └─ReLU: 6-93                   [1, 960, 16, 16]          --
│    │    │    │    └─Conv2d: 5-62                      [1, 160, 16, 16]          153,600
│    │    │    │    └─BatchNorm2d: 5-63                 [1, 160, 16, 16]          320
│    │    │    └─AddBlock: 4-29                         [1, 160, 16, 16]          --
│    │    └─InvertedResidual: 3-23                      [1, 320, 16, 16]          --
│    │    │    └─Sequential: 4-30                       [1, 320, 16, 16]          --
│    │    │    │    └─ConvNormActivation: 5-64          [1, 960, 16, 16]          --
│    │    │    │    │    └─Conv2d: 6-94                 [1, 960, 16, 16]          153,600
│    │    │    │    │    └─BatchNorm2d: 6-95            [1, 960, 16, 16]          1,920
│    │    │    │    │    └─ReLU: 6-96                   [1, 960, 16, 16]          --
│    │    │    │    └─ConvNormActivation: 5-65          [1, 960, 16, 16]          --
│    │    │    │    │    └─Conv2d: 6-97                 [1, 960, 16, 16]          8,640
│    │    │    │    │    └─BatchNorm2d: 6-98            [1, 960, 16, 16]          1,920
│    │    │    │    │    └─ReLU: 6-99                   [1, 960, 16, 16]          --
│    │    │    │    └─Conv2d: 5-66                      [1, 320, 16, 16]          307,200
│    │    │    │    └─BatchNorm2d: 5-67                 [1, 320, 16, 16]          640
│    │    └─ConvNormActivation: 3-24                    [1, 1280, 16, 16]         --
│    │    │    └─Conv2d: 4-31                           [1, 1280, 16, 16]         409,600
│    │    │    └─BatchNorm2d: 4-32                      [1, 1280, 16, 16]         2,560
│    │    │    └─ReLU: 4-33                             [1, 1280, 16, 16]         --
│    └─FeaturePyramidNetwork: 2-2                       [1, 256, 2, 2]            --
│    │    └─ModuleList: 3-1                             --                        --
│    │    │    └─Conv2d: 4-34                           [1, 256, 16, 16]          327,936
│    │    └─ModuleList: 3-2                             --                        --
│    │    │    └─Sequential: 4-35                       [1, 256, 16, 16]          --
│    │    │    │    └─Sequential: 5-68                  [1, 256, 16, 16]          --
│    │    │    │    │    └─Conv2d: 6-100                [1, 256, 16, 16]          2,560
│    │    │    │    │    └─BatchNorm2d: 6-101           [1, 256, 16, 16]          512
│    │    │    │    │    └─ReLU: 6-102                  [1, 256, 16, 16]          --
│    │    │    │    └─Sequential: 5-69                  [1, 256, 16, 16]          --
│    │    │    │    │    └─Conv2d: 6-103                [1, 256, 16, 16]          65,792
│    │    └─ModuleList: 3-1                             --                        --
│    │    │    └─Conv2d: 4-36                           [1, 256, 32, 32]          16,640
│    │    └─ModuleList: 3-3                             --                        --
│    │    │    └─AddBlock: 4-37                         [1, 256, 32, 32]          --
│    │    └─ModuleList: 3-2                             --                        --
│    │    │    └─Sequential: 4-38                       [1, 256, 32, 32]          --
│    │    │    │    └─Sequential: 5-70                  [1, 256, 32, 32]          --
│    │    │    │    │    └─Conv2d: 6-104                [1, 256, 32, 32]          2,560
│    │    │    │    │    └─BatchNorm2d: 6-105           [1, 256, 32, 32]          512
│    │    │    │    │    └─ReLU: 6-106                  [1, 256, 32, 32]          --
│    │    │    │    └─Sequential: 5-71                  [1, 256, 32, 32]          --
│    │    │    │    │    └─Conv2d: 6-107                [1, 256, 32, 32]          65,792
│    │    └─ModuleList: 3-1                             --                        --
│    │    │    └─Conv2d: 4-39                           [1, 256, 64, 64]          8,448
│    │    └─ModuleList: 3-3                             --                        --
│    │    │    └─AddBlock: 4-40                         [1, 256, 64, 64]          --
│    │    └─ModuleList: 3-2                             --                        --
│    │    │    └─Sequential: 4-41                       [1, 256, 64, 64]          --
│    │    │    │    └─Sequential: 5-72                  [1, 256, 64, 64]          --
│    │    │    │    │    └─Conv2d: 6-108                [1, 256, 64, 64]          2,560
│    │    │    │    │    └─BatchNorm2d: 6-109           [1, 256, 64, 64]          512
│    │    │    │    │    └─ReLU: 6-110                  [1, 256, 64, 64]          --
│    │    │    │    └─Sequential: 5-73                  [1, 256, 64, 64]          --
│    │    │    │    │    └─Conv2d: 6-111                [1, 256, 64, 64]          65,792
│    │    └─LastLevelP6P7: 3-25                         [1, 256, 64, 64]          --
│    │    │    └─Sequential: 4-42                       [1, 256, 8, 8]            --
│    │    │    │    └─Sequential: 5-74                  [1, 256, 8, 8]            --
│    │    │    │    │    └─Conv2d: 6-112                [1, 256, 8, 8]            2,560
│    │    │    │    │    └─BatchNorm2d: 6-113           [1, 256, 8, 8]            512
│    │    │    │    │    └─ReLU: 6-114                  [1, 256, 8, 8]            --
│    │    │    │    └─Sequential: 5-75                  [1, 256, 8, 8]            --
│    │    │    │    │    └─Conv2d: 6-115                [1, 256, 8, 8]            65,792
│    │    │    └─ReLU: 4-43                             [1, 256, 8, 8]            --
│    │    │    └─Sequential: 4-44                       [1, 256, 4, 4]            --
│    │    │    │    └─Sequential: 5-76                  [1, 256, 4, 4]            --
│    │    │    │    │    └─Conv2d: 6-116                [1, 256, 4, 4]            2,560
│    │    │    │    │    └─BatchNorm2d: 6-117           [1, 256, 4, 4]            512
│    │    │    │    │    └─ReLU: 6-118                  [1, 256, 4, 4]            --
│    │    │    │    └─Sequential: 5-77                  [1, 256, 4, 4]            --
│    │    │    │    │    └─Conv2d: 6-119                [1, 256, 4, 4]            65,792
│    │    │    └─ReLU: 4-45                             [1, 256, 4, 4]            --
│    │    │    └─Sequential: 4-46                       [1, 256, 2, 2]            --
│    │    │    │    └─Sequential: 5-78                  [1, 256, 2, 2]            --
│    │    │    │    │    └─Conv2d: 6-120                [1, 256, 2, 2]            2,560
│    │    │    │    │    └─BatchNorm2d: 6-121           [1, 256, 2, 2]            512
│    │    │    │    │    └─ReLU: 6-122                  [1, 256, 2, 2]            --
│    │    │    │    └─Sequential: 5-79                  [1, 256, 2, 2]            --
│    │    │    │    │    └─Conv2d: 6-123                [1, 256, 2, 2]            65,792
├─SSDLiteHead: 1-3                                      [1, 24560, 91]            --
│    └─SSDLiteRegressionHead: 2-3                       [1, 24560, 4]             --
│    │    └─ModuleList: 3-5                             --                        --
│    │    │    └─Sequential: 4-47                       [1, 16, 64, 64]           --
│    │    │    │    └─ConvNormActivation: 5-80          [1, 256, 64, 64]          --
│    │    │    │    │    └─Conv2d: 6-124                [1, 256, 64, 64]          2,304
│    │    │    │    │    └─BatchNorm2d: 6-125           [1, 256, 64, 64]          512
│    │    │    │    │    └─ReLU: 6-126                  [1, 256, 64, 64]          --
│    │    │    │    └─Conv2d: 5-81                      [1, 16, 64, 64]           4,112
│    │    │    └─Sequential: 4-48                       [1, 24, 32, 32]           --
│    │    │    │    └─ConvNormActivation: 5-82          [1, 256, 32, 32]          --
│    │    │    │    │    └─Conv2d: 6-127                [1, 256, 32, 32]          2,304
│    │    │    │    │    └─BatchNorm2d: 6-128           [1, 256, 32, 32]          512
│    │    │    │    │    └─ReLU: 6-129                  [1, 256, 32, 32]          --
│    │    │    │    └─Conv2d: 5-83                      [1, 24, 32, 32]           6,168
│    │    │    └─Sequential: 4-49                       [1, 24, 16, 16]           --
│    │    │    │    └─ConvNormActivation: 5-84          [1, 256, 16, 16]          --
│    │    │    │    │    └─Conv2d: 6-130                [1, 256, 16, 16]          2,304
│    │    │    │    │    └─BatchNorm2d: 6-131           [1, 256, 16, 16]          512
│    │    │    │    │    └─ReLU: 6-132                  [1, 256, 16, 16]          --
│    │    │    │    └─Conv2d: 5-85                      [1, 24, 16, 16]           6,168
│    │    │    └─Sequential: 4-50                       [1, 24, 8, 8]             --
│    │    │    │    └─ConvNormActivation: 5-86          [1, 256, 8, 8]            --
│    │    │    │    │    └─Conv2d: 6-133                [1, 256, 8, 8]            2,304
│    │    │    │    │    └─BatchNorm2d: 6-134           [1, 256, 8, 8]            512
│    │    │    │    │    └─ReLU: 6-135                  [1, 256, 8, 8]            --
│    │    │    │    └─Conv2d: 5-87                      [1, 24, 8, 8]             6,168
│    │    │    └─Sequential: 4-51                       [1, 24, 4, 4]             --
│    │    │    │    └─ConvNormActivation: 5-88          [1, 256, 4, 4]            --
│    │    │    │    │    └─Conv2d: 6-136                [1, 256, 4, 4]            2,304
│    │    │    │    │    └─BatchNorm2d: 6-137           [1, 256, 4, 4]            512
│    │    │    │    │    └─ReLU: 6-138                  [1, 256, 4, 4]            --
│    │    │    │    └─Conv2d: 5-89                      [1, 24, 4, 4]             6,168
│    │    │    └─Sequential: 4-52                       [1, 16, 2, 2]             --
│    │    │    │    └─ConvNormActivation: 5-90          [1, 256, 2, 2]            --
│    │    │    │    │    └─Conv2d: 6-139                [1, 256, 2, 2]            2,304
│    │    │    │    │    └─BatchNorm2d: 6-140           [1, 256, 2, 2]            512
│    │    │    │    │    └─ReLU: 6-141                  [1, 256, 2, 2]            --
│    │    │    │    └─Conv2d: 5-91                      [1, 16, 2, 2]             4,112
│    └─SSDLiteClassificationHead: 2-4                   [1, 24560, 91]            --
│    │    └─ModuleList: 3-4                             --                        --
│    │    │    └─Sequential: 4-53                       [1, 364, 64, 64]          --
│    │    │    │    └─ConvNormActivation: 5-92          [1, 256, 64, 64]          --
│    │    │    │    │    └─Conv2d: 6-142                [1, 256, 64, 64]          2,304
│    │    │    │    │    └─BatchNorm2d: 6-143           [1, 256, 64, 64]          512
│    │    │    │    │    └─ReLU: 6-144                  [1, 256, 64, 64]          --
│    │    │    │    └─Conv2d: 5-93                      [1, 364, 64, 64]          93,548
│    │    │    └─Sequential: 4-54                       [1, 546, 32, 32]          --
│    │    │    │    └─ConvNormActivation: 5-94          [1, 256, 32, 32]          --
│    │    │    │    │    └─Conv2d: 6-145                [1, 256, 32, 32]          2,304
│    │    │    │    │    └─BatchNorm2d: 6-146           [1, 256, 32, 32]          512
│    │    │    │    │    └─ReLU: 6-147                  [1, 256, 32, 32]          --
│    │    │    │    └─Conv2d: 5-95                      [1, 546, 32, 32]          140,322
│    │    │    └─Sequential: 4-55                       [1, 546, 16, 16]          --
│    │    │    │    └─ConvNormActivation: 5-96          [1, 256, 16, 16]          --
│    │    │    │    │    └─Conv2d: 6-148                [1, 256, 16, 16]          2,304
│    │    │    │    │    └─BatchNorm2d: 6-149           [1, 256, 16, 16]          512
│    │    │    │    │    └─ReLU: 6-150                  [1, 256, 16, 16]          --
│    │    │    │    └─Conv2d: 5-97                      [1, 546, 16, 16]          140,322
│    │    │    └─Sequential: 4-56                       [1, 546, 8, 8]            --
│    │    │    │    └─ConvNormActivation: 5-98          [1, 256, 8, 8]            --
│    │    │    │    │    └─Conv2d: 6-151                [1, 256, 8, 8]            2,304
│    │    │    │    │    └─BatchNorm2d: 6-152           [1, 256, 8, 8]            512
│    │    │    │    │    └─ReLU: 6-153                  [1, 256, 8, 8]            --
│    │    │    │    └─Conv2d: 5-99                      [1, 546, 8, 8]            140,322
│    │    │    └─Sequential: 4-57                       [1, 546, 4, 4]            --
│    │    │    │    └─ConvNormActivation: 5-100         [1, 256, 4, 4]            --
│    │    │    │    │    └─Conv2d: 6-154                [1, 256, 4, 4]            2,304
│    │    │    │    │    └─BatchNorm2d: 6-155           [1, 256, 4, 4]            512
│    │    │    │    │    └─ReLU: 6-156                  [1, 256, 4, 4]            --
│    │    │    │    └─Conv2d: 5-101                     [1, 546, 4, 4]            140,322
│    │    │    └─Sequential: 4-58                       [1, 364, 2, 2]            --
│    │    │    │    └─ConvNormActivation: 5-102         [1, 256, 2, 2]            --
│    │    │    │    │    └─Conv2d: 6-157                [1, 256, 2, 2]            2,304
│    │    │    │    │    └─BatchNorm2d: 6-158           [1, 256, 2, 2]            512
│    │    │    │    │    └─ReLU: 6-159                  [1, 256, 2, 2]            --
│    │    │    │    └─Conv2d: 5-103                     [1, 364, 2, 2]            93,548
├─DefaultBoxGenerator: 1-4                              [24560, 4]                --
=========================================================================================================
Total params: 3,805,152
Trainable params: 3,805,152
Non-trainable params: 0
Total mult-adds (G): 2.70
=========================================================================================================
Input size (MB): 3.15
Forward/backward pass size (MB): 666.19
Params size (MB): 15.22
…
