…
│    └─ModuleList: 2-1                                  --                        --
├─SSDLiteHead: 1                                        --                        --
│    └─SSDLiteClassificationHead: 2                     --                        --
│    │    └─ModuleList: 3-1                             --                        --
│    └─SSDLiteRegressionHead: 2                         --                        --
│    │    └─ModuleList: 3-2                             --                        --
├─GeneralizedRCNNTransform: 1-1                         --                        --
├─SSDLiteFeatureExtractorMobileNet: 1-2                 [1, 128, 1, 1]            --
│    └─Sequential: 2                                    --                        --
│    │    └─Sequential: 3-3                             [1, 672, 32, 32]          --
│    │    │    └─ConvNormActivation: 4-1                [1, 16, 256, 256]         --
│    │    │    │    └─Conv2d: 5-1                       [1, 16, 256, 256]         432
│    │    │    │    └─BatchNorm2d: 5-2                  [1, 16, 256, 256]         32
│    │    │    │    └─ReLU: 5-3                         [1, 16, 256, 256]         --
│    │    │    └─InvertedResidual: 4-2                  [1, 16, 256, 256]         --
│    │    │    │    └─Sequential: 5-4                   [1, 16, 256, 256]         --
│    │    │    │    │    └─ConvNormActivation: 6-1      [1, 16, 256, 256]         --
│    │    │    │    │    │    └─Conv2d: 7-1             [1, 16, 256, 256]         144
│    │    │    │    │    │    └─BatchNorm2d: 7-2        [1, 16, 256, 256]         32
│    │    │    │    │    │    └─ReLU: 7-3               [1, 16, 256, 256]         --
│    │    │    │    │    └─ConvNormActivation: 6-2      [1, 16, 256, 256]         --
│    │    │    │    │    │    └─Conv2d: 7-4             [1, 16, 256, 256]         256
│    │    │    │    │    │    └─BatchNorm2d: 7-5        [1, 16, 256, 256]         32
│    │    │    │    └─AddBlock: 5-5                     [1, 16, 256, 256]         --
│    │    │    └─InvertedResidual: 4-3                  [1, 24, 128, 128]         --
│    │    │    │    └─Sequential: 5-6                   [1, 24, 128, 128]         --
│    │    │    │    │    └─ConvNormActivation: 6-3      [1, 64, 256, 256]         --
│    │    │    │    │    │    └─Conv2d: 7-6             [1, 64, 256, 256]         1,024
│    │    │    │    │    │    └─BatchNorm2d: 7-7        [1, 64, 256, 256]         128
│    │    │    │    │    │    └─ReLU: 7-8               [1, 64, 256, 256]         --
│    │    │    │    │    └─ConvNormActivation: 6-4      [1, 64, 128, 128]         --
│    │    │    │    │    │    └─Conv2d: 7-9             [1, 64, 128, 128]         576
│    │    │    │    │    │    └─BatchNorm2d: 7-10       [1, 64, 128, 128]         128
│    │    │    │    │    │    └─ReLU: 7-11              [1, 64, 128, 128]         --
│    │    │    │    │    └─ConvNormActivation: 6-5      [1, 24, 128, 128]         --
│    │    │    │    │    │    └─Conv2d: 7-12            [1, 24, 128, 128]         1,536
│    │    │    │    │    │    └─BatchNorm2d: 7-13       [1, 24, 128, 128]         48
│    │    │    └─InvertedResidual: 4-4                  [1, 24, 128, 128]         --
│    │    │    │    └─Sequential: 5-7                   [1, 24, 128, 128]         --
│    │    │    │    │    └─ConvNormActivation: 6-6      [1, 72, 128, 128]         --
│    │    │    │    │    │    └─Conv2d: 7-14            [1, 72, 128, 128]         1,728
│    │    │    │    │    │    └─BatchNorm2d: 7-15       [1, 72, 128, 128]         144
│    │    │    │    │    │    └─ReLU: 7-16              [1, 72, 128, 128]         --
│    │    │    │    │    └─ConvNormActivation: 6-7      [1, 72, 128, 128]         --
│    │    │    │    │    │    └─Conv2d: 7-17            [1, 72, 128, 128]         648
│    │    │    │    │    │    └─BatchNorm2d: 7-18       [1, 72, 128, 128]         144
│    │    │    │    │    │    └─ReLU: 7-19              [1, 72, 128, 128]         --
│    │    │    │    │    └─ConvNormActivation: 6-8      [1, 24, 128, 128]         --
│    │    │    │    │    │    └─Conv2d: 7-20            [1, 24, 128, 128]         1,728
│    │    │    │    │    │    └─BatchNorm2d: 7-21       [1, 24, 128, 128]         48
│    │    │    │    └─AddBlock: 5-8                     [1, 24, 128, 128]         --
│    │    │    └─InvertedResidual: 4-5                  [1, 40, 64, 64]           --
│    │    │    │    └─Sequential: 5-9                   [1, 40, 64, 64]           --
│    │    │    │    │    └─ConvNormActivation: 6-9      [1, 72, 128, 128]         --
│    │    │    │    │    │    └─Conv2d: 7-22            [1, 72, 128, 128]         1,728
│    │    │    │    │    │    └─BatchNorm2d: 7-23       [1, 72, 128, 128]         144
│    │    │    │    │    │    └─ReLU: 7-24              [1, 72, 128, 128]         --
│    │    │    │    │    └─ConvNormActivation: 6-10     [1, 72, 64, 64]           --
│    │    │    │    │    │    └─Conv2d: 7-25            [1, 72, 64, 64]           1,800
│    │    │    │    │    │    └─BatchNorm2d: 7-26       [1, 72, 64, 64]           144
│    │    │    │    │    │    └─ReLU: 7-27              [1, 72, 64, 64]           --
│    │    │    │    │    └─Identity: 6-11               [1, 72, 64, 64]           --
│    │    │    │    │    └─ConvNormActivation: 6-12     [1, 40, 64, 64]           --
│    │    │    │    │    │    └─Conv2d: 7-28            [1, 40, 64, 64]           2,880
│    │    │    │    │    │    └─BatchNorm2d: 7-29       [1, 40, 64, 64]           80
│    │    │    └─InvertedResidual: 4-6                  [1, 40, 64, 64]           --
│    │    │    │    └─Sequential: 5-10                  [1, 40, 64, 64]           --
│    │    │    │    │    └─ConvNormActivation: 6-13     [1, 120, 64, 64]          --
│    │    │    │    │    │    └─Conv2d: 7-30            [1, 120, 64, 64]          4,800
│    │    │    │    │    │    └─BatchNorm2d: 7-31       [1, 120, 64, 64]          240
│    │    │    │    │    │    └─ReLU: 7-32              [1, 120, 64, 64]          --
│    │    │    │    │    └─ConvNormActivation: 6-14     [1, 120, 64, 64]          --
│    │    │    │    │    │    └─Conv2d: 7-33            [1, 120, 64, 64]          3,000
│    │    │    │    │    │    └─BatchNorm2d: 7-34       [1, 120, 64, 64]          240
│    │    │    │    │    │    └─ReLU: 7-35              [1, 120, 64, 64]          --
│    │    │    │    │    └─Identity: 6-15               [1, 120, 64, 64]          --
│    │    │    │    │    └─ConvNormActivation: 6-16     [1, 40, 64, 64]           --
│    │    │    │    │    │    └─Conv2d: 7-36            [1, 40, 64, 64]           4,800
│    │    │    │    │    │    └─BatchNorm2d: 7-37       [1, 40, 64, 64]           80
│    │    │    │    └─AddBlock: 5-11                    [1, 40, 64, 64]           --
│    │    │    └─InvertedResidual: 4-7                  [1, 40, 64, 64]           --
│    │    │    │    └─Sequential: 5-12                  [1, 40, 64, 64]           --
│    │    │    │    │    └─ConvNormActivation: 6-17     [1, 120, 64, 64]          --
│    │    │    │    │    │    └─Conv2d: 7-38            [1, 120, 64, 64]          4,800
│    │    │    │    │    │    └─BatchNorm2d: 7-39       [1, 120, 64, 64]          240
│    │    │    │    │    │    └─ReLU: 7-40              [1, 120, 64, 64]          --
│    │    │    │    │    └─ConvNormActivation: 6-18     [1, 120, 64, 64]          --
│    │    │    │    │    │    └─Conv2d: 7-41            [1, 120, 64, 64]          3,000
│    │    │    │    │    │    └─BatchNorm2d: 7-42       [1, 120, 64, 64]          240
│    │    │    │    │    │    └─ReLU: 7-43              [1, 120, 64, 64]          --
│    │    │    │    │    └─Identity: 6-19               [1, 120, 64, 64]          --
│    │    │    │    │    └─ConvNormActivation: 6-20     [1, 40, 64, 64]           --
│    │    │    │    │    │    └─Conv2d: 7-44            [1, 40, 64, 64]           4,800
│    │    │    │    │    │    └─BatchNorm2d: 7-45       [1, 40, 64, 64]           80
│    │    │    │    └─AddBlock: 5-13                    [1, 40, 64, 64]           --
│    │    │    └─InvertedResidual: 4-8                  [1, 80, 32, 32]           --
│    │    │    │    └─Sequential: 5-14                  [1, 80, 32, 32]           --
│    │    │    │    │    └─ConvNormActivation: 6-21     [1, 240, 64, 64]          --
│    │    │    │    │    │    └─Conv2d: 7-46            [1, 240, 64, 64]          9,600
│    │    │    │    │    │    └─BatchNorm2d: 7-47       [1, 240, 64, 64]          480
│    │    │    │    │    │    └─ReLU: 7-48              [1, 240, 64, 64]          --
│    │    │    │    │    └─ConvNormActivation: 6-22     [1, 240, 32, 32]          --
│    │    │    │    │    │    └─Conv2d: 7-49            [1, 240, 32, 32]          2,160
│    │    │    │    │    │    └─BatchNorm2d: 7-50       [1, 240, 32, 32]          480
│    │    │    │    │    │    └─ReLU: 7-51              [1, 240, 32, 32]          --
│    │    │    │    │    └─ConvNormActivation: 6-23     [1, 80, 32, 32]           --
│    │    │    │    │    │    └─Conv2d: 7-52            [1, 80, 32, 32]           19,200
│    │    │    │    │    │    └─BatchNorm2d: 7-53       [1, 80, 32, 32]           160
│    │    │    └─InvertedResidual: 4-9                  [1, 80, 32, 32]           --
│    │    │    │    └─Sequential: 5-15                  [1, 80, 32, 32]           --
│    │    │    │    │    └─ConvNormActivation: 6-24     [1, 200, 32, 32]          --
│    │    │    │    │    │    └─Conv2d: 7-54            [1, 200, 32, 32]          16,000
│    │    │    │    │    │    └─BatchNorm2d: 7-55       [1, 200, 32, 32]          400
│    │    │    │    │    │    └─ReLU: 7-56              [1, 200, 32, 32]          --
│    │    │    │    │    └─ConvNormActivation: 6-25     [1, 200, 32, 32]          --
│    │    │    │    │    │    └─Conv2d: 7-57            [1, 200, 32, 32]          1,800
│    │    │    │    │    │    └─BatchNorm2d: 7-58       [1, 200, 32, 32]          400
│    │    │    │    │    │    └─ReLU: 7-59              [1, 200, 32, 32]          --
│    │    │    │    │    └─ConvNormActivation: 6-26     [1, 80, 32, 32]           --
│    │    │    │    │    │    └─Conv2d: 7-60            [1, 80, 32, 32]           16,000
│    │    │    │    │    │    └─BatchNorm2d: 7-61       [1, 80, 32, 32]           160
│    │    │    │    └─AddBlock: 5-16                    [1, 80, 32, 32]           --
│    │    │    └─InvertedResidual: 4-10                 [1, 80, 32, 32]           --
│    │    │    │    └─Sequential: 5-17                  [1, 80, 32, 32]           --
│    │    │    │    │    └─ConvNormActivation: 6-27     [1, 184, 32, 32]          --
│    │    │    │    │    │    └─Conv2d: 7-62            [1, 184, 32, 32]          14,720
│    │    │    │    │    │    └─BatchNorm2d: 7-63       [1, 184, 32, 32]          368
│    │    │    │    │    │    └─ReLU: 7-64              [1, 184, 32, 32]          --
│    │    │    │    │    └─ConvNormActivation: 6-28     [1, 184, 32, 32]          --
│    │    │    │    │    │    └─Conv2d: 7-65            [1, 184, 32, 32]          1,656
│    │    │    │    │    │    └─BatchNorm2d: 7-66       [1, 184, 32, 32]          368
│    │    │    │    │    │    └─ReLU: 7-67              [1, 184, 32, 32]          --
│    │    │    │    │    └─ConvNormActivation: 6-29     [1, 80, 32, 32]           --
│    │    │    │    │    │    └─Conv2d: 7-68            [1, 80, 32, 32]           14,720
│    │    │    │    │    │    └─BatchNorm2d: 7-69       [1, 80, 32, 32]           160
│    │    │    │    └─AddBlock: 5-18                    [1, 80, 32, 32]           --
│    │    │    └─InvertedResidual: 4-11                 [1, 80, 32, 32]           --
│    │    │    │    └─Sequential: 5-19                  [1, 80, 32, 32]           --
│    │    │    │    │    └─ConvNormActivation: 6-30     [1, 184, 32, 32]          --
│    │    │    │    │    │    └─Conv2d: 7-70            [1, 184, 32, 32]          14,720
│    │    │    │    │    │    └─BatchNorm2d: 7-71       [1, 184, 32, 32]          368
│    │    │    │    │    │    └─ReLU: 7-72              [1, 184, 32, 32]          --
│    │    │    │    │    └─ConvNormActivation: 6-31     [1, 184, 32, 32]          --
│    │    │    │    │    │    └─Conv2d: 7-73            [1, 184, 32, 32]          1,656
│    │    │    │    │    │    └─BatchNorm2d: 7-74       [1, 184, 32, 32]          368
│    │    │    │    │    │    └─ReLU: 7-75              [1, 184, 32, 32]          --
│    │    │    │    │    └─ConvNormActivation: 6-32     [1, 80, 32, 32]           --
│    │    │    │    │    │    └─Conv2d: 7-76            [1, 80, 32, 32]           14,720
│    │    │    │    │    │    └─BatchNorm2d: 7-77       [1, 80, 32, 32]           160
│    │    │    │    └─AddBlock: 5-20                    [1, 80, 32, 32]           --
│    │    │    └─InvertedResidual: 4-12                 [1, 112, 32, 32]          --
│    │    │    │    └─Sequential: 5-21                  [1, 112, 32, 32]          --
│    │    │    │    │    └─ConvNormActivation: 6-33     [1, 480, 32, 32]          --
│    │    │    │    │    │    └─Conv2d: 7-78            [1, 480, 32, 32]          38,400
│    │    │    │    │    │    └─BatchNorm2d: 7-79       [1, 480, 32, 32]          960
│    │    │    │    │    │    └─ReLU: 7-80              [1, 480, 32, 32]          --
│    │    │    │    │    └─ConvNormActivation: 6-34     [1, 480, 32, 32]          --
│    │    │    │    │    │    └─Conv2d: 7-81            [1, 480, 32, 32]          4,320
│    │    │    │    │    │    └─BatchNorm2d: 7-82       [1, 480, 32, 32]          960
│    │    │    │    │    │    └─ReLU: 7-83              [1, 480, 32, 32]          --
│    │    │    │    │    └─Identity: 6-35               [1, 480, 32, 32]          --
│    │    │    │    │    └─ConvNormActivation: 6-36     [1, 112, 32, 32]          --
│    │    │    │    │    │    └─Conv2d: 7-84            [1, 112, 32, 32]          53,760
│    │    │    │    │    │    └─BatchNorm2d: 7-85       [1, 112, 32, 32]          224
│    │    │    └─InvertedResidual: 4-13                 [1, 112, 32, 32]          --
│    │    │    │    └─Sequential: 5-22                  [1, 112, 32, 32]          --
│    │    │    │    │    └─ConvNormActivation: 6-37     [1, 672, 32, 32]          --
│    │    │    │    │    │    └─Conv2d: 7-86            [1, 672, 32, 32]          75,264
│    │    │    │    │    │    └─BatchNorm2d: 7-87       [1, 672, 32, 32]          1,344
│    │    │    │    │    │    └─ReLU: 7-88              [1, 672, 32, 32]          --
│    │    │    │    │    └─ConvNormActivation: 6-38     [1, 672, 32, 32]          --
│    │    │    │    │    │    └─Conv2d: 7-89            [1, 672, 32, 32]          6,048
│    │    │    │    │    │    └─BatchNorm2d: 7-90       [1, 672, 32, 32]          1,344
│    │    │    │    │    │    └─ReLU: 7-91              [1, 672, 32, 32]          --
│    │    │    │    │    └─Identity: 6-39               [1, 672, 32, 32]          --
│    │    │    │    │    └─ConvNormActivation: 6-40     [1, 112, 32, 32]          --
│    │    │    │    │    │    └─Conv2d: 7-92            [1, 112, 32, 32]          75,264
│    │    │    │    │    │    └─BatchNorm2d: 7-93       [1, 112, 32, 32]          224
│    │    │    │    └─AddBlock: 5-23                    [1, 112, 32, 32]          --
│    │    │    └─ConvNormActivation: 4-14               [1, 672, 32, 32]          --
│    │    │    │    └─Conv2d: 5-24                      [1, 672, 32, 32]          75,264
│    │    │    │    └─BatchNorm2d: 5-25                 [1, 672, 32, 32]          1,344
│    │    │    │    └─ReLU: 5-26                        [1, 672, 32, 32]          --
│    │    └─Sequential: 3-4                             [1, 960, 16, 16]          --
│    │    │    └─Sequential: 4-15                       [1, 160, 16, 16]          --
│    │    │    │    └─ConvNormActivation: 5-27          [1, 672, 16, 16]          --
│    │    │    │    │    └─Conv2d: 6-41                 [1, 672, 16, 16]          16,800
│    │    │    │    │    └─BatchNorm2d: 6-42            [1, 672, 16, 16]          1,344
│    │    │    │    │    └─ReLU: 6-43                   [1, 672, 16, 16]          --
│    │    │    │    └─Identity: 5-28                    [1, 672, 16, 16]          --
│    │    │    │    └─ConvNormActivation: 5-29          [1, 160, 16, 16]          --
│    │    │    │    │    └─Conv2d: 6-44                 [1, 160, 16, 16]          107,520
│    │    │    │    │    └─BatchNorm2d: 6-45            [1, 160, 16, 16]          320
│    │    │    └─InvertedResidual: 4-16                 [1, 160, 16, 16]          --
│    │    │    │    └─Sequential: 5-30                  [1, 160, 16, 16]          --
│    │    │    │    │    └─ConvNormActivation: 6-46     [1, 960, 16, 16]          --
│    │    │    │    │    │    └─Conv2d: 7-94            [1, 960, 16, 16]          153,600
│    │    │    │    │    │    └─BatchNorm2d: 7-95       [1, 960, 16, 16]          1,920
│    │    │    │    │    │    └─ReLU: 7-96              [1, 960, 16, 16]          --
│    │    │    │    │    └─ConvNormActivation: 6-47     [1, 960, 16, 16]          --
│    │    │    │    │    │    └─Conv2d: 7-97            [1, 960, 16, 16]          24,000
│    │    │    │    │    │    └─BatchNorm2d: 7-98       [1, 960, 16, 16]          1,920
│    │    │    │    │    │    └─ReLU: 7-99              [1, 960, 16, 16]          --
│    │    │    │    │    └─Identity: 6-48               [1, 960, 16, 16]          --
│    │    │    │    │    └─ConvNormActivation: 6-49     [1, 160, 16, 16]          --
│    │    │    │    │    │    └─Conv2d: 7-100           [1, 160, 16, 16]          153,600
│    │    │    │    │    │    └─BatchNorm2d: 7-101      [1, 160, 16, 16]          320
│    │    │    │    └─AddBlock: 5-31                    [1, 160, 16, 16]          --
│    │    │    └─InvertedResidual: 4-17                 [1, 160, 16, 16]          --
│    │    │    │    └─Sequential: 5-32                  [1, 160, 16, 16]          --
│    │    │    │    │    └─ConvNormActivation: 6-50     [1, 960, 16, 16]          --
│    │    │    │    │    │    └─Conv2d: 7-102           [1, 960, 16, 16]          153,600
│    │    │    │    │    │    └─BatchNorm2d: 7-103      [1, 960, 16, 16]          1,920
│    │    │    │    │    │    └─ReLU: 7-104             [1, 960, 16, 16]          --
│    │    │    │    │    └─ConvNormActivation: 6-51     [1, 960, 16, 16]          --
│    │    │    │    │    │    └─Conv2d: 7-105           [1, 960, 16, 16]          24,000
│    │    │    │    │    │    └─BatchNorm2d: 7-106      [1, 960, 16, 16]          1,920
│    │    │    │    │    │    └─ReLU: 7-107             [1, 960, 16, 16]          --
│    │    │    │    │    └─Identity: 6-52               [1, 960, 16, 16]          --
│    │    │    │    │    └─ConvNormActivation: 6-53     [1, 160, 16, 16]          --
│    │    │    │    │    │    └─Conv2d: 7-108           [1, 160, 16, 16]          153,600
│    │    │    │    │    │    └─BatchNorm2d: 7-109      [1, 160, 16, 16]          320
│    │    │    │    └─AddBlock: 5-33                    [1, 160, 16, 16]          --
│    │    │    └─ConvNormActivation: 4-18               [1, 960, 16, 16]          --
│    │    │    │    └─Conv2d: 5-34                      [1, 960, 16, 16]          153,600
│    │    │    │    └─BatchNorm2d: 5-35                 [1, 960, 16, 16]          1,920
│    │    │    │    └─ReLU: 5-36                        [1, 960, 16, 16]          --
│    └─ModuleList: 2-1                                  --                        --
│    │    └─Sequential: 3-5                             [1, 512, 8, 8]            --
│    │    │    └─ConvNormActivation: 4-19               [1, 256, 16, 16]          --
│    │    │    │    └─Conv2d: 5-37                      [1, 256, 16, 16]          245,760
│    │    │    │    └─BatchNorm2d: 5-38                 [1, 256, 16, 16]          512
│    │    │    │    └─ReLU: 5-39                        [1, 256, 16, 16]          --
│    │    │    └─ConvNormActivation: 4-20               [1, 256, 8, 8]            --
│    │    │    │    └─Conv2d: 5-40                      [1, 256, 8, 8]            2,304
│    │    │    │    └─BatchNorm2d: 5-41                 [1, 256, 8, 8]            512
│    │    │    │    └─ReLU: 5-42                        [1, 256, 8, 8]            --
│    │    │    └─ConvNormActivation: 4-21               [1, 512, 8, 8]            --
│    │    │    │    └─Conv2d: 5-43                      [1, 512, 8, 8]            131,072
│    │    │    │    └─BatchNorm2d: 5-44                 [1, 512, 8, 8]            1,024
│    │    │    │    └─ReLU: 5-45                        [1, 512, 8, 8]            --
│    │    └─Sequential: 3-6                             [1, 256, 4, 4]            --
│    │    │    └─ConvNormActivation: 4-22               [1, 128, 8, 8]            --
│    │    │    │    └─Conv2d: 5-46                      [1, 128, 8, 8]            65,536
│    │    │    │    └─BatchNorm2d: 5-47                 [1, 128, 8, 8]            256
│    │    │    │    └─ReLU: 5-48                        [1, 128, 8, 8]            --
│    │    │    └─ConvNormActivation: 4-23               [1, 128, 4, 4]            --
│    │    │    │    └─Conv2d: 5-49                      [1, 128, 4, 4]            1,152
│    │    │    │    └─BatchNorm2d: 5-50                 [1, 128, 4, 4]            256
│    │    │    │    └─ReLU: 5-51                        [1, 128, 4, 4]            --
│    │    │    └─ConvNormActivation: 4-24               [1, 256, 4, 4]            --
│    │    │    │    └─Conv2d: 5-52                      [1, 256, 4, 4]            32,768
│    │    │    │    └─BatchNorm2d: 5-53                 [1, 256, 4, 4]            512
│    │    │    │    └─ReLU: 5-54                        [1, 256, 4, 4]            --
│    │    └─Sequential: 3-7                             [1, 256, 2, 2]            --
│    │    │    └─ConvNormActivation: 4-25               [1, 128, 4, 4]            --
│    │    │    │    └─Conv2d: 5-55                      [1, 128, 4, 4]            32,768
│    │    │    │    └─BatchNorm2d: 5-56                 [1, 128, 4, 4]            256
│    │    │    │    └─ReLU: 5-57                        [1, 128, 4, 4]            --
│    │    │    └─ConvNormActivation: 4-26               [1, 128, 2, 2]            --
│    │    │    │    └─Conv2d: 5-58                      [1, 128, 2, 2]            1,152
│    │    │    │    └─BatchNorm2d: 5-59                 [1, 128, 2, 2]            256
│    │    │    │    └─ReLU: 5-60                        [1, 128, 2, 2]            --
│    │    │    └─ConvNormActivation: 4-27               [1, 256, 2, 2]            --
│    │    │    │    └─Conv2d: 5-61                      [1, 256, 2, 2]            32,768
│    │    │    │    └─BatchNorm2d: 5-62                 [1, 256, 2, 2]            512
│    │    │    │    └─ReLU: 5-63                        [1, 256, 2, 2]            --
│    │    └─Sequential: 3-8                             [1, 128, 1, 1]            --
│    │    │    └─ConvNormActivation: 4-28               [1, 64, 2, 2]             --
│    │    │    │    └─Conv2d: 5-64                      [1, 64, 2, 2]             16,384
│    │    │    │    └─BatchNorm2d: 5-65                 [1, 64, 2, 2]             128
│    │    │    │    └─ReLU: 5-66                        [1, 64, 2, 2]             --
│    │    │    └─ConvNormActivation: 4-29               [1, 64, 1, 1]             --
│    │    │    │    └─Conv2d: 5-67                      [1, 64, 1, 1]             576
│    │    │    │    └─BatchNorm2d: 5-68                 [1, 64, 1, 1]             128
│    │    │    │    └─ReLU: 5-69                        [1, 64, 1, 1]             --
│    │    │    └─ConvNormActivation: 4-30               [1, 128, 1, 1]            --
│    │    │    │    └─Conv2d: 5-70                      [1, 128, 1, 1]            8,192
│    │    │    │    └─BatchNorm2d: 5-71                 [1, 128, 1, 1]            256
│    │    │    │    └─ReLU: 5-72                        [1, 128, 1, 1]            --
├─SSDLiteHead: 1-3                                      [1, 8190, 91]             --
│    └─SSDLiteRegressionHead: 2-2                       [1, 8190, 4]              --
│    │    └─ModuleList: 3-2                             --                        --
│    │    │    └─Sequential: 4-31                       [1, 24, 32, 32]           --
│    │    │    │    └─ConvNormActivation: 5-73          [1, 672, 32, 32]          --
│    │    │    │    │    └─Conv2d: 6-54                 [1, 672, 32, 32]          6,048
│    │    │    │    │    └─BatchNorm2d: 6-55            [1, 672, 32, 32]          1,344
│    │    │    │    │    └─ReLU: 6-56                   [1, 672, 32, 32]          --
│    │    │    │    └─Conv2d: 5-74                      [1, 24, 32, 32]           16,152
│    │    │    └─Sequential: 4-32                       [1, 24, 16, 16]           --
│    │    │    │    └─ConvNormActivation: 5-75          [1, 960, 16, 16]          --
│    │    │    │    │    └─Conv2d: 6-57                 [1, 960, 16, 16]          8,640
│    │    │    │    │    └─BatchNorm2d: 6-58            [1, 960, 16, 16]          1,920
│    │    │    │    │    └─ReLU: 6-59                   [1, 960, 16, 16]          --
│    │    │    │    └─Conv2d: 5-76                      [1, 24, 16, 16]           23,064
│    │    │    └─Sequential: 4-33                       [1, 24, 8, 8]             --
│    │    │    │    └─ConvNormActivation: 5-77          [1, 512, 8, 8]            --
│    │    │    │    │    └─Conv2d: 6-60                 [1, 512, 8, 8]            4,608
│    │    │    │    │    └─BatchNorm2d: 6-61            [1, 512, 8, 8]            1,024
│    │    │    │    │    └─ReLU: 6-62                   [1, 512, 8, 8]            --
│    │    │    │    └─Conv2d: 5-78                      [1, 24, 8, 8]             12,312
│    │    │    └─Sequential: 4-34                       [1, 24, 4, 4]             --
│    │    │    │    └─ConvNormActivation: 5-79          [1, 256, 4, 4]            --
│    │    │    │    │    └─Conv2d: 6-63                 [1, 256, 4, 4]            2,304
│    │    │    │    │    └─BatchNorm2d: 6-64            [1, 256, 4, 4]            512
│    │    │    │    │    └─ReLU: 6-65                   [1, 256, 4, 4]            --
│    │    │    │    └─Conv2d: 5-80                      [1, 24, 4, 4]             6,168
│    │    │    └─Sequential: 4-35                       [1, 24, 2, 2]             --
│    │    │    │    └─ConvNormActivation: 5-81          [1, 256, 2, 2]            --
│    │    │    │    │    └─Conv2d: 6-66                 [1, 256, 2, 2]            2,304
│    │    │    │    │    └─BatchNorm2d: 6-67            [1, 256, 2, 2]            512
│    │    │    │    │    └─ReLU: 6-68                   [1, 256, 2, 2]            --
│    │    │    │    └─Conv2d: 5-82                      [1, 24, 2, 2]             6,168
│    │    │    └─Sequential: 4-36                       [1, 24, 1, 1]             --
│    │    │    │    └─ConvNormActivation: 5-83          [1, 128, 1, 1]            --
│    │    │    │    │    └─Conv2d: 6-69                 [1, 128, 1, 1]            1,152
│    │    │    │    │    └─BatchNorm2d: 6-70            [1, 128, 1, 1]            256
│    │    │    │    │    └─ReLU: 6-71                   [1, 128, 1, 1]            --
│    │    │    │    └─Conv2d: 5-84                      [1, 24, 1, 1]             3,096
│    └─SSDLiteClassificationHead: 2-3                   [1, 8190, 91]             --
│    │    └─ModuleList: 3-1                             --                        --
│    │    │    └─Sequential: 4-37                       [1, 546, 32, 32]          --
│    │    │    │    └─ConvNormActivation: 5-85          [1, 672, 32, 32]          --
│    │    │    │    │    └─Conv2d: 6-72                 [1, 672, 32, 32]          6,048
│    │    │    │    │    └─BatchNorm2d: 6-73            [1, 672, 32, 32]          1,344
│    │    │    │    │    └─ReLU: 6-74                   [1, 672, 32, 32]          --
│    │    │    │    └─Conv2d: 5-86                      [1, 546, 32, 32]          367,458
│    │    │    └─Sequential: 4-38                       [1, 546, 16, 16]          --
│    │    │    │    └─ConvNormActivation: 5-87          [1, 960, 16, 16]          --
│    │    │    │    │    └─Conv2d: 6-75                 [1, 960, 16, 16]          8,640
│    │    │    │    │    └─BatchNorm2d: 6-76            [1, 960, 16, 16]          1,920
│    │    │    │    │    └─ReLU: 6-77                   [1, 960, 16, 16]          --
│    │    │    │    └─Conv2d: 5-88                      [1, 546, 16, 16]          524,706
│    │    │    └─Sequential: 4-39                       [1, 546, 8, 8]            --
│    │    │    │    └─ConvNormActivation: 5-89          [1, 512, 8, 8]            --
│    │    │    │    │    └─Conv2d: 6-78                 [1, 512, 8, 8]            4,608
│    │    │    │    │    └─BatchNorm2d: 6-79            [1, 512, 8, 8]            1,024
│    │    │    │    │    └─ReLU: 6-80                   [1, 512, 8, 8]            --
│    │    │    │    └─Conv2d: 5-90                      [1, 546, 8, 8]            280,098
│    │    │    └─Sequential: 4-40                       [1, 546, 4, 4]            --
│    │    │    │    └─ConvNormActivation: 5-91          [1, 256, 4, 4]            --
│    │    │    │    │    └─Conv2d: 6-81                 [1, 256, 4, 4]            2,304
│    │    │    │    │    └─BatchNorm2d: 6-82            [1, 256, 4, 4]            512
│    │    │    │    │    └─ReLU: 6-83                   [1, 256, 4, 4]            --
│    │    │    │    └─Conv2d: 5-92                      [1, 546, 4, 4]            140,322
│    │    │    └─Sequential: 4-41                       [1, 546, 2, 2]            --
│    │    │    │    └─ConvNormActivation: 5-93          [1, 256, 2, 2]            --
│    │    │    │    │    └─Conv2d: 6-84                 [1, 256, 2, 2]            2,304
│    │    │    │    │    └─BatchNorm2d: 6-85            [1, 256, 2, 2]            512
│    │    │    │    │    └─ReLU: 6-86                   [1, 256, 2, 2]            --
│    │    │    │    └─Conv2d: 5-94                      [1, 546, 2, 2]            140,322
│    │    │    └─Sequential: 4-42                       [1, 546, 1, 1]            --
│    │    │    │    └─ConvNormActivation: 5-95          [1, 128, 1, 1]            --
│    │    │    │    │    └─Conv2d: 6-87                 [1, 128, 1, 1]            1,152
│    │    │    │    │    └─BatchNorm2d: 6-88            [1, 128, 1, 1]            256
│    │    │    │    │    └─ReLU: 6-89                   [1, 128, 1, 1]            --
│    │    │    │    └─Conv2d: 5-96                      [1, 546, 1, 1]            70,434
├─DefaultBoxGenerator: 1-4                              [8190, 4]                 --
=========================================================================================================
Total params: 3,686,260
Trainable params: 3,686,260
Non-trainable params: 0
Total mult-adds (G): 1.76
=========================================================================================================
Input size (MB): 3.15
Forward/backward pass size (MB): 407.24
Params size (MB): 14.75
…
