…
    ModuleList: 2-5                                  --                        --
YOLOXHead: 1                                          --                        --
    ModuleList: 2-6                                  --                        --
    ModuleList: 2-7                                  --                        --
    ModuleList: 2-8                                  --                        --
    ModuleList: 2-9                                  --                        --
    ModuleList: 2-10                                 --                        --
CSPDarknet: 1-1                                       [1, 192, 80, 80]          --
    FocusLite: 2-11                                  [1, 48, 320, 320]         --
        ConvModule: 3-1                             [1, 12, 320, 320]         --
            Conv2d: 4-2                            [1, 12, 320, 320]         324
            BatchNorm2d: 4-3                       [1, 12, 320, 320]         24
        ConvModule: 3-2                             [1, 48, 320, 320]         --
            Conv2d: 4-4                            [1, 48, 320, 320]         5,184
            BatchNorm2d: 4-5                       [1, 48, 320, 320]         96
            ReLU: 4-6                              [1, 48, 320, 320]         --
    Sequential: 2-12                                 [1, 96, 160, 160]         --
        ConvModule: 3-3                             [1, 96, 160, 160]         --
            Conv2d: 4-7                            [1, 96, 160, 160]         41,472
            BatchNorm2d: 4-8                       [1, 96, 160, 160]         192
            ReLU: 4-9                              [1, 96, 160, 160]         --
        CSPLayer: 3-4                               [1, 96, 160, 160]         --
            ConvModule: 4-10                       [1, 48, 160, 160]         --
                Conv2d: 5-1                       [1, 48, 160, 160]         4,608
                BatchNorm2d: 5-2                  [1, 48, 160, 160]         96
                ReLU: 5-3                         [1, 48, 160, 160]         --
            ConvModule: 4-11                       [1, 48, 160, 160]         --
                Conv2d: 5-4                       [1, 48, 160, 160]         4,608
                BatchNorm2d: 5-5                  [1, 48, 160, 160]         96
                ReLU: 5-6                         [1, 48, 160, 160]         --
            Sequential: 4-12                       [1, 48, 160, 160]         --
                DarknetBottleneck: 5-7            [1, 48, 160, 160]         --
                    ConvModule: 6-1              [1, 48, 160, 160]         --
                        Conv2d: 7-1             [1, 48, 160, 160]         2,304
                        BatchNorm2d: 7-2        [1, 48, 160, 160]         96
                        ReLU: 7-3               [1, 48, 160, 160]         --
                    ConvModule: 6-2              [1, 48, 160, 160]         --
                        Conv2d: 7-4             [1, 48, 160, 160]         20,736
                        BatchNorm2d: 7-5        [1, 48, 160, 160]         96
                        ReLU: 7-6               [1, 48, 160, 160]         --
                DarknetBottleneck: 5-8            [1, 48, 160, 160]         --
                    ConvModule: 6-3              [1, 48, 160, 160]         --
                        Conv2d: 7-7             [1, 48, 160, 160]         2,304
                        BatchNorm2d: 7-8        [1, 48, 160, 160]         96
                        ReLU: 7-9               [1, 48, 160, 160]         --
                    ConvModule: 6-4              [1, 48, 160, 160]         --
                        Conv2d: 7-10            [1, 48, 160, 160]         20,736
                        BatchNorm2d: 7-11       [1, 48, 160, 160]         96
                        ReLU: 7-12              [1, 48, 160, 160]         --
            ConvModule: 4-13                       [1, 96, 160, 160]         --
                Conv2d: 5-9                       [1, 96, 160, 160]         9,216
                BatchNorm2d: 5-10                 [1, 96, 160, 160]         192
                ReLU: 5-11                        [1, 96, 160, 160]         --
    Sequential: 2-13                                 [1, 192, 80, 80]          --
        ConvModule: 3-5                             [1, 192, 80, 80]          --
            Conv2d: 4-14                           [1, 192, 80, 80]          165,888
            BatchNorm2d: 4-15                      [1, 192, 80, 80]          384
            ReLU: 4-16                             [1, 192, 80, 80]          --
        CSPLayer: 3-6                               [1, 192, 80, 80]          --
            ConvModule: 4-17                       [1, 96, 80, 80]           --
                Conv2d: 5-12                      [1, 96, 80, 80]           18,432
                BatchNorm2d: 5-13                 [1, 96, 80, 80]           192
                ReLU: 5-14                        [1, 96, 80, 80]           --
            ConvModule: 4-18                       [1, 96, 80, 80]           --
                Conv2d: 5-15                      [1, 96, 80, 80]           18,432
                BatchNorm2d: 5-16                 [1, 96, 80, 80]           192
                ReLU: 5-17                        [1, 96, 80, 80]           --
            Sequential: 4-19                       [1, 96, 80, 80]           --
                DarknetBottleneck: 5-18           [1, 96, 80, 80]           --
                    ConvModule: 6-5              [1, 96, 80, 80]           --
                        Conv2d: 7-13            [1, 96, 80, 80]           9,216
                        BatchNorm2d: 7-14       [1, 96, 80, 80]           192
                        ReLU: 7-15              [1, 96, 80, 80]           --
                    ConvModule: 6-6              [1, 96, 80, 80]           --
                        Conv2d: 7-16            [1, 96, 80, 80]           82,944
                        BatchNorm2d: 7-17       [1, 96, 80, 80]           192
                        ReLU: 7-18              [1, 96, 80, 80]           --
                DarknetBottleneck: 5-19           [1, 96, 80, 80]           --
                    ConvModule: 6-7              [1, 96, 80, 80]           --
                        Conv2d: 7-19            [1, 96, 80, 80]           9,216
                        BatchNorm2d: 7-20       [1, 96, 80, 80]           192
                        ReLU: 7-21              [1, 96, 80, 80]           --
                    ConvModule: 6-8              [1, 96, 80, 80]           --
                        Conv2d: 7-22            [1, 96, 80, 80]           82,944
                        BatchNorm2d: 7-23       [1, 96, 80, 80]           192
                        ReLU: 7-24              [1, 96, 80, 80]           --
                DarknetBottleneck: 5-20           [1, 96, 80, 80]           --
                    ConvModule: 6-9              [1, 96, 80, 80]           --
                        Conv2d: 7-25            [1, 96, 80, 80]           9,216
                        BatchNorm2d: 7-26       [1, 96, 80, 80]           192
                        ReLU: 7-27              [1, 96, 80, 80]           --
                    ConvModule: 6-10             [1, 96, 80, 80]           --
                        Conv2d: 7-28            [1, 96, 80, 80]           82,944
                        BatchNorm2d: 7-29       [1, 96, 80, 80]           192
                        ReLU: 7-30              [1, 96, 80, 80]           --
                DarknetBottleneck: 5-21           [1, 96, 80, 80]           --
                    ConvModule: 6-11             [1, 96, 80, 80]           --
                        Conv2d: 7-31            [1, 96, 80, 80]           9,216
                        BatchNorm2d: 7-32       [1, 96, 80, 80]           192
                        ReLU: 7-33              [1, 96, 80, 80]           --
                    ConvModule: 6-12             [1, 96, 80, 80]           --
                        Conv2d: 7-34            [1, 96, 80, 80]           82,944
                        BatchNorm2d: 7-35       [1, 96, 80, 80]           192
                        ReLU: 7-36              [1, 96, 80, 80]           --
                DarknetBottleneck: 5-22           [1, 96, 80, 80]           --
                    ConvModule: 6-13             [1, 96, 80, 80]           --
                        Conv2d: 7-37            [1, 96, 80, 80]           9,216
                        BatchNorm2d: 7-38       [1, 96, 80, 80]           192
                        ReLU: 7-39              [1, 96, 80, 80]           --
                    ConvModule: 6-14             [1, 96, 80, 80]           --
                        Conv2d: 7-40            [1, 96, 80, 80]           82,944
                        BatchNorm2d: 7-41       [1, 96, 80, 80]           192
                        ReLU: 7-42              [1, 96, 80, 80]           --
                DarknetBottleneck: 5-23           [1, 96, 80, 80]           --
                    ConvModule: 6-15             [1, 96, 80, 80]           --
                        Conv2d: 7-43            [1, 96, 80, 80]           9,216
                        BatchNorm2d: 7-44       [1, 96, 80, 80]           192
                        ReLU: 7-45              [1, 96, 80, 80]           --
                    ConvModule: 6-16             [1, 96, 80, 80]           --
                        Conv2d: 7-46            [1, 96, 80, 80]           82,944
                        BatchNorm2d: 7-47       [1, 96, 80, 80]           192
                        ReLU: 7-48              [1, 96, 80, 80]           --
            ConvModule: 4-20                       [1, 192, 80, 80]          --
                Conv2d: 5-24                      [1, 192, 80, 80]          36,864
                BatchNorm2d: 5-25                 [1, 192, 80, 80]          384
                ReLU: 5-26                        [1, 192, 80, 80]          --
    Sequential: 2-14                                 [1, 384, 40, 40]          --
        ConvModule: 3-7                             [1, 384, 40, 40]          --
            Conv2d: 4-21                           [1, 384, 40, 40]          663,552
            BatchNorm2d: 4-22                      [1, 384, 40, 40]          768
            ReLU: 4-23                             [1, 384, 40, 40]          --
        CSPLayer: 3-8                               [1, 384, 40, 40]          --
            ConvModule: 4-24                       [1, 192, 40, 40]          --
                Conv2d: 5-27                      [1, 192, 40, 40]          73,728
                BatchNorm2d: 5-28                 [1, 192, 40, 40]          384
                ReLU: 5-29                        [1, 192, 40, 40]          --
            ConvModule: 4-25                       [1, 192, 40, 40]          --
                Conv2d: 5-30                      [1, 192, 40, 40]          73,728
                BatchNorm2d: 5-31                 [1, 192, 40, 40]          384
                ReLU: 5-32                        [1, 192, 40, 40]          --
            Sequential: 4-26                       [1, 192, 40, 40]          --
                DarknetBottleneck: 5-33           [1, 192, 40, 40]          --
                    ConvModule: 6-17             [1, 192, 40, 40]          --
                        Conv2d: 7-49            [1, 192, 40, 40]          36,864
                        BatchNorm2d: 7-50       [1, 192, 40, 40]          384
                        ReLU: 7-51              [1, 192, 40, 40]          --
                    ConvModule: 6-18             [1, 192, 40, 40]          --
                        Conv2d: 7-52            [1, 192, 40, 40]          331,776
                        BatchNorm2d: 7-53       [1, 192, 40, 40]          384
                        ReLU: 7-54              [1, 192, 40, 40]          --
                DarknetBottleneck: 5-34           [1, 192, 40, 40]          --
                    ConvModule: 6-19             [1, 192, 40, 40]          --
                        Conv2d: 7-55            [1, 192, 40, 40]          36,864
                        BatchNorm2d: 7-56       [1, 192, 40, 40]          384
                        ReLU: 7-57              [1, 192, 40, 40]          --
                    ConvModule: 6-20             [1, 192, 40, 40]          --
                        Conv2d: 7-58            [1, 192, 40, 40]          331,776
                        BatchNorm2d: 7-59       [1, 192, 40, 40]          384
                        ReLU: 7-60              [1, 192, 40, 40]          --
                DarknetBottleneck: 5-35           [1, 192, 40, 40]          --
                    ConvModule: 6-21             [1, 192, 40, 40]          --
                        Conv2d: 7-61            [1, 192, 40, 40]          36,864
                        BatchNorm2d: 7-62       [1, 192, 40, 40]          384
                        ReLU: 7-63              [1, 192, 40, 40]          --
                    ConvModule: 6-22             [1, 192, 40, 40]          --
                        Conv2d: 7-64            [1, 192, 40, 40]          331,776
                        BatchNorm2d: 7-65       [1, 192, 40, 40]          384
                        ReLU: 7-66              [1, 192, 40, 40]          --
                DarknetBottleneck: 5-36           [1, 192, 40, 40]          --
                    ConvModule: 6-23             [1, 192, 40, 40]          --
                        Conv2d: 7-67            [1, 192, 40, 40]          36,864
                        BatchNorm2d: 7-68       [1, 192, 40, 40]          384
                        ReLU: 7-69              [1, 192, 40, 40]          --
                    ConvModule: 6-24             [1, 192, 40, 40]          --
                        Conv2d: 7-70            [1, 192, 40, 40]          331,776
                        BatchNorm2d: 7-71       [1, 192, 40, 40]          384
                        ReLU: 7-72              [1, 192, 40, 40]          --
                DarknetBottleneck: 5-37           [1, 192, 40, 40]          --
                    ConvModule: 6-25             [1, 192, 40, 40]          --
                        Conv2d: 7-73            [1, 192, 40, 40]          36,864
                        BatchNorm2d: 7-74       [1, 192, 40, 40]          384
                        ReLU: 7-75              [1, 192, 40, 40]          --
                    ConvModule: 6-26             [1, 192, 40, 40]          --
                        Conv2d: 7-76            [1, 192, 40, 40]          331,776
                        BatchNorm2d: 7-77       [1, 192, 40, 40]          384
                        ReLU: 7-78              [1, 192, 40, 40]          --
                DarknetBottleneck: 5-38           [1, 192, 40, 40]          --
                    ConvModule: 6-27             [1, 192, 40, 40]          --
                        Conv2d: 7-79            [1, 192, 40, 40]          36,864
                        BatchNorm2d: 7-80       [1, 192, 40, 40]          384
                        ReLU: 7-81              [1, 192, 40, 40]          --
                    ConvModule: 6-28             [1, 192, 40, 40]          --
                        Conv2d: 7-82            [1, 192, 40, 40]          331,776
                        BatchNorm2d: 7-83       [1, 192, 40, 40]          384
                        ReLU: 7-84              [1, 192, 40, 40]          --
            ConvModule: 4-27                       [1, 384, 40, 40]          --
                Conv2d: 5-39                      [1, 384, 40, 40]          147,456
                BatchNorm2d: 5-40                 [1, 384, 40, 40]          768
                ReLU: 5-41                        [1, 384, 40, 40]          --
    Sequential: 2-15                                 [1, 768, 20, 20]          --
        ConvModule: 3-9                             [1, 768, 20, 20]          --
            Conv2d: 4-28                           [1, 768, 20, 20]          2,654,208
            BatchNorm2d: 4-29                      [1, 768, 20, 20]          1,536
            ReLU: 4-30                             [1, 768, 20, 20]          --
        SPPBottleneck: 3-10                         [1, 768, 20, 20]          --
            ConvModule: 4-31                       [1, 384, 20, 20]          --
                Conv2d: 5-42                      [1, 384, 20, 20]          294,912
                BatchNorm2d: 5-43                 [1, 384, 20, 20]          768
                ReLU: 5-44                        [1, 384, 20, 20]          --
            ModuleList: 4-1                        --                        --
                SequentialMaxPool2d: 5-45         [1, 384, 20, 20]          --
                    MaxPool2d: 6-29              [1, 384, 20, 20]          --
                    MaxPool2d: 6-30              [1, 384, 20, 20]          --
                SequentialMaxPool2d: 5-46         [1, 384, 20, 20]          --
                    MaxPool2d: 6-31              [1, 384, 20, 20]          --
                    MaxPool2d: 6-32              [1, 384, 20, 20]          --
                    MaxPool2d: 6-33              [1, 384, 20, 20]          --
                    MaxPool2d: 6-34              [1, 384, 20, 20]          --
                SequentialMaxPool2d: 5-47         [1, 384, 20, 20]          --
                    MaxPool2d: 6-35              [1, 384, 20, 20]          --
                    MaxPool2d: 6-36              [1, 384, 20, 20]          --
                    MaxPool2d: 6-37              [1, 384, 20, 20]          --
                    MaxPool2d: 6-38              [1, 384, 20, 20]          --
                    MaxPool2d: 6-39              [1, 384, 20, 20]          --
                    MaxPool2d: 6-40              [1, 384, 20, 20]          --
            ConvModule: 4-32                       [1, 768, 20, 20]          --
                Conv2d: 5-48                      [1, 768, 20, 20]          1,179,648
                BatchNorm2d: 5-49                 [1, 768, 20, 20]          1,536
                ReLU: 5-50                        [1, 768, 20, 20]          --
        CSPLayer: 3-11                              [1, 768, 20, 20]          --
            ConvModule: 4-33                       [1, 384, 20, 20]          --
                Conv2d: 5-51                      [1, 384, 20, 20]          294,912
                BatchNorm2d: 5-52                 [1, 384, 20, 20]          768
                ReLU: 5-53                        [1, 384, 20, 20]          --
            ConvModule: 4-34                       [1, 384, 20, 20]          --
                Conv2d: 5-54                      [1, 384, 20, 20]          294,912
                BatchNorm2d: 5-55                 [1, 384, 20, 20]          768
                ReLU: 5-56                        [1, 384, 20, 20]          --
            Sequential: 4-35                       [1, 384, 20, 20]          --
                DarknetBottleneck: 5-57           [1, 384, 20, 20]          --
                    ConvModule: 6-41             [1, 384, 20, 20]          --
                        Conv2d: 7-85            [1, 384, 20, 20]          147,456
                        BatchNorm2d: 7-86       [1, 384, 20, 20]          768
                        ReLU: 7-87              [1, 384, 20, 20]          --
                    ConvModule: 6-42             [1, 384, 20, 20]          --
                        Conv2d: 7-88            [1, 384, 20, 20]          1,327,104
                        BatchNorm2d: 7-89       [1, 384, 20, 20]          768
                        ReLU: 7-90              [1, 384, 20, 20]          --
                DarknetBottleneck: 5-58           [1, 384, 20, 20]          --
                    ConvModule: 6-43             [1, 384, 20, 20]          --
                        Conv2d: 7-91            [1, 384, 20, 20]          147,456
                        BatchNorm2d: 7-92       [1, 384, 20, 20]          768
                        ReLU: 7-93              [1, 384, 20, 20]          --
                    ConvModule: 6-44             [1, 384, 20, 20]          --
                        Conv2d: 7-94            [1, 384, 20, 20]          1,327,104
                        BatchNorm2d: 7-95       [1, 384, 20, 20]          768
                        ReLU: 7-96              [1, 384, 20, 20]          --
            ConvModule: 4-36                       [1, 768, 20, 20]          --
                Conv2d: 5-59                      [1, 768, 20, 20]          589,824
                BatchNorm2d: 5-60                 [1, 768, 20, 20]          1,536
                ReLU: 5-61                        [1, 768, 20, 20]          --
YOLOXPAFPN: 1-2                                       [1, 192, 80, 80]          --
    ModuleList: 2-1                                  --                        --
        ConvModule: 3-12                            [1, 384, 20, 20]          --
            Conv2d: 4-37                           [1, 384, 20, 20]          294,912
            BatchNorm2d: 4-38                      [1, 384, 20, 20]          768
            ReLU: 4-39                             [1, 384, 20, 20]          --
    Upsample: 2-16                                   [1, 384, 40, 40]          --
    ModuleList: 2-2                                  --                        --
        CSPLayer: 3-13                              [1, 384, 40, 40]          --
            ConvModule: 4-40                       [1, 192, 40, 40]          --
                Conv2d: 5-62                      [1, 192, 40, 40]          147,456
                BatchNorm2d: 5-63                 [1, 192, 40, 40]          384
                ReLU: 5-64                        [1, 192, 40, 40]          --
            ConvModule: 4-41                       [1, 192, 40, 40]          --
                Conv2d: 5-65                      [1, 192, 40, 40]          147,456
                BatchNorm2d: 5-66                 [1, 192, 40, 40]          384
                ReLU: 5-67                        [1, 192, 40, 40]          --
            Sequential: 4-42                       [1, 192, 40, 40]          --
                DarknetBottleneck: 5-68           [1, 192, 40, 40]          --
                    ConvModule: 6-45             [1, 192, 40, 40]          --
                        Conv2d: 7-97            [1, 192, 40, 40]          36,864
                        BatchNorm2d: 7-98       [1, 192, 40, 40]          384
                        ReLU: 7-99              [1, 192, 40, 40]          --
                    ConvModule: 6-46             [1, 192, 40, 40]          --
                        Conv2d: 7-100           [1, 192, 40, 40]          331,776
                        BatchNorm2d: 7-101      [1, 192, 40, 40]          384
                        ReLU: 7-102             [1, 192, 40, 40]          --
                DarknetBottleneck: 5-69           [1, 192, 40, 40]          --
                    ConvModule: 6-47             [1, 192, 40, 40]          --
                        Conv2d: 7-103           [1, 192, 40, 40]          36,864
                        BatchNorm2d: 7-104      [1, 192, 40, 40]          384
                        ReLU: 7-105             [1, 192, 40, 40]          --
                    ConvModule: 6-48             [1, 192, 40, 40]          --
                        Conv2d: 7-106           [1, 192, 40, 40]          331,776
                        BatchNorm2d: 7-107      [1, 192, 40, 40]          384
                        ReLU: 7-108             [1, 192, 40, 40]          --
            ConvModule: 4-43                       [1, 384, 40, 40]          --
                Conv2d: 5-70                      [1, 384, 40, 40]          147,456
                BatchNorm2d: 5-71                 [1, 384, 40, 40]          768
                ReLU: 5-72                        [1, 384, 40, 40]          --
    ModuleList: 2-1                                  --                        --
        ConvModule: 3-14                            [1, 192, 40, 40]          --
            Conv2d: 4-44                           [1, 192, 40, 40]          73,728
            BatchNorm2d: 4-45                      [1, 192, 40, 40]          384
            ReLU: 4-46                             [1, 192, 40, 40]          --
    Upsample: 2-17                                   [1, 192, 80, 80]          --
    ModuleList: 2-2                                  --                        --
        CSPLayer: 3-15                              [1, 192, 80, 80]          --
            ConvModule: 4-47                       [1, 96, 80, 80]           --
                Conv2d: 5-73                      [1, 96, 80, 80]           36,864
                BatchNorm2d: 5-74                 [1, 96, 80, 80]           192
                ReLU: 5-75                        [1, 96, 80, 80]           --
            ConvModule: 4-48                       [1, 96, 80, 80]           --
                Conv2d: 5-76                      [1, 96, 80, 80]           36,864
                BatchNorm2d: 5-77                 [1, 96, 80, 80]           192
                ReLU: 5-78                        [1, 96, 80, 80]           --
            Sequential: 4-49                       [1, 96, 80, 80]           --
                DarknetBottleneck: 5-79           [1, 96, 80, 80]           --
                    ConvModule: 6-49             [1, 96, 80, 80]           --
                        Conv2d: 7-109           [1, 96, 80, 80]           9,216
                        BatchNorm2d: 7-110      [1, 96, 80, 80]           192
                        ReLU: 7-111             [1, 96, 80, 80]           --
                    ConvModule: 6-50             [1, 96, 80, 80]           --
                        Conv2d: 7-112           [1, 96, 80, 80]           82,944
                        BatchNorm2d: 7-113      [1, 96, 80, 80]           192
                        ReLU: 7-114             [1, 96, 80, 80]           --
                DarknetBottleneck: 5-80           [1, 96, 80, 80]           --
                    ConvModule: 6-51             [1, 96, 80, 80]           --
                        Conv2d: 7-115           [1, 96, 80, 80]           9,216
                        BatchNorm2d: 7-116      [1, 96, 80, 80]           192
                        ReLU: 7-117             [1, 96, 80, 80]           --
                    ConvModule: 6-52             [1, 96, 80, 80]           --
                        Conv2d: 7-118           [1, 96, 80, 80]           82,944
                        BatchNorm2d: 7-119      [1, 96, 80, 80]           192
                        ReLU: 7-120             [1, 96, 80, 80]           --
            ConvModule: 4-50                       [1, 192, 80, 80]          --
                Conv2d: 5-81                      [1, 192, 80, 80]          36,864
                BatchNorm2d: 5-82                 [1, 192, 80, 80]          384
                ReLU: 5-83                        [1, 192, 80, 80]          --
    ModuleList: 2-3                                  --                        --
        ConvModule: 3-16                            [1, 192, 40, 40]          --
            Conv2d: 4-51                           [1, 192, 40, 40]          331,776
            BatchNorm2d: 4-52                      [1, 192, 40, 40]          384
            ReLU: 4-53                             [1, 192, 40, 40]          --
    ModuleList: 2-4                                  --                        --
        CSPLayer: 3-17                              [1, 384, 40, 40]          --
            ConvModule: 4-54                       [1, 192, 40, 40]          --
                Conv2d: 5-84                      [1, 192, 40, 40]          73,728
                BatchNorm2d: 5-85                 [1, 192, 40, 40]          384
                ReLU: 5-86                        [1, 192, 40, 40]          --
            ConvModule: 4-55                       [1, 192, 40, 40]          --
                Conv2d: 5-87                      [1, 192, 40, 40]          73,728
                BatchNorm2d: 5-88                 [1, 192, 40, 40]          384
                ReLU: 5-89                        [1, 192, 40, 40]          --
            Sequential: 4-56                       [1, 192, 40, 40]          --
                DarknetBottleneck: 5-90           [1, 192, 40, 40]          --
                    ConvModule: 6-53             [1, 192, 40, 40]          --
                        Conv2d: 7-121           [1, 192, 40, 40]          36,864
                        BatchNorm2d: 7-122      [1, 192, 40, 40]          384
                        ReLU: 7-123             [1, 192, 40, 40]          --
                    ConvModule: 6-54             [1, 192, 40, 40]          --
                        Conv2d: 7-124           [1, 192, 40, 40]          331,776
                        BatchNorm2d: 7-125      [1, 192, 40, 40]          384
                        ReLU: 7-126             [1, 192, 40, 40]          --
                DarknetBottleneck: 5-91           [1, 192, 40, 40]          --
                    ConvModule: 6-55             [1, 192, 40, 40]          --
                        Conv2d: 7-127           [1, 192, 40, 40]          36,864
                        BatchNorm2d: 7-128      [1, 192, 40, 40]          384
                        ReLU: 7-129             [1, 192, 40, 40]          --
                    ConvModule: 6-56             [1, 192, 40, 40]          --
                        Conv2d: 7-130           [1, 192, 40, 40]          331,776
                        BatchNorm2d: 7-131      [1, 192, 40, 40]          384
                        ReLU: 7-132             [1, 192, 40, 40]          --
            ConvModule: 4-57                       [1, 384, 40, 40]          --
                Conv2d: 5-92                      [1, 384, 40, 40]          147,456
                BatchNorm2d: 5-93                 [1, 384, 40, 40]          768
                ReLU: 5-94                        [1, 384, 40, 40]          --
    ModuleList: 2-3                                  --                        --
        ConvModule: 3-18                            [1, 384, 20, 20]          --
            Conv2d: 4-58                           [1, 384, 20, 20]          1,327,104
            BatchNorm2d: 4-59                      [1, 384, 20, 20]          768
            ReLU: 4-60                             [1, 384, 20, 20]          --
    ModuleList: 2-4                                  --                        --
        CSPLayer: 3-19                              [1, 768, 20, 20]          --
            ConvModule: 4-61                       [1, 384, 20, 20]          --
                Conv2d: 5-95                      [1, 384, 20, 20]          294,912
                BatchNorm2d: 5-96                 [1, 384, 20, 20]          768
                ReLU: 5-97                        [1, 384, 20, 20]          --
            ConvModule: 4-62                       [1, 384, 20, 20]          --
                Conv2d: 5-98                      [1, 384, 20, 20]          294,912
                BatchNorm2d: 5-99                 [1, 384, 20, 20]          768
                ReLU: 5-100                       [1, 384, 20, 20]          --
            Sequential: 4-63                       [1, 384, 20, 20]          --
                DarknetBottleneck: 5-101          [1, 384, 20, 20]          --
                    ConvModule: 6-57             [1, 384, 20, 20]          --
                        Conv2d: 7-133           [1, 384, 20, 20]          147,456
                        BatchNorm2d: 7-134      [1, 384, 20, 20]          768
                        ReLU: 7-135             [1, 384, 20, 20]          --
                    ConvModule: 6-58             [1, 384, 20, 20]          --
                        Conv2d: 7-136           [1, 384, 20, 20]          1,327,104
                        BatchNorm2d: 7-137      [1, 384, 20, 20]          768
                        ReLU: 7-138             [1, 384, 20, 20]          --
                DarknetBottleneck: 5-102          [1, 384, 20, 20]          --
                    ConvModule: 6-59             [1, 384, 20, 20]          --
                        Conv2d: 7-139           [1, 384, 20, 20]          147,456
                        BatchNorm2d: 7-140      [1, 384, 20, 20]          768
                        ReLU: 7-141             [1, 384, 20, 20]          --
                    ConvModule: 6-60             [1, 384, 20, 20]          --
                        Conv2d: 7-142           [1, 384, 20, 20]          1,327,104
                        BatchNorm2d: 7-143      [1, 384, 20, 20]          768
                        ReLU: 7-144             [1, 384, 20, 20]          --
            ConvModule: 4-64                       [1, 768, 20, 20]          --
                Conv2d: 5-103                     [1, 768, 20, 20]          589,824
                BatchNorm2d: 5-104                [1, 768, 20, 20]          1,536
                ReLU: 5-105                       [1, 768, 20, 20]          --
    ModuleList: 2-5                                  --                        --
        ConvModule: 3-20                            [1, 192, 80, 80]          --
            Conv2d: 4-65                           [1, 192, 80, 80]          36,864
            BatchNorm2d: 4-66                      [1, 192, 80, 80]          384
            ReLU: 4-67                             [1, 192, 80, 80]          --
        ConvModule: 3-21                            [1, 192, 40, 40]          --
            Conv2d: 4-68                           [1, 192, 40, 40]          73,728
            BatchNorm2d: 4-69                      [1, 192, 40, 40]          384
            ReLU: 4-70                             [1, 192, 40, 40]          --
        ConvModule: 3-22                            [1, 192, 20, 20]          --
            Conv2d: 4-71                           [1, 192, 20, 20]          147,456
            BatchNorm2d: 4-72                      [1, 192, 20, 20]          384
            ReLU: 4-73                             [1, 192, 20, 20]          --
YOLOXHead: 1-3                                        [1, 1, 80, 80]            --
    ModuleList: 2-6                                  --                        --
        Sequential: 3-23                            [1, 192, 80, 80]          --
            ConvModule: 4-74                       [1, 192, 80, 80]          --
                Conv2d: 5-106                     [1, 192, 80, 80]          331,776
                BatchNorm2d: 5-107                [1, 192, 80, 80]          384
                ReLU: 5-108                       [1, 192, 80, 80]          --
            ConvModule: 4-75                       [1, 192, 80, 80]          --
                Conv2d: 5-109                     [1, 192, 80, 80]          331,776
                BatchNorm2d: 5-110                [1, 192, 80, 80]          384
                ReLU: 5-111                       [1, 192, 80, 80]          --
    ModuleList: 2-7                                  --                        --
        Sequential: 3-24                            [1, 192, 80, 80]          --
            ConvModule: 4-76                       [1, 192, 80, 80]          --
                Conv2d: 5-112                     [1, 192, 80, 80]          331,776
                BatchNorm2d: 5-113                [1, 192, 80, 80]          384
                ReLU: 5-114                       [1, 192, 80, 80]          --
            ConvModule: 4-77                       [1, 192, 80, 80]          --
                Conv2d: 5-115                     [1, 192, 80, 80]          331,776
                BatchNorm2d: 5-116                [1, 192, 80, 80]          384
                ReLU: 5-117                       [1, 192, 80, 80]          --
    ModuleList: 2-8                                  --                        --
        Conv2d: 3-25                                [1, 1, 80, 80]            193
    ModuleList: 2-9                                  --                        --
        Conv2d: 3-26                                [1, 4, 80, 80]            772
    ModuleList: 2-10                                 --                        --
        Conv2d: 3-27                                [1, 1, 80, 80]            193
    ModuleList: 2-6                                  --                        --
        Sequential: 3-28                            [1, 192, 40, 40]          --
            ConvModule: 4-78                       [1, 192, 40, 40]          --
                Conv2d: 5-118                     [1, 192, 40, 40]          331,776
                BatchNorm2d: 5-119                [1, 192, 40, 40]          384
                ReLU: 5-120                       [1, 192, 40, 40]          --
            ConvModule: 4-79                       [1, 192, 40, 40]          --
                Conv2d: 5-121                     [1, 192, 40, 40]          331,776
                BatchNorm2d: 5-122                [1, 192, 40, 40]          384
                ReLU: 5-123                       [1, 192, 40, 40]          --
    ModuleList: 2-7                                  --                        --
        Sequential: 3-29                            [1, 192, 40, 40]          --
            ConvModule: 4-80                       [1, 192, 40, 40]          --
                Conv2d: 5-124                     [1, 192, 40, 40]          331,776
                BatchNorm2d: 5-125                [1, 192, 40, 40]          384
                ReLU: 5-126                       [1, 192, 40, 40]          --
            ConvModule: 4-81                       [1, 192, 40, 40]          --
                Conv2d: 5-127                     [1, 192, 40, 40]          331,776
                BatchNorm2d: 5-128                [1, 192, 40, 40]          384
                ReLU: 5-129                       [1, 192, 40, 40]          --
    ModuleList: 2-8                                  --                        --
        Conv2d: 3-30                                [1, 1, 40, 40]            193
    ModuleList: 2-9                                  --                        --
        Conv2d: 3-31                                [1, 4, 40, 40]            772
    ModuleList: 2-10                                 --                        --
        Conv2d: 3-32                                [1, 1, 40, 40]            193
    ModuleList: 2-6                                  --                        --
        Sequential: 3-33                            [1, 192, 20, 20]          --
            ConvModule: 4-82                       [1, 192, 20, 20]          --
                Conv2d: 5-130                     [1, 192, 20, 20]          331,776
                BatchNorm2d: 5-131                [1, 192, 20, 20]          384
                ReLU: 5-132                       [1, 192, 20, 20]          --
            ConvModule: 4-83                       [1, 192, 20, 20]          --
                Conv2d: 5-133                     [1, 192, 20, 20]          331,776
                BatchNorm2d: 5-134                [1, 192, 20, 20]          384
                ReLU: 5-135                       [1, 192, 20, 20]          --
    ModuleList: 2-7                                  --                        --
        Sequential: 3-34                            [1, 192, 20, 20]          --
            ConvModule: 4-84                       [1, 192, 20, 20]          --
                Conv2d: 5-136                     [1, 192, 20, 20]          331,776
                BatchNorm2d: 5-137                [1, 192, 20, 20]          384
                ReLU: 5-138                       [1, 192, 20, 20]          --
            ConvModule: 4-85                       [1, 192, 20, 20]          --
                Conv2d: 5-139                     [1, 192, 20, 20]          331,776
                BatchNorm2d: 5-140                [1, 192, 20, 20]          384
                ReLU: 5-141                       [1, 192, 20, 20]          --
    ModuleList: 2-8                                  --                        --
        Conv2d: 3-35                                [1, 1, 20, 20]            193
    ModuleList: 2-9                                  --                        --
        Conv2d: 3-36                                [1, 4, 20, 20]            772
    ModuleList: 2-10                                 --                        --
        Conv2d: 3-37                                [1, 1, 20, 20]            193
=========================================================================================================
Total params: 25,281,102
Trainable params: 25,281,102
Non-trainable params: 0
Total mult-adds (G): 36.67
=========================================================================================================
Input size (MB): 4.92
Forward/backward pass size (MB): 913.40
Params size (MB): 101.12
…
