…
│    └─ModuleList: 2-5                                  --                        --
├─YOLOXHead: 1                                          --                        --
│    └─ModuleList: 2-6                                  --                        --
│    └─ModuleList: 2-7                                  --                        --
│    └─ModuleList: 2-8                                  --                        --
│    └─ModuleList: 2-9                                  --                        --
│    └─ModuleList: 2-10                                 --                        --
├─CSPDarknet: 1-1                                       [1, 128, 128, 128]        --
│    └─FocusLite: 2-11                                  [1, 32, 512, 512]         --
│    │    └─ConvModule: 3-1                             [1, 12, 512, 512]         --
│    │    │    └─Conv2d: 4-2                            [1, 12, 512, 512]         324
│    │    │    └─BatchNorm2d: 4-3                       [1, 12, 512, 512]         24
│    │    └─ConvModule: 3-2                             [1, 32, 512, 512]         --
│    │    │    └─Conv2d: 4-4                            [1, 32, 512, 512]         3,456
│    │    │    └─BatchNorm2d: 4-5                       [1, 32, 512, 512]         64
│    │    │    └─ReLU: 4-6                              [1, 32, 512, 512]         --
│    └─Sequential: 2-12                                 [1, 64, 256, 256]         --
│    │    └─ConvModule: 3-3                             [1, 64, 256, 256]         --
│    │    │    └─Conv2d: 4-7                            [1, 64, 256, 256]         18,432
│    │    │    └─BatchNorm2d: 4-8                       [1, 64, 256, 256]         128
│    │    │    └─ReLU: 4-9                              [1, 64, 256, 256]         --
│    │    └─CSPLayer: 3-4                               [1, 64, 256, 256]         --
│    │    │    └─ConvModule: 4-10                       [1, 32, 256, 256]         --
│    │    │    │    └─Conv2d: 5-1                       [1, 32, 256, 256]         2,048
│    │    │    │    └─BatchNorm2d: 5-2                  [1, 32, 256, 256]         64
│    │    │    │    └─ReLU: 5-3                         [1, 32, 256, 256]         --
│    │    │    └─ConvModule: 4-11                       [1, 32, 256, 256]         --
│    │    │    │    └─Conv2d: 5-4                       [1, 32, 256, 256]         2,048
│    │    │    │    └─BatchNorm2d: 5-5                  [1, 32, 256, 256]         64
│    │    │    │    └─ReLU: 5-6                         [1, 32, 256, 256]         --
│    │    │    └─Sequential: 4-12                       [1, 32, 256, 256]         --
│    │    │    │    └─DarknetBottleneck: 5-7            [1, 32, 256, 256]         --
│    │    │    │    │    └─ConvModule: 6-1              [1, 32, 256, 256]         --
│    │    │    │    │    │    └─Conv2d: 7-1             [1, 32, 256, 256]         1,024
│    │    │    │    │    │    └─BatchNorm2d: 7-2        [1, 32, 256, 256]         64
│    │    │    │    │    │    └─ReLU: 7-3               [1, 32, 256, 256]         --
│    │    │    │    │    └─ConvModule: 6-2              [1, 32, 256, 256]         --
│    │    │    │    │    │    └─Conv2d: 7-4             [1, 32, 256, 256]         9,216
│    │    │    │    │    │    └─BatchNorm2d: 7-5        [1, 32, 256, 256]         64
│    │    │    │    │    │    └─ReLU: 7-6               [1, 32, 256, 256]         --
│    │    │    └─ConvModule: 4-13                       [1, 64, 256, 256]         --
│    │    │    │    └─Conv2d: 5-8                       [1, 64, 256, 256]         4,096
│    │    │    │    └─BatchNorm2d: 5-9                  [1, 64, 256, 256]         128
│    │    │    │    └─ReLU: 5-10                        [1, 64, 256, 256]         --
│    └─Sequential: 2-13                                 [1, 128, 128, 128]        --
│    │    └─ConvModule: 3-5                             [1, 128, 128, 128]        --
│    │    │    └─Conv2d: 4-14                           [1, 128, 128, 128]        73,728
│    │    │    └─BatchNorm2d: 4-15                      [1, 128, 128, 128]        256
│    │    │    └─ReLU: 4-16                             [1, 128, 128, 128]        --
│    │    └─CSPLayer: 3-6                               [1, 128, 128, 128]        --
│    │    │    └─ConvModule: 4-17                       [1, 64, 128, 128]         --
│    │    │    │    └─Conv2d: 5-11                      [1, 64, 128, 128]         8,192
│    │    │    │    └─BatchNorm2d: 5-12                 [1, 64, 128, 128]         128
│    │    │    │    └─ReLU: 5-13                        [1, 64, 128, 128]         --
│    │    │    └─ConvModule: 4-18                       [1, 64, 128, 128]         --
│    │    │    │    └─Conv2d: 5-14                      [1, 64, 128, 128]         8,192
│    │    │    │    └─BatchNorm2d: 5-15                 [1, 64, 128, 128]         128
│    │    │    │    └─ReLU: 5-16                        [1, 64, 128, 128]         --
│    │    │    └─Sequential: 4-19                       [1, 64, 128, 128]         --
│    │    │    │    └─DarknetBottleneck: 5-17           [1, 64, 128, 128]         --
│    │    │    │    │    └─ConvModule: 6-3              [1, 64, 128, 128]         --
│    │    │    │    │    │    └─Conv2d: 7-7             [1, 64, 128, 128]         4,096
│    │    │    │    │    │    └─BatchNorm2d: 7-8        [1, 64, 128, 128]         128
│    │    │    │    │    │    └─ReLU: 7-9               [1, 64, 128, 128]         --
│    │    │    │    │    └─ConvModule: 6-4              [1, 64, 128, 128]         --
│    │    │    │    │    │    └─Conv2d: 7-10            [1, 64, 128, 128]         36,864
│    │    │    │    │    │    └─BatchNorm2d: 7-11       [1, 64, 128, 128]         128
│    │    │    │    │    │    └─ReLU: 7-12              [1, 64, 128, 128]         --
│    │    │    │    └─DarknetBottleneck: 5-18           [1, 64, 128, 128]         --
│    │    │    │    │    └─ConvModule: 6-5              [1, 64, 128, 128]         --
│    │    │    │    │    │    └─Conv2d: 7-13            [1, 64, 128, 128]         4,096
│    │    │    │    │    │    └─BatchNorm2d: 7-14       [1, 64, 128, 128]         128
│    │    │    │    │    │    └─ReLU: 7-15              [1, 64, 128, 128]         --
│    │    │    │    │    └─ConvModule: 6-6              [1, 64, 128, 128]         --
│    │    │    │    │    │    └─Conv2d: 7-16            [1, 64, 128, 128]         36,864
│    │    │    │    │    │    └─BatchNorm2d: 7-17       [1, 64, 128, 128]         128
│    │    │    │    │    │    └─ReLU: 7-18              [1, 64, 128, 128]         --
│    │    │    │    └─DarknetBottleneck: 5-19           [1, 64, 128, 128]         --
│    │    │    │    │    └─ConvModule: 6-7              [1, 64, 128, 128]         --
│    │    │    │    │    │    └─Conv2d: 7-19            [1, 64, 128, 128]         4,096
│    │    │    │    │    │    └─BatchNorm2d: 7-20       [1, 64, 128, 128]         128
│    │    │    │    │    │    └─ReLU: 7-21              [1, 64, 128, 128]         --
│    │    │    │    │    └─ConvModule: 6-8              [1, 64, 128, 128]         --
│    │    │    │    │    │    └─Conv2d: 7-22            [1, 64, 128, 128]         36,864
│    │    │    │    │    │    └─BatchNorm2d: 7-23       [1, 64, 128, 128]         128
│    │    │    │    │    │    └─ReLU: 7-24              [1, 64, 128, 128]         --
│    │    │    └─ConvModule: 4-20                       [1, 128, 128, 128]        --
│    │    │    │    └─Conv2d: 5-20                      [1, 128, 128, 128]        16,384
│    │    │    │    └─BatchNorm2d: 5-21                 [1, 128, 128, 128]        256
│    │    │    │    └─ReLU: 5-22                        [1, 128, 128, 128]        --
│    └─Sequential: 2-14                                 [1, 256, 64, 64]          --
│    │    └─ConvModule: 3-7                             [1, 256, 64, 64]          --
│    │    │    └─Conv2d: 4-21                           [1, 256, 64, 64]          294,912
│    │    │    └─BatchNorm2d: 4-22                      [1, 256, 64, 64]          512
│    │    │    └─ReLU: 4-23                             [1, 256, 64, 64]          --
│    │    └─CSPLayer: 3-8                               [1, 256, 64, 64]          --
│    │    │    └─ConvModule: 4-24                       [1, 128, 64, 64]          --
│    │    │    │    └─Conv2d: 5-23                      [1, 128, 64, 64]          32,768
│    │    │    │    └─BatchNorm2d: 5-24                 [1, 128, 64, 64]          256
│    │    │    │    └─ReLU: 5-25                        [1, 128, 64, 64]          --
│    │    │    └─ConvModule: 4-25                       [1, 128, 64, 64]          --
│    │    │    │    └─Conv2d: 5-26                      [1, 128, 64, 64]          32,768
│    │    │    │    └─BatchNorm2d: 5-27                 [1, 128, 64, 64]          256
│    │    │    │    └─ReLU: 5-28                        [1, 128, 64, 64]          --
│    │    │    └─Sequential: 4-26                       [1, 128, 64, 64]          --
│    │    │    │    └─DarknetBottleneck: 5-29           [1, 128, 64, 64]          --
│    │    │    │    │    └─ConvModule: 6-9              [1, 128, 64, 64]          --
│    │    │    │    │    │    └─Conv2d: 7-25            [1, 128, 64, 64]          16,384
│    │    │    │    │    │    └─BatchNorm2d: 7-26       [1, 128, 64, 64]          256
│    │    │    │    │    │    └─ReLU: 7-27              [1, 128, 64, 64]          --
│    │    │    │    │    └─ConvModule: 6-10             [1, 128, 64, 64]          --
│    │    │    │    │    │    └─Conv2d: 7-28            [1, 128, 64, 64]          147,456
│    │    │    │    │    │    └─BatchNorm2d: 7-29       [1, 128, 64, 64]          256
│    │    │    │    │    │    └─ReLU: 7-30              [1, 128, 64, 64]          --
│    │    │    │    └─DarknetBottleneck: 5-30           [1, 128, 64, 64]          --
│    │    │    │    │    └─ConvModule: 6-11             [1, 128, 64, 64]          --
│    │    │    │    │    │    └─Conv2d: 7-31            [1, 128, 64, 64]          16,384
│    │    │    │    │    │    └─BatchNorm2d: 7-32       [1, 128, 64, 64]          256
│    │    │    │    │    │    └─ReLU: 7-33              [1, 128, 64, 64]          --
│    │    │    │    │    └─ConvModule: 6-12             [1, 128, 64, 64]          --
│    │    │    │    │    │    └─Conv2d: 7-34            [1, 128, 64, 64]          147,456
│    │    │    │    │    │    └─BatchNorm2d: 7-35       [1, 128, 64, 64]          256
│    │    │    │    │    │    └─ReLU: 7-36              [1, 128, 64, 64]          --
│    │    │    │    └─DarknetBottleneck: 5-31           [1, 128, 64, 64]          --
│    │    │    │    │    └─ConvModule: 6-13             [1, 128, 64, 64]          --
│    │    │    │    │    │    └─Conv2d: 7-37            [1, 128, 64, 64]          16,384
│    │    │    │    │    │    └─BatchNorm2d: 7-38       [1, 128, 64, 64]          256
│    │    │    │    │    │    └─ReLU: 7-39              [1, 128, 64, 64]          --
│    │    │    │    │    └─ConvModule: 6-14             [1, 128, 64, 64]          --
│    │    │    │    │    │    └─Conv2d: 7-40            [1, 128, 64, 64]          147,456
│    │    │    │    │    │    └─BatchNorm2d: 7-41       [1, 128, 64, 64]          256
│    │    │    │    │    │    └─ReLU: 7-42              [1, 128, 64, 64]          --
│    │    │    └─ConvModule: 4-27                       [1, 256, 64, 64]          --
│    │    │    │    └─Conv2d: 5-32                      [1, 256, 64, 64]          65,536
│    │    │    │    └─BatchNorm2d: 5-33                 [1, 256, 64, 64]          512
│    └─Sequential: 2                                    --                        --
│    │    └─SPPBottleneck: 3                            --                        --
│    │    │    └─ModuleList: 4-28                       --                        --
│    └─Sequential: 2                                    --                        --
│    │    └─CSPLayer: 3                                 --                        --
│    │    │    └─ConvModule: 4                          --                        --
│    │    │    │    └─ReLU: 5-34                        [1, 256, 64, 64]          --
│    └─Sequential: 2-15                                 [1, 512, 32, 32]          --
│    │    └─ConvModule: 3-9                             [1, 512, 32, 32]          --
│    │    │    └─Conv2d: 4-29                           [1, 512, 32, 32]          1,179,648
│    │    │    └─BatchNorm2d: 4-30                      [1, 512, 32, 32]          1,024
│    │    │    └─ReLU: 4-31                             [1, 512, 32, 32]          --
│    │    └─SPPBottleneck: 3-10                         [1, 512, 32, 32]          --
│    │    │    └─ConvModule: 4-32                       [1, 256, 32, 32]          --
│    │    │    │    └─Conv2d: 5-35                      [1, 256, 32, 32]          131,072
│    │    │    │    └─BatchNorm2d: 5-36                 [1, 256, 32, 32]          512
│    │    │    │    └─ReLU: 5-37                        [1, 256, 32, 32]          --
│    │    │    └─ModuleList: 4-1                        --                        --
│    │    │    │    └─SequentialMaxPool2d: 5-38         [1, 256, 32, 32]          --
│    │    │    │    │    └─MaxPool2d: 6-15              [1, 256, 32, 32]          --
│    │    │    │    │    └─MaxPool2d: 6-16              [1, 256, 32, 32]          --
│    │    │    │    └─SequentialMaxPool2d: 5-39         [1, 256, 32, 32]          --
│    │    │    │    │    └─MaxPool2d: 6-17              [1, 256, 32, 32]          --
│    │    │    │    │    └─MaxPool2d: 6-18              [1, 256, 32, 32]          --
│    │    │    │    │    └─MaxPool2d: 6-19              [1, 256, 32, 32]          --
│    │    │    │    │    └─MaxPool2d: 6-20              [1, 256, 32, 32]          --
│    │    │    │    └─SequentialMaxPool2d: 5-40         [1, 256, 32, 32]          --
│    │    │    │    │    └─MaxPool2d: 6-21              [1, 256, 32, 32]          --
│    │    │    │    │    └─MaxPool2d: 6-22              [1, 256, 32, 32]          --
│    │    │    │    │    └─MaxPool2d: 6-23              [1, 256, 32, 32]          --
│    │    │    │    │    └─MaxPool2d: 6-24              [1, 256, 32, 32]          --
│    │    │    │    │    └─MaxPool2d: 6-25              [1, 256, 32, 32]          --
│    │    │    │    │    └─MaxPool2d: 6-26              [1, 256, 32, 32]          --
│    │    │    └─ConvModule: 4-33                       [1, 512, 32, 32]          --
│    │    │    │    └─Conv2d: 5-41                      [1, 512, 32, 32]          524,288
│    │    │    │    └─BatchNorm2d: 5-42                 [1, 512, 32, 32]          1,024
│    │    │    │    └─ReLU: 5-43                        [1, 512, 32, 32]          --
│    │    └─CSPLayer: 3-11                              [1, 512, 32, 32]          --
│    │    │    └─ConvModule: 4-34                       [1, 256, 32, 32]          --
│    │    │    │    └─Conv2d: 5-44                      [1, 256, 32, 32]          131,072
│    │    │    │    └─BatchNorm2d: 5-45                 [1, 256, 32, 32]          512
│    │    │    │    └─ReLU: 5-46                        [1, 256, 32, 32]          --
│    │    │    └─ConvModule: 4-35                       [1, 256, 32, 32]          --
│    │    │    │    └─Conv2d: 5-47                      [1, 256, 32, 32]          131,072
│    │    │    │    └─BatchNorm2d: 5-48                 [1, 256, 32, 32]          512
│    │    │    │    └─ReLU: 5-49                        [1, 256, 32, 32]          --
│    │    │    └─Sequential: 4-36                       [1, 256, 32, 32]          --
│    │    │    │    └─DarknetBottleneck: 5-50           [1, 256, 32, 32]          --
│    │    │    │    │    └─ConvModule: 6-27             [1, 256, 32, 32]          --
│    │    │    │    │    │    └─Conv2d: 7-43            [1, 256, 32, 32]          65,536
│    │    │    │    │    │    └─BatchNorm2d: 7-44       [1, 256, 32, 32]          512
│    │    │    │    │    │    └─ReLU: 7-45              [1, 256, 32, 32]          --
│    │    │    │    │    └─ConvModule: 6-28             [1, 256, 32, 32]          --
│    │    │    │    │    │    └─Conv2d: 7-46            [1, 256, 32, 32]          589,824
│    │    │    │    │    │    └─BatchNorm2d: 7-47       [1, 256, 32, 32]          512
│    │    │    │    │    │    └─ReLU: 7-48              [1, 256, 32, 32]          --
│    │    │    └─ConvModule: 4-37                       [1, 512, 32, 32]          --
│    │    │    │    └─Conv2d: 5-51                      [1, 512, 32, 32]          262,144
│    │    │    │    └─BatchNorm2d: 5-52                 [1, 512, 32, 32]          1,024
│    │    │    │    └─ReLU: 5-53                        [1, 512, 32, 32]          --
├─YOLOXPAFPN: 1-2                                       [1, 128, 128, 128]        --
│    └─ModuleList: 2-1                                  --                        --
│    │    └─ConvModule: 3-12                            [1, 256, 32, 32]          --
│    │    │    └─Conv2d: 4-38                           [1, 256, 32, 32]          131,072
│    │    │    └─BatchNorm2d: 4-39                      [1, 256, 32, 32]          512
│    │    │    └─ReLU: 4-40                             [1, 256, 32, 32]          --
│    └─Upsample: 2-16                                   [1, 256, 64, 64]          --
│    └─ModuleList: 2-2                                  --                        --
│    │    └─CSPLayer: 3-13                              [1, 256, 64, 64]          --
│    │    │    └─ConvModule: 4-41                       [1, 128, 64, 64]          --
│    │    │    │    └─Conv2d: 5-54                      [1, 128, 64, 64]          65,536
│    │    │    │    └─BatchNorm2d: 5-55                 [1, 128, 64, 64]          256
│    │    │    │    └─ReLU: 5-56                        [1, 128, 64, 64]          --
│    │    │    └─ConvModule: 4-42                       [1, 128, 64, 64]          --
│    │    │    │    └─Conv2d: 5-57                      [1, 128, 64, 64]          65,536
│    │    │    │    └─BatchNorm2d: 5-58                 [1, 128, 64, 64]          256
│    │    │    │    └─ReLU: 5-59                        [1, 128, 64, 64]          --
│    │    │    └─Sequential: 4-43                       [1, 128, 64, 64]          --
│    │    │    │    └─DarknetBottleneck: 5-60           [1, 128, 64, 64]          --
│    │    │    │    │    └─ConvModule: 6-29             [1, 128, 64, 64]          --
│    │    │    │    │    │    └─Conv2d: 7-49            [1, 128, 64, 64]          16,384
│    │    │    │    │    │    └─BatchNorm2d: 7-50       [1, 128, 64, 64]          256
│    │    │    │    │    │    └─ReLU: 7-51              [1, 128, 64, 64]          --
│    │    │    │    │    └─ConvModule: 6-30             [1, 128, 64, 64]          --
│    │    │    │    │    │    └─Conv2d: 7-52            [1, 128, 64, 64]          147,456
│    │    │    │    │    │    └─BatchNorm2d: 7-53       [1, 128, 64, 64]          256
│    │    │    │    │    │    └─ReLU: 7-54              [1, 128, 64, 64]          --
│    │    │    └─ConvModule: 4-44                       [1, 256, 64, 64]          --
│    │    │    │    └─Conv2d: 5-61                      [1, 256, 64, 64]          65,536
│    │    │    │    └─BatchNorm2d: 5-62                 [1, 256, 64, 64]          512
│    │    │    │    └─ReLU: 5-63                        [1, 256, 64, 64]          --
│    └─ModuleList: 2-1                                  --                        --
│    │    └─ConvModule: 3-14                            [1, 128, 64, 64]          --
│    │    │    └─Conv2d: 4-45                           [1, 128, 64, 64]          32,768
│    │    │    └─BatchNorm2d: 4-46                      [1, 128, 64, 64]          256
│    │    │    └─ReLU: 4-47                             [1, 128, 64, 64]          --
│    └─Upsample: 2-17                                   [1, 128, 128, 128]        --
│    └─ModuleList: 2-2                                  --                        --
│    │    └─CSPLayer: 3-15                              [1, 128, 128, 128]        --
│    │    │    └─ConvModule: 4-48                       [1, 64, 128, 128]         --
│    │    │    │    └─Conv2d: 5-64                      [1, 64, 128, 128]         16,384
│    │    │    │    └─BatchNorm2d: 5-65                 [1, 64, 128, 128]         128
│    │    │    │    └─ReLU: 5-66                        [1, 64, 128, 128]         --
│    │    │    └─ConvModule: 4-49                       [1, 64, 128, 128]         --
│    │    │    │    └─Conv2d: 5-67                      [1, 64, 128, 128]         16,384
│    │    │    │    └─BatchNorm2d: 5-68                 [1, 64, 128, 128]         128
│    │    │    │    └─ReLU: 5-69                        [1, 64, 128, 128]         --
│    │    │    └─Sequential: 4-50                       [1, 64, 128, 128]         --
│    │    │    │    └─DarknetBottleneck: 5-70           [1, 64, 128, 128]         --
│    │    │    │    │    └─ConvModule: 6-31             [1, 64, 128, 128]         --
│    │    │    │    │    │    └─Conv2d: 7-55            [1, 64, 128, 128]         4,096
│    │    │    │    │    │    └─BatchNorm2d: 7-56       [1, 64, 128, 128]         128
│    │    │    │    │    │    └─ReLU: 7-57              [1, 64, 128, 128]         --
│    │    │    │    │    └─ConvModule: 6-32             [1, 64, 128, 128]         --
│    │    │    │    │    │    └─Conv2d: 7-58            [1, 64, 128, 128]         36,864
│    │    │    │    │    │    └─BatchNorm2d: 7-59       [1, 64, 128, 128]         128
│    │    │    │    │    │    └─ReLU: 7-60              [1, 64, 128, 128]         --
│    │    │    └─ConvModule: 4-51                       [1, 128, 128, 128]        --
│    │    │    │    └─Conv2d: 5-71                      [1, 128, 128, 128]        16,384
│    │    │    │    └─BatchNorm2d: 5-72                 [1, 128, 128, 128]        256
│    │    │    │    └─ReLU: 5-73                        [1, 128, 128, 128]        --
│    └─ModuleList: 2-3                                  --                        --
│    │    └─ConvModule: 3-16                            [1, 128, 64, 64]          --
│    │    │    └─Conv2d: 4-52                           [1, 128, 64, 64]          147,456
│    │    │    └─BatchNorm2d: 4-53                      [1, 128, 64, 64]          256
│    │    │    └─ReLU: 4-54                             [1, 128, 64, 64]          --
│    └─ModuleList: 2-4                                  --                        --
│    │    └─CSPLayer: 3-17                              [1, 256, 64, 64]          --
│    │    │    └─ConvModule: 4-55                       [1, 128, 64, 64]          --
│    │    │    │    └─Conv2d: 5-74                      [1, 128, 64, 64]          32,768
│    │    │    │    └─BatchNorm2d: 5-75                 [1, 128, 64, 64]          256
│    │    │    │    └─ReLU: 5-76                        [1, 128, 64, 64]          --
│    │    │    └─ConvModule: 4-56                       [1, 128, 64, 64]          --
│    │    │    │    └─Conv2d: 5-77                      [1, 128, 64, 64]          32,768
│    │    │    │    └─BatchNorm2d: 5-78                 [1, 128, 64, 64]          256
│    │    │    │    └─ReLU: 5-79                        [1, 128, 64, 64]          --
│    │    │    └─Sequential: 4-57                       [1, 128, 64, 64]          --
│    │    │    │    └─DarknetBottleneck: 5-80           [1, 128, 64, 64]          --
│    │    │    │    │    └─ConvModule: 6-33             [1, 128, 64, 64]          --
│    │    │    │    │    │    └─Conv2d: 7-61            [1, 128, 64, 64]          16,384
│    │    │    │    │    │    └─BatchNorm2d: 7-62       [1, 128, 64, 64]          256
│    │    │    │    │    │    └─ReLU: 7-63              [1, 128, 64, 64]          --
│    │    │    │    │    └─ConvModule: 6-34             [1, 128, 64, 64]          --
│    │    │    │    │    │    └─Conv2d: 7-64            [1, 128, 64, 64]          147,456
│    │    │    │    │    │    └─BatchNorm2d: 7-65       [1, 128, 64, 64]          256
│    │    │    │    │    │    └─ReLU: 7-66              [1, 128, 64, 64]          --
│    │    │    └─ConvModule: 4-58                       [1, 256, 64, 64]          --
│    │    │    │    └─Conv2d: 5-81                      [1, 256, 64, 64]          65,536
│    │    │    │    └─BatchNorm2d: 5-82                 [1, 256, 64, 64]          512
│    │    │    │    └─ReLU: 5-83                        [1, 256, 64, 64]          --
│    └─ModuleList: 2-3                                  --                        --
│    │    └─ConvModule: 3-18                            [1, 256, 32, 32]          --
│    │    │    └─Conv2d: 4-59                           [1, 256, 32, 32]          589,824
│    │    │    └─BatchNorm2d: 4-60                      [1, 256, 32, 32]          512
│    │    │    └─ReLU: 4-61                             [1, 256, 32, 32]          --
│    └─ModuleList: 2-4                                  --                        --
│    │    └─CSPLayer: 3-19                              [1, 512, 32, 32]          --
│    │    │    └─ConvModule: 4-62                       [1, 256, 32, 32]          --
│    │    │    │    └─Conv2d: 5-84                      [1, 256, 32, 32]          131,072
│    │    │    │    └─BatchNorm2d: 5-85                 [1, 256, 32, 32]          512
│    │    │    │    └─ReLU: 5-86                        [1, 256, 32, 32]          --
│    │    │    └─ConvModule: 4-63                       [1, 256, 32, 32]          --
│    │    │    │    └─Conv2d: 5-87                      [1, 256, 32, 32]          131,072
│    │    │    │    └─BatchNorm2d: 5-88                 [1, 256, 32, 32]          512
│    │    │    │    └─ReLU: 5-89                        [1, 256, 32, 32]          --
│    │    │    └─Sequential: 4-64                       [1, 256, 32, 32]          --
│    │    │    │    └─DarknetBottleneck: 5-90           [1, 256, 32, 32]          --
│    │    │    │    │    └─ConvModule: 6-35             [1, 256, 32, 32]          --
│    │    │    │    │    │    └─Conv2d: 7-67            [1, 256, 32, 32]          65,536
│    │    │    │    │    │    └─BatchNorm2d: 7-68       [1, 256, 32, 32]          512
│    │    │    │    │    │    └─ReLU: 7-69              [1, 256, 32, 32]          --
│    │    │    │    │    └─ConvModule: 6-36             [1, 256, 32, 32]          --
│    │    │    │    │    │    └─Conv2d: 7-70            [1, 256, 32, 32]          589,824
│    │    │    │    │    │    └─BatchNorm2d: 7-71       [1, 256, 32, 32]          512
│    │    │    │    │    │    └─ReLU: 7-72              [1, 256, 32, 32]          --
│    │    │    └─ConvModule: 4-65                       [1, 512, 32, 32]          --
│    │    │    │    └─Conv2d: 5-91                      [1, 512, 32, 32]          262,144
│    │    │    │    └─BatchNorm2d: 5-92                 [1, 512, 32, 32]          1,024
│    │    │    │    └─ReLU: 5-93                        [1, 512, 32, 32]          --
│    └─ModuleList: 2-5                                  --                        --
│    │    └─ConvModule: 3-20                            [1, 128, 128, 128]        --
│    │    │    └─Conv2d: 4-66                           [1, 128, 128, 128]        16,384
│    │    │    └─BatchNorm2d: 4-67                      [1, 128, 128, 128]        256
│    │    │    └─ReLU: 4-68                             [1, 128, 128, 128]        --
│    │    └─ConvModule: 3-21                            [1, 128, 64, 64]          --
│    │    │    └─Conv2d: 4-69                           [1, 128, 64, 64]          32,768
│    │    │    └─BatchNorm2d: 4-70                      [1, 128, 64, 64]          256
│    │    │    └─ReLU: 4-71                             [1, 128, 64, 64]          --
│    │    └─ConvModule: 3-22                            [1, 128, 32, 32]          --
│    │    │    └─Conv2d: 4-72                           [1, 128, 32, 32]          65,536
│    │    │    └─BatchNorm2d: 4-73                      [1, 128, 32, 32]          256
│    │    │    └─ReLU: 4-74                             [1, 128, 32, 32]          --
├─YOLOXHead: 1-3                                        [1, 1, 128, 128]          --
│    └─ModuleList: 2-6                                  --                        --
│    │    └─Sequential: 3-23                            [1, 128, 128, 128]        --
│    │    │    └─ConvModule: 4-75                       [1, 128, 128, 128]        --
│    │    │    │    └─Conv2d: 5-94                      [1, 128, 128, 128]        147,456
│    │    │    │    └─BatchNorm2d: 5-95                 [1, 128, 128, 128]        256
│    │    │    │    └─ReLU: 5-96                        [1, 128, 128, 128]        --
│    │    │    └─ConvModule: 4-76                       [1, 128, 128, 128]        --
│    │    │    │    └─Conv2d: 5-97                      [1, 128, 128, 128]        147,456
│    │    │    │    └─BatchNorm2d: 5-98                 [1, 128, 128, 128]        256
│    │    │    │    └─ReLU: 5-99                        [1, 128, 128, 128]        --
│    └─ModuleList: 2-7                                  --                        --
│    │    └─Sequential: 3-24                            [1, 128, 128, 128]        --
│    │    │    └─ConvModule: 4-77                       [1, 128, 128, 128]        --
│    │    │    │    └─Conv2d: 5-100                     [1, 128, 128, 128]        147,456
│    │    │    │    └─BatchNorm2d: 5-101                [1, 128, 128, 128]        256
│    │    │    │    └─ReLU: 5-102                       [1, 128, 128, 128]        --
│    │    │    └─ConvModule: 4-78                       [1, 128, 128, 128]        --
│    │    │    │    └─Conv2d: 5-103                     [1, 128, 128, 128]        147,456
│    │    │    │    └─BatchNorm2d: 5-104                [1, 128, 128, 128]        256
│    │    │    │    └─ReLU: 5-105                       [1, 128, 128, 128]        --
│    └─ModuleList: 2-8                                  --                        --
│    │    └─Conv2d: 3-25                                [1, 1, 128, 128]          129
│    └─ModuleList: 2-9                                  --                        --
│    │    └─Conv2d: 3-26                                [1, 4, 128, 128]          516
│    └─ModuleList: 2-10                                 --                        --
│    │    └─Conv2d: 3-27                                [1, 1, 128, 128]          129
│    └─ModuleList: 2-6                                  --                        --
│    │    └─Sequential: 3-28                            [1, 128, 64, 64]          --
│    │    │    └─ConvModule: 4-79                       [1, 128, 64, 64]          --
│    │    │    │    └─Conv2d: 5-106                     [1, 128, 64, 64]          147,456
│    │    │    │    └─BatchNorm2d: 5-107                [1, 128, 64, 64]          256
│    │    │    │    └─ReLU: 5-108                       [1, 128, 64, 64]          --
│    │    │    └─ConvModule: 4-80                       [1, 128, 64, 64]          --
│    │    │    │    └─Conv2d: 5-109                     [1, 128, 64, 64]          147,456
│    │    │    │    └─BatchNorm2d: 5-110                [1, 128, 64, 64]          256
│    │    │    │    └─ReLU: 5-111                       [1, 128, 64, 64]          --
│    └─ModuleList: 2-7                                  --                        --
│    │    └─Sequential: 3-29                            [1, 128, 64, 64]          --
│    │    │    └─ConvModule: 4-81                       [1, 128, 64, 64]          --
│    │    │    │    └─Conv2d: 5-112                     [1, 128, 64, 64]          147,456
│    │    │    │    └─BatchNorm2d: 5-113                [1, 128, 64, 64]          256
│    │    │    │    └─ReLU: 5-114                       [1, 128, 64, 64]          --
│    │    │    └─ConvModule: 4-82                       [1, 128, 64, 64]          --
│    │    │    │    └─Conv2d: 5-115                     [1, 128, 64, 64]          147,456
│    │    │    │    └─BatchNorm2d: 5-116                [1, 128, 64, 64]          256
│    │    │    │    └─ReLU: 5-117                       [1, 128, 64, 64]          --
│    └─ModuleList: 2-8                                  --                        --
│    │    └─Conv2d: 3-30                                [1, 1, 64, 64]            129
│    └─ModuleList: 2-9                                  --                        --
│    │    └─Conv2d: 3-31                                [1, 4, 64, 64]            516
│    └─ModuleList: 2-10                                 --                        --
│    │    └─Conv2d: 3-32                                [1, 1, 64, 64]            129
│    └─ModuleList: 2-6                                  --                        --
│    │    └─Sequential: 3-33                            [1, 128, 32, 32]          --
│    │    │    └─ConvModule: 4-83                       [1, 128, 32, 32]          --
│    │    │    │    └─Conv2d: 5-118                     [1, 128, 32, 32]          147,456
│    │    │    │    └─BatchNorm2d: 5-119                [1, 128, 32, 32]          256
│    │    │    │    └─ReLU: 5-120                       [1, 128, 32, 32]          --
│    │    │    └─ConvModule: 4-84                       [1, 128, 32, 32]          --
│    │    │    │    └─Conv2d: 5-121                     [1, 128, 32, 32]          147,456
│    │    │    │    └─BatchNorm2d: 5-122                [1, 128, 32, 32]          256
│    │    │    │    └─ReLU: 5-123                       [1, 128, 32, 32]          --
│    └─ModuleList: 2-7                                  --                        --
│    │    └─Sequential: 3-34                            [1, 128, 32, 32]          --
│    │    │    └─ConvModule: 4-85                       [1, 128, 32, 32]          --
│    │    │    │    └─Conv2d: 5-124                     [1, 128, 32, 32]          147,456
│    │    │    │    └─BatchNorm2d: 5-125                [1, 128, 32, 32]          256
│    │    │    │    └─ReLU: 5-126                       [1, 128, 32, 32]          --
│    │    │    └─ConvModule: 4-86                       [1, 128, 32, 32]          --
│    │    │    │    └─Conv2d: 5-127                     [1, 128, 32, 32]          147,456
│    │    │    │    └─BatchNorm2d: 5-128                [1, 128, 32, 32]          256
│    │    │    │    └─ReLU: 5-129                       [1, 128, 32, 32]          --
│    └─ModuleList: 2-8                                  --                        --
│    │    └─Conv2d: 3-35                                [1, 1, 32, 32]            129
│    └─ModuleList: 2-9                                  --                        --
│    │    └─Conv2d: 3-36                                [1, 4, 32, 32]            516
│    └─ModuleList: 2-10                                 --                        --
│    │    └─Conv2d: 3-37                                [1, 1, 32, 32]            129
=========================================================================================================
Total params: 8,938,030
Trainable params: 8,938,030
Non-trainable params: 0
Total mult-adds (G): 34.03
=========================================================================================================
Input size (MB): 12.58
Forward/backward pass size (MB): 1274.00
Params size (MB): 35.75
…
