…
├─SSDLiteHead: 1                                             --                        --
│    └─SSDLiteClassificationHead: 2                          --                        --
│    │    └─ModuleList: 3-4                                  --                        --
│    └─SSDLiteRegressionHead: 2                              --                        --
│    │    └─ModuleList: 3-5                                  --                        --
├─GeneralizedRCNNTransform: 1-1                              --                        --
├─BackboneWithFPN: 1-2                                       [1, 256, 2, 2]            --
│    └─RegNet: 2-1                                           [1, 672, 16, 16]          --
│    │    └─Module: 3                                        --                        --
│    │    │    └─Conv2d: 4-1                                 [1, 32, 256, 256]         864
│    │    │    └─BatchNorm2d: 4-2                            [1, 32, 256, 256]         64
│    │    │    └─ReLU: 4-3                                   [1, 32, 256, 256]         --
│    │    └─Module: 3                                        --                        --
│    │    │    └─Module: 4                                   --                        --
│    │    │    │    └─Module: 5                              --                        --
│    │    │    │    │    └─Module: 6                         --                        --
│    │    │    │    │    │    └─Conv2d: 7-1                  [1, 64, 128, 128]         2,048
│    │    │    │    │    │    └─BatchNorm2d: 7-2             [1, 64, 128, 128]         128
│    │    │    │    │    └─Module: 6                         --                        --
│    │    │    │    │    │    └─Module: 7                    --                        --
│    │    │    │    │    │    │    └─Conv2d: 8-1             [1, 64, 256, 256]         2,048
│    │    │    │    │    │    │    └─BatchNorm2d: 8-2        [1, 64, 256, 256]         128
│    │    │    │    │    │    │    └─ReLU: 8-3               [1, 64, 256, 256]         --
│    │    │    │    │    │    └─Module: 7                    --                        --
│    │    │    │    │    │    │    └─Conv2d: 8-4             [1, 64, 128, 128]         9,216
│    │    │    │    │    │    │    └─BatchNorm2d: 8-5        [1, 64, 128, 128]         128
│    │    │    │    │    │    │    └─ReLU: 8-6               [1, 64, 128, 128]         --
│    │    │    │    │    │    └─Module: 7                    --                        --
│    │    │    │    │    │    │    └─Conv2d: 8-7             [1, 64, 128, 128]         4,096
│    │    │    │    │    │    │    └─BatchNorm2d: 8-8        [1, 64, 128, 128]         128
│    │    │    │    │    └─ReLU: 6-1                         [1, 64, 128, 128]         --
│    │    │    └─Module: 4                                   --                        --
│    │    │    │    └─Module: 5                              --                        --
│    │    │    │    │    └─Module: 6                         --                        --
│    │    │    │    │    │    └─Conv2d: 7-3                  [1, 128, 64, 64]          8,192
│    │    │    │    │    │    └─BatchNorm2d: 7-4             [1, 128, 64, 64]          256
│    │    │    │    │    └─Module: 6                         --                        --
│    │    │    │    │    │    └─Module: 7                    --                        --
│    │    │    │    │    │    │    └─Conv2d: 8-9             [1, 128, 128, 128]        8,192
│    │    │    │    │    │    │    └─BatchNorm2d: 8-10       [1, 128, 128, 128]        256
│    │    │    │    │    │    │    └─ReLU: 8-11              [1, 128, 128, 128]        --
│    │    │    │    │    │    └─Module: 7                    --                        --
│    │    │    │    │    │    │    └─Conv2d: 8-12            [1, 128, 64, 64]          18,432
│    │    │    │    │    │    │    └─BatchNorm2d: 8-13       [1, 128, 64, 64]          256
│    │    │    │    │    │    │    └─ReLU: 8-14              [1, 128, 64, 64]          --
│    │    │    │    │    │    └─Module: 7                    --                        --
│    │    │    │    │    │    │    └─Conv2d: 8-15            [1, 128, 64, 64]          16,384
│    │    │    │    │    │    │    └─BatchNorm2d: 8-16       [1, 128, 64, 64]          256
│    │    │    │    │    └─ReLU: 6-2                         [1, 128, 64, 64]          --
│    │    │    │    └─Module: 5                              --                        --
│    │    │    │    │    └─Module: 6                         --                        --
│    │    │    │    │    │    └─Module: 7                    --                        --
│    │    │    │    │    │    │    └─Conv2d: 8-17            [1, 128, 64, 64]          16,384
│    │    │    │    │    │    │    └─BatchNorm2d: 8-18       [1, 128, 64, 64]          256
│    │    │    │    │    │    │    └─ReLU: 8-19              [1, 128, 64, 64]          --
│    │    │    │    │    │    └─Module: 7                    --                        --
│    │    │    │    │    │    │    └─Conv2d: 8-20            [1, 128, 64, 64]          18,432
│    │    │    │    │    │    │    └─BatchNorm2d: 8-21       [1, 128, 64, 64]          256
│    │    │    │    │    │    │    └─ReLU: 8-22              [1, 128, 64, 64]          --
│    │    │    │    │    │    └─Module: 7                    --                        --
│    │    │    │    │    │    │    └─Conv2d: 8-23            [1, 128, 64, 64]          16,384
│    │    │    │    │    │    │    └─BatchNorm2d: 8-24       [1, 128, 64, 64]          256
│    │    │    │    │    └─ReLU: 6-3                         [1, 128, 64, 64]          --
│    │    │    │    └─Module: 5                              --                        --
│    │    │    │    │    └─Module: 6                         --                        --
│    │    │    │    │    │    └─Module: 7                    --                        --
│    │    │    │    │    │    │    └─Conv2d: 8-25            [1, 128, 64, 64]          16,384
│    │    │    │    │    │    │    └─BatchNorm2d: 8-26       [1, 128, 64, 64]          256
│    │    │    │    │    │    │    └─ReLU: 8-27              [1, 128, 64, 64]          --
│    │    │    │    │    │    └─Module: 7                    --                        --
│    │    │    │    │    │    │    └─Conv2d: 8-28            [1, 128, 64, 64]          18,432
│    │    │    │    │    │    │    └─BatchNorm2d: 8-29       [1, 128, 64, 64]          256
│    │    │    │    │    │    │    └─ReLU: 8-30              [1, 128, 64, 64]          --
│    │    │    │    │    │    └─Module: 7                    --                        --
│    │    │    │    │    │    │    └─Conv2d: 8-31            [1, 128, 64, 64]          16,384
│    │    │    │    │    │    │    └─BatchNorm2d: 8-32       [1, 128, 64, 64]          256
│    │    │    │    │    └─ReLU: 6-4                         [1, 128, 64, 64]          --
│    │    │    └─Module: 4                                   --                        --
│    │    │    │    └─Module: 5                              --                        --
│    │    │    │    │    └─Module: 6                         --                        --
│    │    │    │    │    │    └─Conv2d: 7-5                  [1, 288, 32, 32]          36,864
│    │    │    │    │    │    └─BatchNorm2d: 7-6             [1, 288, 32, 32]          576
│    │    │    │    │    └─Module: 6                         --                        --
│    │    │    │    │    │    └─Module: 7                    --                        --
│    │    │    │    │    │    │    └─Conv2d: 8-33            [1, 288, 64, 64]          36,864
│    │    │    │    │    │    │    └─BatchNorm2d: 8-34       [1, 288, 64, 64]          576
│    │    │    │    │    │    │    └─ReLU: 8-35              [1, 288, 64, 64]          --
│    │    │    │    │    │    └─Module: 7                    --                        --
│    │    │    │    │    │    │    └─Conv2d: 8-36            [1, 288, 32, 32]          41,472
│    │    │    │    │    │    │    └─BatchNorm2d: 8-37       [1, 288, 32, 32]          576
│    │    │    │    │    │    │    └─ReLU: 8-38              [1, 288, 32, 32]          --
│    │    │    │    │    │    └─Module: 7                    --                        --
│    │    │    │    │    │    │    └─Conv2d: 8-39            [1, 288, 32, 32]          82,944
│    │    │    │    │    │    │    └─BatchNorm2d: 8-40       [1, 288, 32, 32]          576
│    │    │    │    │    └─ReLU: 6-5                         [1, 288, 32, 32]          --
│    │    │    │    └─Module: 5                              --                        --
│    │    │    │    │    └─Module: 6                         --                        --
│    │    │    │    │    │    └─Module: 7                    --                        --
│    │    │    │    │    │    │    └─Conv2d: 8-41            [1, 288, 32, 32]          82,944
│    │    │    │    │    │    │    └─BatchNorm2d: 8-42       [1, 288, 32, 32]          576
│    │    │    │    │    │    │    └─ReLU: 8-43              [1, 288, 32, 32]          --
│    │    │    │    │    │    └─Module: 7                    --                        --
│    │    │    │    │    │    │    └─Conv2d: 8-44            [1, 288, 32, 32]          41,472
│    │    │    │    │    │    │    └─BatchNorm2d: 8-45       [1, 288, 32, 32]          576
│    │    │    │    │    │    │    └─ReLU: 8-46              [1, 288, 32, 32]          --
│    │    │    │    │    │    └─Module: 7                    --                        --
│    │    │    │    │    │    │    └─Conv2d: 8-47            [1, 288, 32, 32]          82,944
│    │    │    │    │    │    │    └─BatchNorm2d: 8-48       [1, 288, 32, 32]          576
│    │    │    │    │    └─ReLU: 6-6                         [1, 288, 32, 32]          --
│    │    │    │    └─Module: 5                              --                        --
│    │    │    │    │    └─Module: 6                         --                        --
│    │    │    │    │    │    └─Module: 7                    --                        --
│    │    │    │    │    │    │    └─Conv2d: 8-49            [1, 288, 32, 32]          82,944
│    │    │    │    │    │    │    └─BatchNorm2d: 8-50       [1, 288, 32, 32]          576
│    │    │    │    │    │    │    └─ReLU: 8-51              [1, 288, 32, 32]          --
│    │    │    │    │    │    └─Module: 7                    --                        --
│    │    │    │    │    │    │    └─Conv2d: 8-52            [1, 288, 32, 32]          41,472
│    │    │    │    │    │    │    └─BatchNorm2d: 8-53       [1, 288, 32, 32]          576
│    │    │    │    │    │    │    └─ReLU: 8-54              [1, 288, 32, 32]          --
│    │    │    │    │    │    └─Module: 7                    --                        --
│    │    │    │    │    │    │    └─Conv2d: 8-55            [1, 288, 32, 32]          82,944
│    │    │    │    │    │    │    └─BatchNorm2d: 8-56       [1, 288, 32, 32]          576
│    │    │    │    │    └─ReLU: 6-7                         [1, 288, 32, 32]          --
│    │    │    │    └─Module: 5                              --                        --
│    │    │    │    │    └─Module: 6                         --                        --
│    │    │    │    │    │    └─Module: 7                    --                        --
│    │    │    │    │    │    │    └─Conv2d: 8-57            [1, 288, 32, 32]          82,944
│    │    │    │    │    │    │    └─BatchNorm2d: 8-58       [1, 288, 32, 32]          576
│    │    │    │    │    │    │    └─ReLU: 8-59              [1, 288, 32, 32]          --
│    │    │    │    │    │    └─Module: 7                    --                        --
│    │    │    │    │    │    │    └─Conv2d: 8-60            [1, 288, 32, 32]          41,472
│    │    │    │    │    │    │    └─BatchNorm2d: 8-61       [1, 288, 32, 32]          576
│    │    │    │    │    │    │    └─ReLU: 8-62              [1, 288, 32, 32]          --
│    │    │    │    │    │    └─Module: 7                    --                        --
│    │    │    │    │    │    │    └─Conv2d: 8-63            [1, 288, 32, 32]          82,944
│    │    │    │    │    │    │    └─BatchNorm2d: 8-64       [1, 288, 32, 32]          576
│    │    │    │    │    └─ReLU: 6-8                         [1, 288, 32, 32]          --
│    │    │    │    └─Module: 5                              --                        --
│    │    │    │    │    └─Module: 6                         --                        --
│    │    │    │    │    │    └─Module: 7                    --                        --
│    │    │    │    │    │    │    └─Conv2d: 8-65            [1, 288, 32, 32]          82,944
│    │    │    │    │    │    │    └─BatchNorm2d: 8-66       [1, 288, 32, 32]          576
│    │    │    │    │    │    │    └─ReLU: 8-67              [1, 288, 32, 32]          --
│    │    │    │    │    │    └─Module: 7                    --                        --
│    │    │    │    │    │    │    └─Conv2d: 8-68            [1, 288, 32, 32]          41,472
│    │    │    │    │    │    │    └─BatchNorm2d: 8-69       [1, 288, 32, 32]          576
│    │    │    │    │    │    │    └─ReLU: 8-70              [1, 288, 32, 32]          --
│    │    │    │    │    │    └─Module: 7                    --                        --
│    │    │    │    │    │    │    └─Conv2d: 8-71            [1, 288, 32, 32]          82,944
│    │    │    │    │    │    │    └─BatchNorm2d: 8-72       [1, 288, 32, 32]          576
│    │    │    │    │    └─ReLU: 6-9                         [1, 288, 32, 32]          --
│    │    │    │    └─Module: 5                              --                        --
│    │    │    │    │    └─Module: 6                         --                        --
│    │    │    │    │    │    └─Module: 7                    --                        --
│    │    │    │    │    │    │    └─Conv2d: 8-73            [1, 288, 32, 32]          82,944
│    │    │    │    │    │    │    └─BatchNorm2d: 8-74       [1, 288, 32, 32]          576
│    │    │    │    │    │    │    └─ReLU: 8-75              [1, 288, 32, 32]          --
│    │    │    │    │    │    └─Module: 7                    --                        --
│    │    │    │    │    │    │    └─Conv2d: 8-76            [1, 288, 32, 32]          41,472
│    │    │    │    │    │    │    └─BatchNorm2d: 8-77       [1, 288, 32, 32]          576
│    │    │    │    │    │    │    └─ReLU: 8-78              [1, 288, 32, 32]          --
│    │    │    │    │    │    └─Module: 7                    --                        --
│    │    │    │    │    │    │    └─Conv2d: 8-79            [1, 288, 32, 32]          82,944
│    │    │    │    │    │    │    └─BatchNorm2d: 8-80       [1, 288, 32, 32]          576
│    │    │    │    │    └─ReLU: 6-10                        [1, 288, 32, 32]          --
│    │    │    │    └─Module: 5                              --                        --
│    │    │    │    │    └─Module: 6                         --                        --
│    │    │    │    │    │    └─Module: 7                    --                        --
│    │    │    │    │    │    │    └─Conv2d: 8-81            [1, 288, 32, 32]          82,944
│    │    │    │    │    │    │    └─BatchNorm2d: 8-82       [1, 288, 32, 32]          576
│    │    │    │    │    │    │    └─ReLU: 8-83              [1, 288, 32, 32]          --
│    │    │    │    │    │    └─Module: 7                    --                        --
│    │    │    │    │    │    │    └─Conv2d: 8-84            [1, 288, 32, 32]          41,472
│    │    │    │    │    │    │    └─BatchNorm2d: 8-85       [1, 288, 32, 32]          576
│    │    │    │    │    │    │    └─ReLU: 8-86              [1, 288, 32, 32]          --
│    │    │    │    │    │    └─Module: 7                    --                        --
│    │    │    │    │    │    │    └─Conv2d: 8-87            [1, 288, 32, 32]          82,944
│    │    │    │    │    │    │    └─BatchNorm2d: 8-88       [1, 288, 32, 32]          576
│    │    │    │    │    └─ReLU: 6-11                        [1, 288, 32, 32]          --
│    │    │    └─Module: 4                                   --                        --
│    │    │    │    └─Module: 5                              --                        --
│    │    │    │    │    └─Module: 6                         --                        --
│    │    │    │    │    │    └─Conv2d: 7-7                  [1, 672, 16, 16]          193,536
│    │    │    │    │    │    └─BatchNorm2d: 7-8             [1, 672, 16, 16]          1,344
│    │    │    │    │    └─Module: 6                         --                        --
│    │    │    │    │    │    └─Module: 7                    --                        --
│    │    │    │    │    │    │    └─Conv2d: 8-89            [1, 672, 32, 32]          193,536
│    │    │    │    │    │    │    └─BatchNorm2d: 8-90       [1, 672, 32, 32]          1,344
│    │    │    │    │    │    │    └─ReLU: 8-91              [1, 672, 32, 32]          --
│    │    │    │    │    │    └─Module: 7                    --                        --
│    │    │    │    │    │    │    └─Conv2d: 8-92            [1, 672, 16, 16]          96,768
│    │    │    │    │    │    │    └─BatchNorm2d: 8-93       [1, 672, 16, 16]          1,344
│    │    │    │    │    │    │    └─ReLU: 8-94              [1, 672, 16, 16]          --
│    │    │    │    │    │    └─Module: 7                    --                        --
│    │    │    │    │    │    │    └─Conv2d: 8-95            [1, 672, 16, 16]          451,584
│    │    │    │    │    │    │    └─BatchNorm2d: 8-96       [1, 672, 16, 16]          1,344
│    │    │    │    │    └─ReLU: 6-12                        [1, 672, 16, 16]          --
│    │    │    │    └─Module: 5                              --                        --
│    │    │    │    │    └─Module: 6                         --                        --
│    │    │    │    │    │    └─Module: 7                    --                        --
│    │    │    │    │    │    │    └─Conv2d: 8-97            [1, 672, 16, 16]          451,584
│    │    │    │    │    │    │    └─BatchNorm2d: 8-98       [1, 672, 16, 16]          1,344
│    │    │    │    │    │    │    └─ReLU: 8-99              [1, 672, 16, 16]          --
│    │    │    │    │    │    └─Module: 7                    --                        --
│    │    │    │    │    │    │    └─Conv2d: 8-100           [1, 672, 16, 16]          96,768
│    │    │    │    │    │    │    └─BatchNorm2d: 8-101      [1, 672, 16, 16]          1,344
│    │    │    │    │    │    │    └─ReLU: 8-102             [1, 672, 16, 16]          --
│    │    │    │    │    │    └─Module: 7                    --                        --
│    │    │    │    │    │    │    └─Conv2d: 8-103           [1, 672, 16, 16]          451,584
│    │    │    │    │    │    │    └─BatchNorm2d: 8-104      [1, 672, 16, 16]          1,344
│    │    │    │    │    └─ReLU: 6-13                        [1, 672, 16, 16]          --
│    │    │    │    └─Module: 5                              --                        --
│    │    │    │    │    └─Module: 6                         --                        --
│    │    │    │    │    │    └─Module: 7                    --                        --
│    │    │    │    │    │    │    └─Conv2d: 8-105           [1, 672, 16, 16]          451,584
│    │    │    │    │    │    │    └─BatchNorm2d: 8-106      [1, 672, 16, 16]          1,344
│    │    │    │    │    │    │    └─ReLU: 8-107             [1, 672, 16, 16]          --
│    │    │    │    │    │    └─Module: 7                    --                        --
│    │    │    │    │    │    │    └─Conv2d: 8-108           [1, 672, 16, 16]          96,768
│    │    │    │    │    │    │    └─BatchNorm2d: 8-109      [1, 672, 16, 16]          1,344
│    │    │    │    │    │    │    └─ReLU: 8-110             [1, 672, 16, 16]          --
│    │    │    │    │    │    └─Module: 7                    --                        --
│    │    │    │    │    │    │    └─Conv2d: 8-111           [1, 672, 16, 16]          451,584
│    │    │    │    │    │    │    └─BatchNorm2d: 8-112      [1, 672, 16, 16]          1,344
│    │    │    │    │    └─ReLU: 6-14                        [1, 672, 16, 16]          --
│    │    │    │    └─Module: 5                              --                        --
│    │    │    │    │    └─Module: 6                         --                        --
│    │    │    │    │    │    └─Module: 7                    --                        --
│    │    │    │    │    │    │    └─Conv2d: 8-113           [1, 672, 16, 16]          451,584
│    │    │    │    │    │    │    └─BatchNorm2d: 8-114      [1, 672, 16, 16]          1,344
│    │    │    │    │    │    │    └─ReLU: 8-115             [1, 672, 16, 16]          --
│    │    │    │    │    │    └─Module: 7                    --                        --
│    │    │    │    │    │    │    └─Conv2d: 8-116           [1, 672, 16, 16]          96,768
│    │    │    │    │    │    │    └─BatchNorm2d: 8-117      [1, 672, 16, 16]          1,344
│    │    │    │    │    │    │    └─ReLU: 8-118             [1, 672, 16, 16]          --
│    │    │    │    │    │    └─Module: 7                    --                        --
│    │    │    │    │    │    │    └─Conv2d: 8-119           [1, 672, 16, 16]          451,584
│    │    │    │    │    │    │    └─BatchNorm2d: 8-120      [1, 672, 16, 16]          1,344
│    │    │    │    │    └─ReLU: 6-15                        [1, 672, 16, 16]          --
│    │    │    │    └─Module: 5                              --                        --
│    │    │    │    │    └─Module: 6                         --                        --
│    │    │    │    │    │    └─Module: 7                    --                        --
│    │    │    │    │    │    │    └─Conv2d: 8-121           [1, 672, 16, 16]          451,584
│    │    │    │    │    │    │    └─BatchNorm2d: 8-122      [1, 672, 16, 16]          1,344
│    │    │    │    │    │    │    └─ReLU: 8-123             [1, 672, 16, 16]          --
│    │    │    │    │    │    └─Module: 7                    --                        --
│    │    │    │    │    │    │    └─Conv2d: 8-124           [1, 672, 16, 16]          96,768
│    │    │    │    │    │    │    └─BatchNorm2d: 8-125      [1, 672, 16, 16]          1,344
│    │    │    │    │    │    │    └─ReLU: 8-126             [1, 672, 16, 16]          --
│    │    │    │    │    │    └─Module: 7                    --                        --
│    │    │    │    │    │    │    └─Conv2d: 8-127           [1, 672, 16, 16]          451,584
│    │    │    │    │    │    │    └─BatchNorm2d: 8-128      [1, 672, 16, 16]          1,344
│    │    │    │    │    └─ReLU: 6-16                        [1, 672, 16, 16]          --
│    └─FeaturePyramidNetwork: 2-2                            [1, 256, 2, 2]            --
│    │    └─ModuleList: 3-1                                  --                        --
│    │    │    └─Conv2d: 4-4                                 [1, 256, 16, 16]          172,288
│    │    └─ModuleList: 3-2                                  --                        --
│    │    │    └─Sequential: 4-5                             [1, 256, 16, 16]          --
│    │    │    │    └─Sequential: 5-1                        [1, 256, 16, 16]          --
│    │    │    │    │    └─Conv2d: 6-17                      [1, 256, 16, 16]          37,120
│    │    │    │    │    └─BatchNorm2d: 6-18                 [1, 256, 16, 16]          512
│    │    │    │    │    └─ReLU: 6-19                        [1, 256, 16, 16]          --
│    │    │    │    └─Sequential: 5-2                        [1, 256, 16, 16]          --
│    │    │    │    │    └─Conv2d: 6-20                      [1, 256, 16, 16]          65,792
│    │    └─ModuleList: 3-1                                  --                        --
│    │    │    └─Conv2d: 4-6                                 [1, 256, 32, 32]          73,984
│    │    └─ModuleList: 3-3                                  --                        --
│    │    │    └─AddBlock: 4-7                               [1, 256, 32, 32]          --
│    │    └─ModuleList: 3-2                                  --                        --
│    │    │    └─Sequential: 4-8                             [1, 256, 32, 32]          --
│    │    │    │    └─Sequential: 5-3                        [1, 256, 32, 32]          --
│    │    │    │    │    └─Conv2d: 6-21                      [1, 256, 32, 32]          37,120
│    │    │    │    │    └─BatchNorm2d: 6-22                 [1, 256, 32, 32]          512
│    │    │    │    │    └─ReLU: 6-23                        [1, 256, 32, 32]          --
│    │    │    │    └─Sequential: 5-4                        [1, 256, 32, 32]          --
│    │    │    │    │    └─Conv2d: 6-24                      [1, 256, 32, 32]          65,792
│    │    └─ModuleList: 3-1                                  --                        --
│    │    │    └─Conv2d: 4-9                                 [1, 256, 64, 64]          33,024
│    │    └─ModuleList: 3-3                                  --                        --
│    │    │    └─AddBlock: 4-10                              [1, 256, 64, 64]          --
│    │    └─ModuleList: 3-2                                  --                        --
│    │    │    └─Sequential: 4-11                            [1, 256, 64, 64]          --
│    │    │    │    └─Sequential: 5-5                        [1, 256, 64, 64]          --
│    │    │    │    │    └─Conv2d: 6-25                      [1, 256, 64, 64]          37,120
│    │    │    │    │    └─BatchNorm2d: 6-26                 [1, 256, 64, 64]          512
│    │    │    │    │    └─ReLU: 6-27                        [1, 256, 64, 64]          --
│    │    │    │    └─Sequential: 5-6                        [1, 256, 64, 64]          --
│    │    │    │    │    └─Conv2d: 6-28                      [1, 256, 64, 64]          65,792
│    │    └─LastLevelP6P7: 3-6                               [1, 256, 64, 64]          --
│    │    │    └─Sequential: 4-12                            [1, 256, 8, 8]            --
│    │    │    │    └─Sequential: 5-7                        [1, 256, 8, 8]            --
│    │    │    │    │    └─Conv2d: 6-29                      [1, 256, 8, 8]            37,120
│    │    │    │    │    └─BatchNorm2d: 6-30                 [1, 256, 8, 8]            512
│    │    │    │    │    └─ReLU: 6-31                        [1, 256, 8, 8]            --
│    │    │    │    └─Sequential: 5-8                        [1, 256, 8, 8]            --
│    │    │    │    │    └─Conv2d: 6-32                      [1, 256, 8, 8]            65,792
│    │    │    └─ReLU: 4-13                                  [1, 256, 8, 8]            --
│    │    │    └─Sequential: 4-14                            [1, 256, 4, 4]            --
│    │    │    │    └─Sequential: 5-9                        [1, 256, 4, 4]            --
│    │    │    │    │    └─Conv2d: 6-33                      [1, 256, 4, 4]            37,120
│    │    │    │    │    └─BatchNorm2d: 6-34                 [1, 256, 4, 4]            512
│    │    │    │    │    └─ReLU: 6-35                        [1, 256, 4, 4]            --
│    │    │    │    └─Sequential: 5-10                       [1, 256, 4, 4]            --
│    │    │    │    │    └─Conv2d: 6-36                      [1, 256, 4, 4]            65,792
│    │    │    └─ReLU: 4-15                                  [1, 256, 4, 4]            --
│    │    │    └─Sequential: 4-16                            [1, 256, 2, 2]            --
│    │    │    │    └─Sequential: 5-11                       [1, 256, 2, 2]            --
│    │    │    │    │    └─Conv2d: 6-37                      [1, 256, 2, 2]            37,120
│    │    │    │    │    └─BatchNorm2d: 6-38                 [1, 256, 2, 2]            512
│    │    │    │    │    └─ReLU: 6-39                        [1, 256, 2, 2]            --
│    │    │    │    └─Sequential: 5-12                       [1, 256, 2, 2]            --
│    │    │    │    │    └─Conv2d: 6-40                      [1, 256, 2, 2]            65,792
├─SSDLiteHead: 1-3                                           [1, 24560, 91]            --
│    └─SSDLiteRegressionHead: 2-3                            [1, 24560, 4]             --
│    │    └─ModuleList: 3-5                                  --                        --
│    │    │    └─Sequential: 4-17                            [1, 16, 64, 64]           --
│    │    │    │    └─ConvNormActivation: 5-13               [1, 256, 64, 64]          --
│    │    │    │    │    └─Conv2d: 6-41                      [1, 256, 64, 64]          2,304
│    │    │    │    │    └─BatchNorm2d: 6-42                 [1, 256, 64, 64]          512
│    │    │    │    │    └─ReLU: 6-43                        [1, 256, 64, 64]          --
│    │    │    │    └─Conv2d: 5-14                           [1, 16, 64, 64]           4,112
│    │    │    └─Sequential: 4-18                            [1, 24, 32, 32]           --
│    │    │    │    └─ConvNormActivation: 5-15               [1, 256, 32, 32]          --
│    │    │    │    │    └─Conv2d: 6-44                      [1, 256, 32, 32]          2,304
│    │    │    │    │    └─BatchNorm2d: 6-45                 [1, 256, 32, 32]          512
│    │    │    │    │    └─ReLU: 6-46                        [1, 256, 32, 32]          --
│    │    │    │    └─Conv2d: 5-16                           [1, 24, 32, 32]           6,168
│    │    │    └─Sequential: 4-19                            [1, 24, 16, 16]           --
│    │    │    │    └─ConvNormActivation: 5-17               [1, 256, 16, 16]          --
│    │    │    │    │    └─Conv2d: 6-47                      [1, 256, 16, 16]          2,304
│    │    │    │    │    └─BatchNorm2d: 6-48                 [1, 256, 16, 16]          512
│    │    │    │    │    └─ReLU: 6-49                        [1, 256, 16, 16]          --
│    │    │    │    └─Conv2d: 5-18                           [1, 24, 16, 16]           6,168
│    │    │    └─Sequential: 4-20                            [1, 24, 8, 8]             --
│    │    │    │    └─ConvNormActivation: 5-19               [1, 256, 8, 8]            --
│    │    │    │    │    └─Conv2d: 6-50                      [1, 256, 8, 8]            2,304
│    │    │    │    │    └─BatchNorm2d: 6-51                 [1, 256, 8, 8]            512
│    │    │    │    │    └─ReLU: 6-52                        [1, 256, 8, 8]            --
│    │    │    │    └─Conv2d: 5-20                           [1, 24, 8, 8]             6,168
│    │    │    └─Sequential: 4-21                            [1, 24, 4, 4]             --
│    │    │    │    └─ConvNormActivation: 5-21               [1, 256, 4, 4]            --
│    │    │    │    │    └─Conv2d: 6-53                      [1, 256, 4, 4]            2,304
│    │    │    │    │    └─BatchNorm2d: 6-54                 [1, 256, 4, 4]            512
│    │    │    │    │    └─ReLU: 6-55                        [1, 256, 4, 4]            --
│    │    │    │    └─Conv2d: 5-22                           [1, 24, 4, 4]             6,168
│    │    │    └─Sequential: 4-22                            [1, 16, 2, 2]             --
│    │    │    │    └─ConvNormActivation: 5-23               [1, 256, 2, 2]            --
│    │    │    │    │    └─Conv2d: 6-56                      [1, 256, 2, 2]            2,304
│    │    │    │    │    └─BatchNorm2d: 6-57                 [1, 256, 2, 2]            512
│    │    │    │    │    └─ReLU: 6-58                        [1, 256, 2, 2]            --
│    │    │    │    └─Conv2d: 5-24                           [1, 16, 2, 2]             4,112
│    └─SSDLiteClassificationHead: 2-4                        [1, 24560, 91]            --
│    │    └─ModuleList: 3-4                                  --                        --
│    │    │    └─Sequential: 4-23                            [1, 364, 64, 64]          --
│    │    │    │    └─ConvNormActivation: 5-25               [1, 256, 64, 64]          --
│    │    │    │    │    └─Conv2d: 6-59                      [1, 256, 64, 64]          2,304
│    │    │    │    │    └─BatchNorm2d: 6-60                 [1, 256, 64, 64]          512
│    │    │    │    │    └─ReLU: 6-61                        [1, 256, 64, 64]          --
│    │    │    │    └─Conv2d: 5-26                           [1, 364, 64, 64]          93,548
│    │    │    └─Sequential: 4-24                            [1, 546, 32, 32]          --
│    │    │    │    └─ConvNormActivation: 5-27               [1, 256, 32, 32]          --
│    │    │    │    │    └─Conv2d: 6-62                      [1, 256, 32, 32]          2,304
│    │    │    │    │    └─BatchNorm2d: 6-63                 [1, 256, 32, 32]          512
│    │    │    │    │    └─ReLU: 6-64                        [1, 256, 32, 32]          --
│    │    │    │    └─Conv2d: 5-28                           [1, 546, 32, 32]          140,322
│    │    │    └─Sequential: 4-25                            [1, 546, 16, 16]          --
│    │    │    │    └─ConvNormActivation: 5-29               [1, 256, 16, 16]          --
│    │    │    │    │    └─Conv2d: 6-65                      [1, 256, 16, 16]          2,304
│    │    │    │    │    └─BatchNorm2d: 6-66                 [1, 256, 16, 16]          512
│    │    │    │    │    └─ReLU: 6-67                        [1, 256, 16, 16]          --
│    │    │    │    └─Conv2d: 5-30                           [1, 546, 16, 16]          140,322
│    │    │    └─Sequential: 4-26                            [1, 546, 8, 8]            --
│    │    │    │    └─ConvNormActivation: 5-31               [1, 256, 8, 8]            --
│    │    │    │    │    └─Conv2d: 6-68                      [1, 256, 8, 8]            2,304
│    │    │    │    │    └─BatchNorm2d: 6-69                 [1, 256, 8, 8]            512
│    │    │    │    │    └─ReLU: 6-70                        [1, 256, 8, 8]            --
│    │    │    │    └─Conv2d: 5-32                           [1, 546, 8, 8]            140,322
│    │    │    └─Sequential: 4-27                            [1, 546, 4, 4]            --
│    │    │    │    └─ConvNormActivation: 5-33               [1, 256, 4, 4]            --
│    │    │    │    │    └─Conv2d: 6-71                      [1, 256, 4, 4]            2,304
│    │    │    │    │    └─BatchNorm2d: 6-72                 [1, 256, 4, 4]            512
│    │    │    │    │    └─ReLU: 6-73                        [1, 256, 4, 4]            --
│    │    │    │    └─Conv2d: 5-34                           [1, 546, 4, 4]            140,322
│    │    │    └─Sequential: 4-28                            [1, 364, 2, 2]            --
│    │    │    │    └─ConvNormActivation: 5-35               [1, 256, 2, 2]            --
│    │    │    │    │    └─Conv2d: 6-74                      [1, 256, 2, 2]            2,304
│    │    │    │    │    └─BatchNorm2d: 6-75                 [1, 256, 2, 2]            512
│    │    │    │    │    └─ReLU: 6-76                        [1, 256, 2, 2]            --
│    │    │    │    └─Conv2d: 5-36                           [1, 364, 2, 2]            93,548
├─DefaultBoxGenerator: 1-4                                   [24560, 4]                --
==============================================================================================================
Total params: 8,301,568
Trainable params: 8,301,568
Non-trainable params: 0
Total mult-adds (G): 5.62
==============================================================================================================
Input size (MB): 3.15
Forward/backward pass size (MB): 538.26
Params size (MB): 33.21
…
