…
│    │    └─ModuleList: 3-3                             --                        --
├─SSDLiteHead: 1                                        --                        --
│    └─SSDLiteClassificationHead: 2                     --                        --
│    │    └─ModuleList: 3-4                             --                        --
│    └─SSDLiteRegressionHead: 2                         --                        --
│    │    └─ModuleList: 3-5                             --                        --
├─GeneralizedRCNNTransform: 1-1                         --                        --
├─BackboneWithFPN: 1-2                                  [1, 256, 2, 2]            --
│    └─IntermediateModuleGetter: 2-1                    [1, 320, 16, 16]          --
│    │    └─ConvNormActivation: 3-6                     [1, 32, 256, 256]         --
│    │    │    └─Conv2d: 4-1                            [1, 32, 256, 256]         864
│    │    │    └─BatchNorm2d: 4-2                       [1, 32, 256, 256]         64
│    │    │    └─ReLU: 4-3                              [1, 32, 256, 256]         --
│    │    └─Sequential: 3-7                             [1, 16, 256, 256]         --
│    │    │    └─MBConv: 4-4                            [1, 16, 256, 256]         --
│    │    │    │    └─Sequential: 5-1                   [1, 16, 256, 256]         --
│    │    │    │    │    └─ConvNormActivation: 6-1      [1, 32, 256, 256]         --
│    │    │    │    │    │    └─Conv2d: 7-1             [1, 32, 256, 256]         288
│    │    │    │    │    │    └─BatchNorm2d: 7-2        [1, 32, 256, 256]         64
│    │    │    │    │    │    └─ReLU: 7-3               [1, 32, 256, 256]         --
│    │    │    │    │    └─Identity: 6-2                [1, 32, 256, 256]         --
│    │    │    │    │    └─ConvNormActivation: 6-3      [1, 16, 256, 256]         --
│    │    │    │    │    │    └─Conv2d: 7-4             [1, 16, 256, 256]         512
│    │    │    │    │    │    └─BatchNorm2d: 7-5        [1, 16, 256, 256]         32
│    │    └─Sequential: 3-8                             [1, 24, 128, 128]         --
│    │    │    └─MBConv: 4-5                            [1, 24, 128, 128]         --
│    │    │    │    └─Sequential: 5-2                   [1, 24, 128, 128]         --
│    │    │    │    │    └─ConvNormActivation: 6-4      [1, 96, 256, 256]         --
│    │    │    │    │    │    └─Conv2d: 7-6             [1, 96, 256, 256]         1,536
│    │    │    │    │    │    └─BatchNorm2d: 7-7        [1, 96, 256, 256]         192
│    │    │    │    │    │    └─ReLU: 7-8               [1, 96, 256, 256]         --
│    │    │    │    │    └─ConvNormActivation: 6-5      [1, 96, 128, 128]         --
│    │    │    │    │    │    └─Conv2d: 7-9             [1, 96, 128, 128]         864
│    │    │    │    │    │    └─BatchNorm2d: 7-10       [1, 96, 128, 128]         192
│    │    │    │    │    │    └─ReLU: 7-11              [1, 96, 128, 128]         --
│    │    │    │    │    └─Identity: 6-6                [1, 96, 128, 128]         --
│    │    │    │    │    └─ConvNormActivation: 6-7      [1, 24, 128, 128]         --
│    │    │    │    │    │    └─Conv2d: 7-12            [1, 24, 128, 128]         2,304
│    │    │    │    │    │    └─BatchNorm2d: 7-13       [1, 24, 128, 128]         48
│    │    │    └─MBConv: 4-6                            [1, 24, 128, 128]         --
│    │    │    │    └─Sequential: 5-3                   [1, 24, 128, 128]         --
│    │    │    │    │    └─ConvNormActivation: 6-8      [1, 144, 128, 128]        --
│    │    │    │    │    │    └─Conv2d: 7-14            [1, 144, 128, 128]        3,456
│    │    │    │    │    │    └─BatchNorm2d: 7-15       [1, 144, 128, 128]        288
│    │    │    │    │    │    └─ReLU: 7-16              [1, 144, 128, 128]        --
│    │    │    │    │    └─ConvNormActivation: 6-9      [1, 144, 128, 128]        --
│    │    │    │    │    │    └─Conv2d: 7-17            [1, 144, 128, 128]        1,296
│    │    │    │    │    │    └─BatchNorm2d: 7-18       [1, 144, 128, 128]        288
│    │    │    │    │    │    └─ReLU: 7-19              [1, 144, 128, 128]        --
│    │    │    │    │    └─Identity: 6-10               [1, 144, 128, 128]        --
│    │    │    │    │    └─ConvNormActivation: 6-11     [1, 24, 128, 128]         --
│    │    │    │    │    │    └─Conv2d: 7-20            [1, 24, 128, 128]         3,456
│    │    │    │    │    │    └─BatchNorm2d: 7-21       [1, 24, 128, 128]         48
│    │    │    │    └─StochasticDepth: 5-4              [1, 24, 128, 128]         --
│    │    │    │    └─AddBlock: 5-5                     [1, 24, 128, 128]         --
│    │    └─Sequential: 3-9                             [1, 40, 64, 64]           --
│    │    │    └─MBConv: 4-7                            [1, 40, 64, 64]           --
│    │    │    │    └─Sequential: 5-6                   [1, 40, 64, 64]           --
│    │    │    │    │    └─ConvNormActivation: 6-12     [1, 144, 128, 128]        --
│    │    │    │    │    │    └─Conv2d: 7-22            [1, 144, 128, 128]        3,456
│    │    │    │    │    │    └─BatchNorm2d: 7-23       [1, 144, 128, 128]        288
│    │    │    │    │    │    └─ReLU: 7-24              [1, 144, 128, 128]        --
│    │    │    │    │    └─ConvNormActivation: 6-13     [1, 144, 64, 64]          --
│    │    │    │    │    │    └─Conv2d: 7-25            [1, 144, 64, 64]          3,600
│    │    │    │    │    │    └─BatchNorm2d: 7-26       [1, 144, 64, 64]          288
│    │    │    │    │    │    └─ReLU: 7-27              [1, 144, 64, 64]          --
│    │    │    │    │    └─Identity: 6-14               [1, 144, 64, 64]          --
│    │    │    │    │    └─ConvNormActivation: 6-15     [1, 40, 64, 64]           --
│    │    │    │    │    │    └─Conv2d: 7-28            [1, 40, 64, 64]           5,760
│    │    │    │    │    │    └─BatchNorm2d: 7-29       [1, 40, 64, 64]           80
│    │    │    └─MBConv: 4-8                            [1, 40, 64, 64]           --
│    │    │    │    └─Sequential: 5-7                   [1, 40, 64, 64]           --
│    │    │    │    │    └─ConvNormActivation: 6-16     [1, 240, 64, 64]          --
│    │    │    │    │    │    └─Conv2d: 7-30            [1, 240, 64, 64]          9,600
│    │    │    │    │    │    └─BatchNorm2d: 7-31       [1, 240, 64, 64]          480
│    │    │    │    │    │    └─ReLU: 7-32              [1, 240, 64, 64]          --
│    │    │    │    │    └─ConvNormActivation: 6-17     [1, 240, 64, 64]          --
│    │    │    │    │    │    └─Conv2d: 7-33            [1, 240, 64, 64]          6,000
│    │    │    │    │    │    └─BatchNorm2d: 7-34       [1, 240, 64, 64]          480
│    │    │    │    │    │    └─ReLU: 7-35              [1, 240, 64, 64]          --
│    │    │    │    │    └─Identity: 6-18               [1, 240, 64, 64]          --
│    │    │    │    │    └─ConvNormActivation: 6-19     [1, 40, 64, 64]           --
│    │    │    │    │    │    └─Conv2d: 7-36            [1, 40, 64, 64]           9,600
│    │    │    │    │    │    └─BatchNorm2d: 7-37       [1, 40, 64, 64]           80
│    │    │    │    └─StochasticDepth: 5-8              [1, 40, 64, 64]           --
│    │    │    │    └─AddBlock: 5-9                     [1, 40, 64, 64]           --
│    │    └─Sequential: 3-10                            [1, 80, 32, 32]           --
│    │    │    └─MBConv: 4-9                            [1, 80, 32, 32]           --
│    │    │    │    └─Sequential: 5-10                  [1, 80, 32, 32]           --
│    │    │    │    │    └─ConvNormActivation: 6-20     [1, 240, 64, 64]          --
│    │    │    │    │    │    └─Conv2d: 7-38            [1, 240, 64, 64]          9,600
│    │    │    │    │    │    └─BatchNorm2d: 7-39       [1, 240, 64, 64]          480
│    │    │    │    │    │    └─ReLU: 7-40              [1, 240, 64, 64]          --
│    │    │    │    │    └─ConvNormActivation: 6-21     [1, 240, 32, 32]          --
│    │    │    │    │    │    └─Conv2d: 7-41            [1, 240, 32, 32]          2,160
│    │    │    │    │    │    └─BatchNorm2d: 7-42       [1, 240, 32, 32]          480
│    │    │    │    │    │    └─ReLU: 7-43              [1, 240, 32, 32]          --
│    │    │    │    │    └─Identity: 6-22               [1, 240, 32, 32]          --
│    │    │    │    │    └─ConvNormActivation: 6-23     [1, 80, 32, 32]           --
│    │    │    │    │    │    └─Conv2d: 7-44            [1, 80, 32, 32]           19,200
│    │    │    │    │    │    └─BatchNorm2d: 7-45       [1, 80, 32, 32]           160
│    │    │    └─MBConv: 4-10                           [1, 80, 32, 32]           --
│    │    │    │    └─Sequential: 5-11                  [1, 80, 32, 32]           --
│    │    │    │    │    └─ConvNormActivation: 6-24     [1, 480, 32, 32]          --
│    │    │    │    │    │    └─Conv2d: 7-46            [1, 480, 32, 32]          38,400
│    │    │    │    │    │    └─BatchNorm2d: 7-47       [1, 480, 32, 32]          960
│    │    │    │    │    │    └─ReLU: 7-48              [1, 480, 32, 32]          --
│    │    │    │    │    └─ConvNormActivation: 6-25     [1, 480, 32, 32]          --
│    │    │    │    │    │    └─Conv2d: 7-49            [1, 480, 32, 32]          4,320
│    │    │    │    │    │    └─BatchNorm2d: 7-50       [1, 480, 32, 32]          960
│    │    │    │    │    │    └─ReLU: 7-51              [1, 480, 32, 32]          --
│    │    │    │    │    └─Identity: 6-26               [1, 480, 32, 32]          --
│    │    │    │    │    └─ConvNormActivation: 6-27     [1, 80, 32, 32]           --
│    │    │    │    │    │    └─Conv2d: 7-52            [1, 80, 32, 32]           38,400
│    │    │    │    │    │    └─BatchNorm2d: 7-53       [1, 80, 32, 32]           160
│    │    │    │    └─StochasticDepth: 5-12             [1, 80, 32, 32]           --
│    │    │    │    └─AddBlock: 5-13                    [1, 80, 32, 32]           --
│    │    │    └─MBConv: 4-11                           [1, 80, 32, 32]           --
│    │    │    │    └─Sequential: 5-14                  [1, 80, 32, 32]           --
│    │    │    │    │    └─ConvNormActivation: 6-28     [1, 480, 32, 32]          --
│    │    │    │    │    │    └─Conv2d: 7-54            [1, 480, 32, 32]          38,400
│    │    │    │    │    │    └─BatchNorm2d: 7-55       [1, 480, 32, 32]          960
│    │    │    │    │    │    └─ReLU: 7-56              [1, 480, 32, 32]          --
│    │    │    │    │    └─ConvNormActivation: 6-29     [1, 480, 32, 32]          --
│    │    │    │    │    │    └─Conv2d: 7-57            [1, 480, 32, 32]          4,320
│    │    │    │    │    │    └─BatchNorm2d: 7-58       [1, 480, 32, 32]          960
│    │    │    │    │    │    └─ReLU: 7-59              [1, 480, 32, 32]          --
│    │    │    │    │    └─Identity: 6-30               [1, 480, 32, 32]          --
│    │    │    │    │    └─ConvNormActivation: 6-31     [1, 80, 32, 32]           --
│    │    │    │    │    │    └─Conv2d: 7-60            [1, 80, 32, 32]           38,400
│    │    │    │    │    │    └─BatchNorm2d: 7-61       [1, 80, 32, 32]           160
│    │    │    │    └─StochasticDepth: 5-15             [1, 80, 32, 32]           --
│    │    │    │    └─AddBlock: 5-16                    [1, 80, 32, 32]           --
│    │    └─Sequential: 3-11                            [1, 112, 32, 32]          --
│    │    │    └─MBConv: 4-12                           [1, 112, 32, 32]          --
│    │    │    │    └─Sequential: 5-17                  [1, 112, 32, 32]          --
│    │    │    │    │    └─ConvNormActivation: 6-32     [1, 480, 32, 32]          --
│    │    │    │    │    │    └─Conv2d: 7-62            [1, 480, 32, 32]          38,400
│    │    │    │    │    │    └─BatchNorm2d: 7-63       [1, 480, 32, 32]          960
│    │    │    │    │    │    └─ReLU: 7-64              [1, 480, 32, 32]          --
│    │    │    │    │    └─ConvNormActivation: 6-33     [1, 480, 32, 32]          --
│    │    │    │    │    │    └─Conv2d: 7-65            [1, 480, 32, 32]          12,000
│    │    │    │    │    │    └─BatchNorm2d: 7-66       [1, 480, 32, 32]          960
│    │    │    │    │    │    └─ReLU: 7-67              [1, 480, 32, 32]          --
│    │    │    │    │    └─Identity: 6-34               [1, 480, 32, 32]          --
│    │    │    │    │    └─ConvNormActivation: 6-35     [1, 112, 32, 32]          --
│    │    │    │    │    │    └─Conv2d: 7-68            [1, 112, 32, 32]          53,760
│    │    │    │    │    │    └─BatchNorm2d: 7-69       [1, 112, 32, 32]          224
│    │    │    └─MBConv: 4-13                           [1, 112, 32, 32]          --
│    │    │    │    └─Sequential: 5-18                  [1, 112, 32, 32]          --
│    │    │    │    │    └─ConvNormActivation: 6-36     [1, 672, 32, 32]          --
│    │    │    │    │    │    └─Conv2d: 7-70            [1, 672, 32, 32]          75,264
│    │    │    │    │    │    └─BatchNorm2d: 7-71       [1, 672, 32, 32]          1,344
│    │    │    │    │    │    └─ReLU: 7-72              [1, 672, 32, 32]          --
│    │    │    │    │    └─ConvNormActivation: 6-37     [1, 672, 32, 32]          --
│    │    │    │    │    │    └─Conv2d: 7-73            [1, 672, 32, 32]          16,800
│    │    │    │    │    │    └─BatchNorm2d: 7-74       [1, 672, 32, 32]          1,344
│    │    │    │    │    │    └─ReLU: 7-75              [1, 672, 32, 32]          --
│    │    │    │    │    └─Identity: 6-38               [1, 672, 32, 32]          --
│    │    │    │    │    └─ConvNormActivation: 6-39     [1, 112, 32, 32]          --
│    │    │    │    │    │    └─Conv2d: 7-76            [1, 112, 32, 32]          75,264
│    │    │    │    │    │    └─BatchNorm2d: 7-77       [1, 112, 32, 32]          224
│    │    │    │    └─StochasticDepth: 5-19             [1, 112, 32, 32]          --
│    │    │    │    └─AddBlock: 5-20                    [1, 112, 32, 32]          --
│    │    │    └─MBConv: 4-14                           [1, 112, 32, 32]          --
│    │    │    │    └─Sequential: 5-21                  [1, 112, 32, 32]          --
│    │    │    │    │    └─ConvNormActivation: 6-40     [1, 672, 32, 32]          --
│    │    │    │    │    │    └─Conv2d: 7-78            [1, 672, 32, 32]          75,264
│    │    │    │    │    │    └─BatchNorm2d: 7-79       [1, 672, 32, 32]          1,344
│    │    │    │    │    │    └─ReLU: 7-80              [1, 672, 32, 32]          --
│    │    │    │    │    └─ConvNormActivation: 6-41     [1, 672, 32, 32]          --
│    │    │    │    │    │    └─Conv2d: 7-81            [1, 672, 32, 32]          16,800
│    │    │    │    │    │    └─BatchNorm2d: 7-82       [1, 672, 32, 32]          1,344
│    │    │    │    │    │    └─ReLU: 7-83              [1, 672, 32, 32]          --
│    │    │    │    │    └─Identity: 6-42               [1, 672, 32, 32]          --
│    │    │    │    │    └─ConvNormActivation: 6-43     [1, 112, 32, 32]          --
│    │    │    │    │    │    └─Conv2d: 7-84            [1, 112, 32, 32]          75,264
│    │    │    │    │    │    └─BatchNorm2d: 7-85       [1, 112, 32, 32]          224
│    │    │    │    └─StochasticDepth: 5-22             [1, 112, 32, 32]          --
│    │    │    │    └─AddBlock: 5-23                    [1, 112, 32, 32]          --
│    │    └─Sequential: 3-12                            [1, 192, 16, 16]          --
│    │    │    └─MBConv: 4-15                           [1, 192, 16, 16]          --
│    │    │    │    └─Sequential: 5-24                  [1, 192, 16, 16]          --
│    │    │    │    │    └─ConvNormActivation: 6-44     [1, 672, 32, 32]          --
│    │    │    │    │    │    └─Conv2d: 7-86            [1, 672, 32, 32]          75,264
│    │    │    │    │    │    └─BatchNorm2d: 7-87       [1, 672, 32, 32]          1,344
│    │    │    │    │    │    └─ReLU: 7-88              [1, 672, 32, 32]          --
│    │    │    │    │    └─ConvNormActivation: 6-45     [1, 672, 16, 16]          --
│    │    │    │    │    │    └─Conv2d: 7-89            [1, 672, 16, 16]          16,800
│    │    │    │    │    │    └─BatchNorm2d: 7-90       [1, 672, 16, 16]          1,344
│    │    │    │    │    │    └─ReLU: 7-91              [1, 672, 16, 16]          --
│    │    │    │    │    └─Identity: 6-46               [1, 672, 16, 16]          --
│    │    │    │    │    └─ConvNormActivation: 6-47     [1, 192, 16, 16]          --
│    │    │    │    │    │    └─Conv2d: 7-92            [1, 192, 16, 16]          129,024
│    │    │    │    │    │    └─BatchNorm2d: 7-93       [1, 192, 16, 16]          384
│    │    │    └─MBConv: 4-16                           [1, 192, 16, 16]          --
│    │    │    │    └─Sequential: 5-25                  [1, 192, 16, 16]          --
│    │    │    │    │    └─ConvNormActivation: 6-48     [1, 1152, 16, 16]         --
│    │    │    │    │    │    └─Conv2d: 7-94            [1, 1152, 16, 16]         221,184
│    │    │    │    │    │    └─BatchNorm2d: 7-95       [1, 1152, 16, 16]         2,304
│    │    │    │    │    │    └─ReLU: 7-96              [1, 1152, 16, 16]         --
│    │    │    │    │    └─ConvNormActivation: 6-49     [1, 1152, 16, 16]         --
│    │    │    │    │    │    └─Conv2d: 7-97            [1, 1152, 16, 16]         28,800
│    │    │    │    │    │    └─BatchNorm2d: 7-98       [1, 1152, 16, 16]         2,304
│    │    │    │    │    │    └─ReLU: 7-99              [1, 1152, 16, 16]         --
│    │    │    │    │    └─Identity: 6-50               [1, 1152, 16, 16]         --
│    │    │    │    │    └─ConvNormActivation: 6-51     [1, 192, 16, 16]          --
│    │    │    │    │    │    └─Conv2d: 7-100           [1, 192, 16, 16]          221,184
│    │    │    │    │    │    └─BatchNorm2d: 7-101      [1, 192, 16, 16]          384
│    │    │    │    └─StochasticDepth: 5-26             [1, 192, 16, 16]          --
│    │    │    │    └─AddBlock: 5-27                    [1, 192, 16, 16]          --
│    │    │    └─MBConv: 4-17                           [1, 192, 16, 16]          --
│    │    │    │    └─Sequential: 5-28                  [1, 192, 16, 16]          --
│    │    │    │    │    └─ConvNormActivation: 6-52     [1, 1152, 16, 16]         --
│    │    │    │    │    │    └─Conv2d: 7-102           [1, 1152, 16, 16]         221,184
│    │    │    │    │    │    └─BatchNorm2d: 7-103      [1, 1152, 16, 16]         2,304
│    │    │    │    │    │    └─ReLU: 7-104             [1, 1152, 16, 16]         --
│    │    │    │    │    └─ConvNormActivation: 6-53     [1, 1152, 16, 16]         --
│    │    │    │    │    │    └─Conv2d: 7-105           [1, 1152, 16, 16]         28,800
│    │    │    │    │    │    └─BatchNorm2d: 7-106      [1, 1152, 16, 16]         2,304
│    │    │    │    │    │    └─ReLU: 7-107             [1, 1152, 16, 16]         --
│    │    │    │    │    └─Identity: 6-54               [1, 1152, 16, 16]         --
│    │    │    │    │    └─ConvNormActivation: 6-55     [1, 192, 16, 16]          --
│    │    │    │    │    │    └─Conv2d: 7-108           [1, 192, 16, 16]          221,184
│    │    │    │    │    │    └─BatchNorm2d: 7-109      [1, 192, 16, 16]          384
│    │    │    │    └─StochasticDepth: 5-29             [1, 192, 16, 16]          --
│    │    │    │    └─AddBlock: 5-30                    [1, 192, 16, 16]          --
│    │    │    └─MBConv: 4-18                           [1, 192, 16, 16]          --
│    │    │    │    └─Sequential: 5-31                  [1, 192, 16, 16]          --
│    │    │    │    │    └─ConvNormActivation: 6-56     [1, 1152, 16, 16]         --
│    │    │    │    │    │    └─Conv2d: 7-110           [1, 1152, 16, 16]         221,184
│    │    │    │    │    │    └─BatchNorm2d: 7-111      [1, 1152, 16, 16]         2,304
│    │    │    │    │    │    └─ReLU: 7-112             [1, 1152, 16, 16]         --
│    │    │    │    │    └─ConvNormActivation: 6-57     [1, 1152, 16, 16]         --
│    │    │    │    │    │    └─Conv2d: 7-113           [1, 1152, 16, 16]         28,800
│    │    │    │    │    │    └─BatchNorm2d: 7-114      [1, 1152, 16, 16]         2,304
│    │    │    │    │    │    └─ReLU: 7-115             [1, 1152, 16, 16]         --
│    │    │    │    │    └─Identity: 6-58               [1, 1152, 16, 16]         --
│    │    │    │    │    └─ConvNormActivation: 6-59     [1, 192, 16, 16]          --
│    │    │    │    │    │    └─Conv2d: 7-116           [1, 192, 16, 16]          221,184
│    │    │    │    │    │    └─BatchNorm2d: 7-117      [1, 192, 16, 16]          384
│    │    │    │    └─StochasticDepth: 5-32             [1, 192, 16, 16]          --
│    │    │    │    └─AddBlock: 5-33                    [1, 192, 16, 16]          --
│    │    └─Sequential: 3-13                            [1, 320, 16, 16]          --
│    │    │    └─MBConv: 4-19                           [1, 320, 16, 16]          --
│    │    │    │    └─Sequential: 5-34                  [1, 320, 16, 16]          --
│    │    │    │    │    └─ConvNormActivation: 6-60     [1, 1152, 16, 16]         --
│    │    │    │    │    │    └─Conv2d: 7-118           [1, 1152, 16, 16]         221,184
│    │    │    │    │    │    └─BatchNorm2d: 7-119      [1, 1152, 16, 16]         2,304
│    │    │    │    │    │    └─ReLU: 7-120             [1, 1152, 16, 16]         --
│    │    │    │    │    └─ConvNormActivation: 6-61     [1, 1152, 16, 16]         --
│    │    │    │    │    │    └─Conv2d: 7-121           [1, 1152, 16, 16]         10,368
│    │    │    │    │    │    └─BatchNorm2d: 7-122      [1, 1152, 16, 16]         2,304
│    │    │    │    │    │    └─ReLU: 7-123             [1, 1152, 16, 16]         --
│    │    │    │    │    └─Identity: 6-62               [1, 1152, 16, 16]         --
│    │    │    │    │    └─ConvNormActivation: 6-63     [1, 320, 16, 16]          --
│    │    │    │    │    │    └─Conv2d: 7-124           [1, 320, 16, 16]          368,640
│    │    │    │    │    │    └─BatchNorm2d: 7-125      [1, 320, 16, 16]          640
│    └─FeaturePyramidNetwork: 2-2                       [1, 256, 2, 2]            --
│    │    └─ModuleList: 3-1                             --                        --
│    │    │    └─Conv2d: 4-20                           [1, 256, 16, 16]          82,176
│    │    └─ModuleList: 3-2                             --                        --
│    │    │    └─Sequential: 4-21                       [1, 256, 16, 16]          --
│    │    │    │    └─Sequential: 5-35                  [1, 256, 16, 16]          --
│    │    │    │    │    └─Conv2d: 6-64                 [1, 256, 16, 16]          2,560
│    │    │    │    │    └─BatchNorm2d: 6-65            [1, 256, 16, 16]          512
│    │    │    │    │    └─ReLU: 6-66                   [1, 256, 16, 16]          --
│    │    │    │    └─Sequential: 5-36                  [1, 256, 16, 16]          --
│    │    │    │    │    └─Conv2d: 6-67                 [1, 256, 16, 16]          65,792
│    │    └─ModuleList: 3-1                             --                        --
│    │    │    └─Conv2d: 4-22                           [1, 256, 32, 32]          28,928
│    │    └─ModuleList: 3-3                             --                        --
│    │    │    └─AddBlock: 4-23                         [1, 256, 32, 32]          --
│    │    └─ModuleList: 3-2                             --                        --
│    │    │    └─Sequential: 4-24                       [1, 256, 32, 32]          --
│    │    │    │    └─Sequential: 5-37                  [1, 256, 32, 32]          --
│    │    │    │    │    └─Conv2d: 6-68                 [1, 256, 32, 32]          2,560
│    │    │    │    │    └─BatchNorm2d: 6-69            [1, 256, 32, 32]          512
│    │    │    │    │    └─ReLU: 6-70                   [1, 256, 32, 32]          --
│    │    │    │    └─Sequential: 5-38                  [1, 256, 32, 32]          --
│    │    │    │    │    └─Conv2d: 6-71                 [1, 256, 32, 32]          65,792
│    │    └─ModuleList: 3-1                             --                        --
│    │    │    └─Conv2d: 4-25                           [1, 256, 64, 64]          10,496
│    │    └─ModuleList: 3-3                             --                        --
│    │    │    └─AddBlock: 4-26                         [1, 256, 64, 64]          --
│    │    └─ModuleList: 3-2                             --                        --
│    │    │    └─Sequential: 4-27                       [1, 256, 64, 64]          --
│    │    │    │    └─Sequential: 5-39                  [1, 256, 64, 64]          --
│    │    │    │    │    └─Conv2d: 6-72                 [1, 256, 64, 64]          2,560
│    │    │    │    │    └─BatchNorm2d: 6-73            [1, 256, 64, 64]          512
│    │    │    │    │    └─ReLU: 6-74                   [1, 256, 64, 64]          --
│    │    │    │    └─Sequential: 5-40                  [1, 256, 64, 64]          --
│    │    │    │    │    └─Conv2d: 6-75                 [1, 256, 64, 64]          65,792
│    │    └─LastLevelP6P7: 3-14                         [1, 256, 64, 64]          --
│    │    │    └─Sequential: 4-28                       [1, 256, 8, 8]            --
│    │    │    │    └─Sequential: 5-41                  [1, 256, 8, 8]            --
│    │    │    │    │    └─Conv2d: 6-76                 [1, 256, 8, 8]            2,560
│    │    │    │    │    └─BatchNorm2d: 6-77            [1, 256, 8, 8]            512
│    │    │    │    │    └─ReLU: 6-78                   [1, 256, 8, 8]            --
│    │    │    │    └─Sequential: 5-42                  [1, 256, 8, 8]            --
│    │    │    │    │    └─Conv2d: 6-79                 [1, 256, 8, 8]            65,792
│    │    │    └─ReLU: 4-29                             [1, 256, 8, 8]            --
│    │    │    └─Sequential: 4-30                       [1, 256, 4, 4]            --
│    │    │    │    └─Sequential: 5-43                  [1, 256, 4, 4]            --
│    │    │    │    │    └─Conv2d: 6-80                 [1, 256, 4, 4]            2,560
│    │    │    │    │    └─BatchNorm2d: 6-81            [1, 256, 4, 4]            512
│    │    │    │    │    └─ReLU: 6-82                   [1, 256, 4, 4]            --
│    │    │    │    └─Sequential: 5-44                  [1, 256, 4, 4]            --
│    │    │    │    │    └─Conv2d: 6-83                 [1, 256, 4, 4]            65,792
│    │    │    └─ReLU: 4-31                             [1, 256, 4, 4]            --
│    │    │    └─Sequential: 4-32                       [1, 256, 2, 2]            --
│    │    │    │    └─Sequential: 5-45                  [1, 256, 2, 2]            --
│    │    │    │    │    └─Conv2d: 6-84                 [1, 256, 2, 2]            2,560
│    │    │    │    │    └─BatchNorm2d: 6-85            [1, 256, 2, 2]            512
│    │    │    │    │    └─ReLU: 6-86                   [1, 256, 2, 2]            --
│    │    │    │    └─Sequential: 5-46                  [1, 256, 2, 2]            --
│    │    │    │    │    └─Conv2d: 6-87                 [1, 256, 2, 2]            65,792
├─SSDLiteHead: 1-3                                      [1, 24560, 91]            --
│    └─SSDLiteRegressionHead: 2-3                       [1, 24560, 4]             --
│    │    └─ModuleList: 3-5                             --                        --
│    │    │    └─Sequential: 4-33                       [1, 16, 64, 64]           --
│    │    │    │    └─ConvNormActivation: 5-47          [1, 256, 64, 64]          --
│    │    │    │    │    └─Conv2d: 6-88                 [1, 256, 64, 64]          2,304
│    │    │    │    │    └─BatchNorm2d: 6-89            [1, 256, 64, 64]          512
│    │    │    │    │    └─ReLU: 6-90                   [1, 256, 64, 64]          --
│    │    │    │    └─Conv2d: 5-48                      [1, 16, 64, 64]           4,112
│    │    │    └─Sequential: 4-34                       [1, 24, 32, 32]           --
│    │    │    │    └─ConvNormActivation: 5-49          [1, 256, 32, 32]          --
│    │    │    │    │    └─Conv2d: 6-91                 [1, 256, 32, 32]          2,304
│    │    │    │    │    └─BatchNorm2d: 6-92            [1, 256, 32, 32]          512
│    │    │    │    │    └─ReLU: 6-93                   [1, 256, 32, 32]          --
│    │    │    │    └─Conv2d: 5-50                      [1, 24, 32, 32]           6,168
│    │    │    └─Sequential: 4-35                       [1, 24, 16, 16]           --
│    │    │    │    └─ConvNormActivation: 5-51          [1, 256, 16, 16]          --
│    │    │    │    │    └─Conv2d: 6-94                 [1, 256, 16, 16]          2,304
│    │    │    │    │    └─BatchNorm2d: 6-95            [1, 256, 16, 16]          512
│    │    │    │    │    └─ReLU: 6-96                   [1, 256, 16, 16]          --
│    │    │    │    └─Conv2d: 5-52                      [1, 24, 16, 16]           6,168
│    │    │    └─Sequential: 4-36                       [1, 24, 8, 8]             --
│    │    │    │    └─ConvNormActivation: 5-53          [1, 256, 8, 8]            --
│    │    │    │    │    └─Conv2d: 6-97                 [1, 256, 8, 8]            2,304
│    │    │    │    │    └─BatchNorm2d: 6-98            [1, 256, 8, 8]            512
│    │    │    │    │    └─ReLU: 6-99                   [1, 256, 8, 8]            --
│    │    │    │    └─Conv2d: 5-54                      [1, 24, 8, 8]             6,168
│    │    │    └─Sequential: 4-37                       [1, 24, 4, 4]             --
│    │    │    │    └─ConvNormActivation: 5-55          [1, 256, 4, 4]            --
│    │    │    │    │    └─Conv2d: 6-100                [1, 256, 4, 4]            2,304
│    │    │    │    │    └─BatchNorm2d: 6-101           [1, 256, 4, 4]            512
│    │    │    │    │    └─ReLU: 6-102                  [1, 256, 4, 4]            --
│    │    │    │    └─Conv2d: 5-56                      [1, 24, 4, 4]             6,168
│    │    │    └─Sequential: 4-38                       [1, 16, 2, 2]             --
│    │    │    │    └─ConvNormActivation: 5-57          [1, 256, 2, 2]            --
│    │    │    │    │    └─Conv2d: 6-103                [1, 256, 2, 2]            2,304
│    │    │    │    │    └─BatchNorm2d: 6-104           [1, 256, 2, 2]            512
│    │    │    │    │    └─ReLU: 6-105                  [1, 256, 2, 2]            --
│    │    │    │    └─Conv2d: 5-58                      [1, 16, 2, 2]             4,112
│    └─SSDLiteClassificationHead: 2-4                   [1, 24560, 91]            --
│    │    └─ModuleList: 3-4                             --                        --
│    │    │    └─Sequential: 4-39                       [1, 364, 64, 64]          --
│    │    │    │    └─ConvNormActivation: 5-59          [1, 256, 64, 64]          --
│    │    │    │    │    └─Conv2d: 6-106                [1, 256, 64, 64]          2,304
│    │    │    │    │    └─BatchNorm2d: 6-107           [1, 256, 64, 64]          512
│    │    │    │    │    └─ReLU: 6-108                  [1, 256, 64, 64]          --
│    │    │    │    └─Conv2d: 5-60                      [1, 364, 64, 64]          93,548
│    │    │    └─Sequential: 4-40                       [1, 546, 32, 32]          --
│    │    │    │    └─ConvNormActivation: 5-61          [1, 256, 32, 32]          --
│    │    │    │    │    └─Conv2d: 6-109                [1, 256, 32, 32]          2,304
│    │    │    │    │    └─BatchNorm2d: 6-110           [1, 256, 32, 32]          512
│    │    │    │    │    └─ReLU: 6-111                  [1, 256, 32, 32]          --
│    │    │    │    └─Conv2d: 5-62                      [1, 546, 32, 32]          140,322
│    │    │    └─Sequential: 4-41                       [1, 546, 16, 16]          --
│    │    │    │    └─ConvNormActivation: 5-63          [1, 256, 16, 16]          --
│    │    │    │    │    └─Conv2d: 6-112                [1, 256, 16, 16]          2,304
│    │    │    │    │    └─BatchNorm2d: 6-113           [1, 256, 16, 16]          512
│    │    │    │    │    └─ReLU: 6-114                  [1, 256, 16, 16]          --
│    │    │    │    └─Conv2d: 5-64                      [1, 546, 16, 16]          140,322
│    │    │    └─Sequential: 4-42                       [1, 546, 8, 8]            --
│    │    │    │    └─ConvNormActivation: 5-65          [1, 256, 8, 8]            --
│    │    │    │    │    └─Conv2d: 6-115                [1, 256, 8, 8]            2,304
│    │    │    │    │    └─BatchNorm2d: 6-116           [1, 256, 8, 8]            512
│    │    │    │    │    └─ReLU: 6-117                  [1, 256, 8, 8]            --
│    │    │    │    └─Conv2d: 5-66                      [1, 546, 8, 8]            140,322
│    │    │    └─Sequential: 4-43                       [1, 546, 4, 4]            --
│    │    │    │    └─ConvNormActivation: 5-67          [1, 256, 4, 4]            --
│    │    │    │    │    └─Conv2d: 6-118                [1, 256, 4, 4]            2,304
│    │    │    │    │    └─BatchNorm2d: 6-119           [1, 256, 4, 4]            512
│    │    │    │    │    └─ReLU: 6-120                  [1, 256, 4, 4]            --
│    │    │    │    └─Conv2d: 5-68                      [1, 546, 4, 4]            140,322
│    │    │    └─Sequential: 4-44                       [1, 364, 2, 2]            --
│    │    │    │    └─ConvNormActivation: 5-69          [1, 256, 2, 2]            --
│    │    │    │    │    └─Conv2d: 6-121                [1, 256, 2, 2]            2,304
│    │    │    │    │    └─BatchNorm2d: 6-122           [1, 256, 2, 2]            512
│    │    │    │    │    └─ReLU: 6-123                  [1, 256, 2, 2]            --
│    │    │    │    └─Conv2d: 5-70                      [1, 364, 2, 2]            93,548
├─DefaultBoxGenerator: 1-4                              [24560, 4]                --
=========================================================================================================
Total params: 4,308,704
Trainable params: 4,308,704
Non-trainable params: 0
Total mult-adds (G): 2.99
=========================================================================================================
Input size (MB): 3.15
Forward/backward pass size (MB): 665.92
Params size (MB): 17.23
…
